src/model_artifacts/Model_UI_t20_2024-05-31.pth (torch, 779383 bytes, 31 tensors)

fc1.weight f4 [512, 25]
0	0x3d41f81c	0.047355756
1	0x3db8d3e3	0.09024789
2	0x3d8246ec	0.063611835
3	0xbe938737	-0.28814098
4	0xbe22a671	-0.15883805
5	0xbe9b2f6d	-0.3030962
6	0xbe06f27c	-0.13178438
7	0x3dbc6763	0.09199407
8	0x2b28127e	5.9711253e-13
9	0xbf04b11d	-0.51832753
10	0xbe80f294	-0.25185072
11	0x3e1dbe61	0.15404655
12	0xbc9be80c	-0.019031547
13	0xbca60ff6	-0.020271283
14	0xbe7469be	-0.23868462
15	0x3dd9c43a	0.1063313
16	0x3e3c1228	0.18366301
17	0x3cf0b215	0.029381791
18	0x3e0b55e5	0.13606985
19	0xbea73c20	-0.3266306
20	0x3e4d6a96	0.2006019
21	0xbf1fe790	-0.6246271
22	0xbe2c80fc	-0.16846079
23	0xbe03a12a	-0.12854448
24	0xbf44d82f	-0.7689237
25	0xbc3fb972	-0.011701928
26	0xbdd8e1a7	-0.10589915
27	0xbec18891	-0.37799504
28	0x3d93863e	0.07203339
29	0xbb41c09b	-0.0029564265
30	0x3e1e649e	0.1546807
31	0xbe8670b9	-0.26257876
32	0x3f10551c	0.56379867
33	0x295ec19c	4.946183e-14
34	0x3cf53368	0.029931739
35	0xbedf981a	-0.43670732
36	0xbefa276e	-0.48858207
37	0xbe48fc4a	-0.1962749
38	0xbe1d5d82	-0.15367702
39	0x3dc8bd96	0.09801786
40	0xbf152861	-0.5826474
41	0x3e670e89	0.22564138
42	0x3e535509	0.20637907
43	0xbd6e1d0b	-0.058133166
44	0xbd982041	-0.07428027
45	0xbe034047	-0.12817489
46	0x3e34e104	0.17663962
47	0x3dffb0a5	0.12484864
48	0x3eb18712	0.34673363
49	0x3e51bedc	0.20482963
50	0x3e180946	0.14847288
51	0xbe1a42f2	-0.150646
52	0x3daf98e3	0.08574083
53	0x3e727a87	0.23679553
54	0x3ee07de2	0.4384604
55	0xbeaf97a0	-0.34295368
56	0x3ec5a843	0.38604936
57	0x3f1e6807	0.61877483
58	0x288ace72	1.5410609e-14
59	0xbd8e054e	-0.069346055
60	0x3d4e8bca	0.050426282
61	0x3e922d37	0.2855012
62	0xbe8d93d2	-0.2765184
63	0xbd8a2fc1	-0.067473896
64	0x3e0867f2	0.13320902
65	0x3dabc20d	0.083866216
66	0xbe1bd31a	-0.15217248
67	0xbdd656d7	-0.10465782
68	0x3e1aabf0	0.15104651
69	0x3e399896	0.18124613
70	0xbdf8b83c	-0.12144515
71	0xbed28fa8	-0.41125226
72	0xbebbf705	-0.36711898
73	0x3e7c0806	0.24612436
74	0x3e03ac3b	0.1285867
75	0xbe916a58	-0.28401446
76	0xbc24bc74	-0.010054696
77	0xbe640c0c	-0.2227022
78	0x3e844b68	0.2583878
79	0x3da8e25a	0.08246298
80	0xbe1d21c4	-0.15344912
81	0xbe9c2986	-0.3050043
82	0x3e03e490	0.12880158
83	0xab45e58c	-7.030702e-13
84	0x3e8c3d5f	0.27390572
85	0x3b2eac9a	0.0026653172
86	0xbe48ce33	-0.19609909
87	0x3be9b7ac	0.007132491
88	0x3e63a2ef	0.22230123
89	0xbe34030b	-0.17579286
90	0xbe81eecc	-0.253775
91	0x3cdcc7a9	0.026950674
92	0xbe685092	-0.22686985
93	0x38d23310	0.000100230915
94	0xbe888db1	-0.26670602
95	0x3e5f9796	0.21835169
96	0xbd98c60c	-0.074596494
97	0xbead737e	-0.33877176
98	0x3e467eb8	0.19384277
99	0x3edb32bf	0.42812154
100	0xbe96c4ad	-0.29446927
101	0x3e901b16	0.28145665
102	0xbeb0f40a	-0.34561187
103	0xbda267d2	-0.079299584
104	0xbd145184	-0.03621055
105	0xbe9efb84	-0.31051266
106	0xbef0e0b7	-0.47046444
107	0xbd36abeb	-0.044597548
108	0xaa337ef8	-1.5942445e-13
109	0x3eec8834	0.46197665
110	0xbe1b25c2	-0.15151122
111	0xbf42529f	-0.7590732
112	0x3b31317c	0.0027037552
113	0xbe156673	-0.14589863
114	0x3ce99ddf	0.028517662
115	0x3e452bb4	0.19254953
116	0xbcdeec75	-0.02721236
117	0xbdebe5ce	-0.11518441
118	0x3e43fa84	0.19138533
119	0xbf0e3535	-0.5554994
120	0x3e859697	0.26091453
121	0xbe3bac95	-0.18327554
122	0xbd9ded20	-0.07711244
123	0xbdf8c5db	-0.12147113
124	0x3dbc573e	0.091963276
125	0xbec11eaa	-0.37718707
126	0xbd6c1098	-0.057633013
127	0xbdb5915a	-0.08865614
128	0x3e14a511	0.14516093
129	0xbd617972	-0.05504746
130	0xbe8583f7	-0.26077244
131	0xbf195047	-0.5988812
132	0x3f494cc2	0.7863275
133	0xaab5a7da	-3.226853e-13
134	0x3df200c6	0.11816554
135	0xbdfb7057	-0.122772865
136	0x3dcf5219	0.10123081
137	0xbeaf1a95	-0.34199968
138	0xbd51c876	-0.051216565
139	0xbdbea454	-0.09308687
140	0xbe932338	-0.28737807
141	0xbe427696	-0.1899055
142	0x3e68a62b	0.22719638
143	0xbd578db3	-0.05262537
144	0x3c8addaa	0.0169514
145	0x3dbd4974	0.09242526
146	0xbf0a0216	-0.5390943
147	0xbd498ec5	-0.04920842
148	0x3c99da28	0.018780783
149	0x3d50269f	0.050818082
150	0x3e83b141	0.25721171
151	0xbcb89a09	-0.022534387
152	0xbe985bf8	-0.29757667
153	0xbe62a136	-0.2213181
154	0xbeca5b79	-0.39522913
155	0x3bd849fe	0.0066006174
156	0x3e3d7d44	0.18504816
157	0xbd3c5a22	-0.045984395
158	0xab0118c8	-4.58644e-13
159	0x3e7153f9	0.2356719
160	0x3e96e695	0.29472795
161	0xbe4c1258	-0.19928873
162	0x3eff7d9c	0.4990052
163	0x3d879311	0.066198476
164	0xbe5798e3	-0.21054415
165	0x3c1ec30a	0.009690056
166	0xbe81bbd8	-0.25338626
167	0x3d757a54	0.059931114
168	0x3d6a9a1c	0.057275876
169	0xbe983ce2	-0.2973395
170	0x3ed7a724	0.42119706
171	0x3d2468c3	0.04013897
172	0x3d5081e3	0.05090512
173	0x3dd976e3	0.10618379
174	0x3e7a0ece	0.2441971
175	0x3dfcdcd0	0.12346804
176	0xbf2e0390	-0.67974186
177	0xbd4ade8a	-0.049528636
178	0xbeaa92df	-0.3331518
179	0x3dcb9bea	0.099418476
180	0xbe6054e6	-0.21907386
181	0x3dded8d4	0.108812004
182	0xbeb9753a	-0.3622225
183	0x29eab7ec	1.0423593e-13
184	0xbeb85cc0	-0.36008263
185	0xbec51cb0	-0.3849845
186	0x3e39c4dd	0.18141504
187	0xbd19b76d	-0.037528444
188	0xbd3e1080	-0.046402454
189	0xbda944f8	-0.08265108
190	0xbdee9a05	-0.11650471
191	0xbdf56e2e	-0.11983906
192	0xbe0b6182	-0.13611415
193	0xbcbbc230	-0.022919744
194	0xbd4c74b1	-0.049915973
195	0x3d187a63	0.037226092
196	0x3ecbbcfa	0.39792615
197	0x3d080161	0.03320444
198	0xbe6905a7	-0.22756062
199	0xbe3d3b87	-0.18479739
200	0xbdc27af7	-0.0949611
201	0xbdc92cdf	-0.098230116
202	0x3d2865b1	0.041112605
203	0xbbfd6d66	-0.0077339886
204	0x3e49ca00	0.19705963
205	0xbeb3afa4	-0.3509494
206	0x3d89230c	0.06696138
207	0xbeebd361	-0.46059707
208	0xaa63695f	-2.0198208e-13
209	0xbd9ee441	-0.0775838
210	0xbe94e9af	-0.29084536
211	0x3e8e64e9	0.27811363
212	0x3e7bc5c5	0.24587162
213	0xbe148474	-0.14503652
214	0x3ea8582c	0.3287977
215	0xbc068986	-0.008211499
216	0x3e41a029	0.18908753
217	0x3e1e6d28	0.15471327
218	0x3eb9018f	0.36134002
219	0x3dc5bf78	0.096556604
220	0xbe1a7593	-0.15083914
221	0xbddb12f0	-0.106969714
222	0xbd1fb51b	-0.038991075
223	0x3ecdfd84	0.4023248
224	0xbeae1c9d	-0.34006205
225	0x3d4c67d9	0.049903724
226	0xbd93e5f7	-0.07221597
227	0x3dd7e209	0.1054116
228	0xbe69766f	-0.22799085
229	0x3d02d9d7	0.03194603
230	0xbe100276	-0.14063439
231	0x3ee70a0b	0.4512485
232	0xbe9c0388	-0.30471444
233	0xa8013350	-7.172065e-15
234	0x3ea41c70	0.32052946
235	0xbe3ef901	-0.18649675
236	0xbcdaf436	-0.026727777
237	0x3bba1f51	0.0056800027
238	0x3eb45b21	0.35225776
239	0x3e7f224b	0.24915425
240	0xbe302fc8	-0.17205727
241	0xbdd9f3f6	-0.10642235
242	0xbd74412d	-0.05963247
243	0xbf69e107	-0.9135899
244	0x3e4325e1	0.19057418
245	0x3d6adcda	0.057339527
246	0xbf178895	-0.5919278
247	0x3e38c4ae	0.18043777
248	0xbea946e6	-0.33061904
249	0xbe2b1d2e	-0.1671035
250	0xbebb825f	-0.36622903
251	0xbe4ac91d	-0.19803281
252	0xbe9f1144	-0.3106786
253	0x3d872a08	0.06599814
254	0x3c8b6f8d	0.017020965
255	0xbe58046a	-0.21095434

fc1.bias f4 [512]
0	0x3b501c28	0.0031755064
1	0xbb87842e	-0.00413563
2	0xbac1e1d8	-0.0014792038
3	0x3b08bdee	0.002086516
4	0xbc6f1a26	-0.014593637
5	0xbb1ad220	-0.002362378
6	0x3bca7363	0.006178306
7	0xbc145f94	-0.009055991
8	0x3c1335a8	0.008984961
9	0x3bead369	0.0071663153
10	0xbc219811	-0.009862916
11	0x3a60a94c	0.0008570149
12	0xba3e4afa	-0.0007259097
13	0xbbdf3986	-0.0068122772
14	0xba72f668	-0.0009268285
15	0xba190038	-0.00058365194
16	0xb9c20670	-0.0003700736
17	0x39b16b54	0.00033840036
18	0x3c0fe944	0.008783642
19	0x3b7e7284	0.003882558
20	0xbad34e9f	-0.0016121453
21	0xbc41cf6e	-0.01182924
22	0x3aa6f628	0.0012738155
23	0xbbda102b	-0.0066547594
24	0x3bc08525	0.005875247
25	0xbc7955db	-0.015218223
26	0xbb30a177	-0.002695171
27	0xba580834	-0.00082409685
28	0x3c1484bb	0.009064849
29	0xba801c38	-0.0009774035
30	0xbbc6a0d8	-0.0060616545
31	0x3c2db81c	0.010602977
32	0xbaa7ef20	-0.0012812354
33	0xbc2a8dd4	-0.010409791
34	0xb915b734	-0.00014277996
35	0x3c80acda	0.015707422
36	0x3c237fea	0.009979228
37	0x3c9f1e8a	0.019423742
38	0x3b1e2726	0.002413222
39	0x3b5cecc0	0.003371045
40	0x3aa97094	0.0012927228
41	0x3a321e98	0.000679472
42	0x3aa04ebe	0.0012230498
43	0x3c150e86	0.009097701
44	0x3bc60fe3	0.0060443743
45	0xbbd50ef4	-0.0065020267
46	0x3a99ff06	0.0011748977
47	0xbafbd8fb	-0.0019214445
48	0xbb3e4310	-0.0029031672
49	0xbb2fc6b0	-0.0026821308
50	0xba1d2c85	-0.00059957086
51	0xbb013cb1	-0.0019720013
52	0xbc056b03	-0.008143189
53	0xbb919a9e	-0.0044434806
54	0x3becf18f	0.0072309445
55	0x3afece35	0.0019440117
56	0x3ab6bc01	0.0013941528
57	0xbbd84e0e	-0.0066011017
58	0x3884ef10	6.338779e-05
59	0xbb846242	-0.0040400336
60	0xbc1c17be	-0.009527145
61	0xbad31059	-0.0016102894
62	0x3b868862	0.0041056136
63	0x3b088554	0.0020831423
64	0xbbe09d1a	-0.0068546655
65	0xbb0700ec	-0.0020599915
66	0x3bd78759	0.006577414
67	0xba8cd166	-0.0010743558
68	0x3b8ea281	0.004352868
69	0xba0bdf22	-0.00053356786
70	0xbb257d98	-0.0025251862
71	0x3ba2fc18	0.0049738996
72	0xbccdd464	-0.02512569
73	0xbc2fa9ba	-0.010721618
74	0xba8523ba	-0.0010157742
75	0x3a93b100	0.001126796
76	0x3a708808	0.00091755437
77	0xba9f9754	-0.0012175837
78	0x3b7069fe	0.003668427
79	0x390bcd78	0.00013332616
80	0xbb8f3288	-0.0043700375
81	0xbc989e1b	-0.018630078
82	0x3c3bf101	0.011471034
83	0x3a61ef18	0.00086186966
84	0xbbe3ce1b	-0.00695206
85	0xbb75bc45	-0.003749625
86	0xbaf63c20	-0.0018786229
87	0x3bae7dbc	0.0053250473
88	0x38ae3d00	8.308329e-05
89	0xba836752	-0.0010025299
90	0x3c0057df	0.00783345
91	0xbb6e6bf2	-0.0036380258
92	0xbbe6390f	-0.007025845
93	0x3ab71c06	0.0013970144
94	0xb9cafe44	-0.00038717885
95	0xbb8af6aa	-0.0042408304
96	0x3c2abd80	0.010421157
97	0xbbb91804	-0.005648615
98	0x3a3f21a1	0.0007291083
99	0x3aa0efcc	0.0012278496
100	0x3b412c7f	0.0029475985
101	0x3c0411d1	0.008060888
102	0xbb3182ee	-0.0027086097
103	0x3c5776df	0.0131509
104	0xbbcc2ba2	-0.0062307874
105	0xb95141e0	-0.00019956334
106	0xbbee5f4a	-0.007274543
107	0x3b8e9c84	0.004352154
108	0xbb70d0b0	-0.0036745481
109	0xb98da800	-0.00027018785
110	0xbaca2bb4	-0.0015424401
111	0x3b455d16	0.0030115298
112	0x3a3fbf8a	0.00073146133
113	0xbb6dcfc7	-0.0036287175
114	0xba4da8d0	-0.00078452844
115	0x3a8513d2	0.0010153002
116	0xb9817842	-0.00024694396
117	0x3a75306e	0.0009353225
118	0xbc2bc43a	-0.010483796
119	0x3c996d61	0.018728914
120	0xba8c2919	-0.00106934
121	0xbc33fa1b	-0.010984923
122	0xbc07022b	-0.008240263
123	0x3a346112	0.00068809197
124	0x3b345bf2	0.0027520624
125	0x3bb97708	0.0056599416
126	0xbb645b65	-0.0034844514
127	0xbc11efd8	-0.008907281
128	0x3ac4c31c	0.001501176
129	0x3c747e0f	0.014922633
130	0x3cec89f8	0.028874382
131	0xb9844578	-0.0002522876
132	0xba3fc118	-0.0007314845
133	0x3a994388	0.00116931
134	0xbc3b41ed	-0.011429292
135	0xbb67e260	-0.0035382733
136	0x3bf35dea	0.007426967
137	0xb7b00040	-2.0980951e-05
138	0xbb777fda	-0.0037765414
139	0x3af457b8	0.0018641865
140	0x3bc4ddac	0.0060078707
141	0xbbadb155	-0.0053006806
142	0xba024915	-0.00049699965
143	0x3a2f3875	0.0006684133
144	0xbc2ab087	-0.010418064
145	0x3ba79188	0.005113784
146	0xb9aab70d	-0.0003256131
147	0xbc194a5e	-0.009356109
148	0x3983e2aa	0.00025155145
149	0xbba02f6c	-0.0048884656
150	0x3b14c780	0.002270192
151	0xbbe22e7f	-0.0069025154
152	0x3c36d962	0.011160227
153	0xbb639f53	-0.0034732416
154	0xbac15c07	-0.0014752158
155	0x37a9b400	2.0230189e-05
156	0x3bad5cba	0.005290595
157	0xbc40fe88	-0.011779435
158	0xbbf1a124	-0.007373946
159	0xbc0f8523	-0.00875977
160	0xbbf1b3c5	-0.0073761665
161	0x39ed9d98	0.0004532158
162	0xbb5cd2d0	-0.003369499
163	0x3ab2d9f7	0.0013645281
164	0x3b570704	0.0032810578
165	0xbb9e3801	-0.0048284535
166	0xbc15cdc6	-0.0091432985
167	0x3ca7d718	0.020488307
168	0xbbb10c07	-0.005403045
169	0xbae4d820	-0.001745943
170	0xbb6de4dc	-0.003629974
171	0x3b969b3e	0.004596143
172	0xba8d246c	-0.0010768301
173	0xbada7d98	-0.001666951
174	0xbbd8073c	-0.0065926593
175	0xbb35e868	-0.0027756933
176	0xbb52a6ea	-0.0032142946
177	0xbb610d3c	-0.0034340164
178	0xba9331c9	-0.0011230047
179	0xbbf683e0	-0.007523045
180	0xbbb327ec	-0.0054674055
181	0x3c045137	0.008076004
182	0x3c16e00b	0.009208689
183	0xbb10f490	-0.0022118427
184	0x3b665cc1	0.00351505
185	0x3c6773b4	0.014126707
186	0x3c636e2c	0.0138812475
187	0xbbced0d4	-0.0063115153
188	0xbb1951cf	-0.002339471
189	0x3c0cafde	0.008586852
190	0x3b572326	0.0032827347
191	0x3ccd50b8	0.025062904
192	0xbb2f853e	-0.00267823
193	0x3bdbc278	0.006706532
194	0x39b9eea0	0.0003546374
195	0x3cb394b3	0.021921491
196	0xb9f59474	-0.00046840648
197	0xbabfddb3	-0.0014638215
198	0xbb30f523	-0.0027001582
199	0x3b9e9ff6	0.004840846
200	0x39200530	0.00015260722
201	0x3c7525af	0.014962598
202	0x3af3ae9f	0.001859147
203	0xbc3fd905	-0.011709456
204	0xbbcf4eba	-0.0063265236
205	0xbb9d3ca4	-0.0047984887
206	0x3a2bdff4	0.0006556504
207	0xba20c6e1	-0.0006133151
208	0xbb0dc5f5	-0.0021632884
209	0x3af6573f	0.0018794312
210	0x3c50be39	0.012740665
211	0xbb313f49	-0.0027045778
212	0xba82d318	-0.0009981124
213	0x3a9383a3	0.0011254441
214	0x3c9e7d78	0.019346938
215	0xba9b9109	-0.0011868785
216	0xb40e4800	-1.3250974e-07
217	0x3c15b273	0.009136784
218	0xbc2d9da2	-0.010596665
219	0x3bae8db8	0.005326953
220	0xb9a343e9	-0.0003114038
221	0xbb61dbc2	-0.0034463261
222	0xb65a4e00	-3.2529933e-06
223	0xba88ffc8	-0.0010452205
224	0xbc61d2fa	-0.013783211
225	0x3bae7354	0.005323807
226	0xb9f355d8	-0.0004641253
227	0x3c7722f7	0.01508402
228	0xb9c57138	-0.00037659123
229	0xba89ea17	-0.0010522035
230	0x3a23b4e0	0.0006244909
231	0x3b144344	0.0022623101
232	0x3b81f484	0.003965916
233	0x3ac4be86	0.0015010394
234	0x3bcde490	0.0062833503
235	0x3b27685b	0.0025544378
236	0x3c08aac3	0.008341494
237	0x3b85328a	0.0040648626
238	0xbb6f4b12	-0.0036513251
239	0xbb13e178	-0.002256481
240	0x3c050ac3	0.008120242
241	0xbb4cc0b6	-0.0031242794
242	0xbc628c87	-0.01382745
243	0xb91ef130	-0.00015157904
244	0x3ae528f9	0.0017483524
245	0x3a340754	0.0006867547
246	0x3bf7fa88	0.0075677074
247	0x3ab02dd9	0.0013441398
248	0x3cabd39d	0.020974929
249	0x3942f2a4	0.00018591672
250	0x3b6e00e9	0.003631646
251	0xbca692e0	-0.020333707
252	0x3abc4e52	0.0014366603
253	0xbbfc68ac	-0.0077029075
254	0x3b223e46	0.0024756356
255	0xba1f18a7	-0.0006069042

bn1.weight f4 [512]
0	0x3f8ccc46	1.0999839
1	0x3f562744	0.83653665
2	0x3f3cf4b1	0.7381087
3	0x3f858435	1.0430971
4	0x3f8ac0e3	1.0840114
5	0x3f8d6d01	1.104889
6	0x3f5f8aed	0.8732136
7	0x3f7b872a	0.9825312
8	0x3f8907b9	1.0705482
9	0x3f886dc8	1.0658503
10	0x3f8dd2df	1.1079978
11	0x3f598792	0.8497249
12	0x3f6ad041	0.9172402
13	0x3f7222ae	0.94584167
14	0x3f25d8fa	0.64784205
15	0x3f2746fc	0.6534269
16	0x3f6bd0b8	0.92115355
17	0x3f4ea693	0.8072292
18	0x3f84c53c	1.0372691
19	0x3f853490	1.0406666
20	0x3f639660	0.8890133
21	0x3f5f4da7	0.87227863
22	0x3f2d7345	0.6775401
23	0x3f7e751d	0.9939745
24	0x3f4518aa	0.7699076
25	0x3fa087da	1.2541459
26	0x3f7fea23	0.9996664
27	0x3f536fb2	0.8259231
28	0x3fb20210	1.390688
29	0x3ef36059	0.47534445
30	0x3f950970	1.1643505
31	0x3f873ca4	1.0565381
32	0x3f49a5d2	0.78768647
33	0x3f78661c	0.97030807
34	0x3f6bfc39	0.92181736
35	0x3f868bde	1.0511434
36	0x3f87025e	1.0547597
37	0x3f8a535f	1.0806693
38	0x3f3392f3	0.701461
39	0x3f91b22f	1.1382502
40	0x3f8c25c4	1.0949025
41	0x3f515bf9	0.81780964
42	0x3f6570a0	0.8962498
43	0x3f92978a	1.1452496
44	0x3f80cb73	1.0062088
45	0x3f86bc15	1.0526148
46	0x3f9037c4	1.1267018
47	0x3f75ed4f	0.9606523
48	0x3f4f9e01	0.8110047
49	0x3f76be5b	0.9638421
50	0x3f533772	0.8250648
51	0x3f85eb46	1.0462425
52	0x3f9f6c5d	1.2454945
53	0x3f4f99a0	0.8109379
54	0x3f6e580c	0.931031
55	0x3f66f22c	0.90213275
56	0x3f87f8e7	1.0622834
57	0x3f60da1c	0.8783281
58	0x3f1a71bf	0.6032981
59	0x3f79fddb	0.9765298
60	0x3f3494a1	0.7053929
61	0x3f290dfe	0.66036975
62	0x3f5fa557	0.87361664
63	0x3f46bc2c	0.7763088
64	0x3f682fc9	0.90697914
65	0x3f2a57a8	0.6654
66	0x3f760a58	0.96109533
67	0x3f97b047	1.185067
68	0x3f4c67d2	0.7984592
69	0x3f36725d	0.71268255
70	0x3f44c31b	0.7686021
71	0x3f2d47c8	0.67687654
72	0x3fa4652a	1.2843373
73	0x3f908865	1.1291624
74	0x3f82fd3b	1.023353
75	0x3f78fd50	0.97261524
76	0x3f9399f1	1.1531354
77	0x3f589b63	0.846121
78	0x3f583aef	0.84464926
79	0x3fa40786	1.2814796
80	0x3f7a8181	0.9785386
81	0x3f9c6224	1.221745
82	0x3f72996a	0.9476534
83	0x3f633eca	0.88767684
84	0x3f82144c	1.0162444
85	0x3f83962b	1.0280203
86	0x3f64a772	0.89318
87	0x3f58fe6b	0.8476321
88	0x3f730140	0.9492378
89	0x3f5d12e1	0.8635693
90	0x3f96d450	1.1783543
91	0x3f5d6234	0.8647797
92	0x3f4be3ad	0.7964428
93	0x3f56907d	0.8381422
94	0x3f6b20d2	0.91846955
95	0x3fa38c2b	1.2777151
96	0x3f86defd	1.0536801
97	0x3f761c80	0.9613724
98	0x3f0fd790	0.561883
99	0x3f98dcae	1.1942346
100	0x3f5870da	0.845472
101	0x3f9e2f40	1.235817
102	0x3f70b873	0.9403145
103	0x3f8dfb47	1.1092309
104	0x3f6d6edb	0.9274728
105	0x3f867d6c	1.0507026
106	0x3fa69a57	1.3015851
107	0x3f47110d	0.7776039
108	0x3f6c828b	0.9238669
109	0x3f8bfa18	1.0935698
110	0x3ef17204	0.471573
111	0x3f441c93	0.766061
112	0x3f1d81a9	0.6152597
113	0x3f90f992	1.1326163
114	0x3ea50725	0.32232013
115	0x3f68b069	0.9089418
116	0x3f43edaa	0.7653452
117	0x3f0a2f35	0.5397828
118	0x3f9341cb	1.1504453
119	0x3f897add	1.074062
120	0x3f634e83	0.88791674
121	0x3f9c5d30	1.2215939
122	0x3f6a0ba8	0.91424036
123	0x3f6404c9	0.890698
124	0x3f9d142a	1.2271779
125	0x3f7bb24b	0.9831893
126	0x3f807ec1	1.0038682
127	0x3f9acb42	1.2093279
128	0x3f819fb6	1.0126865
129	0x3f69c49e	0.9131564
130	0x3f8c2e2d	1.0951592
131	0x3f68f7bd	0.9100302
132	0x3f9ac7c9	1.209222
133	0x3ed8e957	0.42365524
134	0x3f85f723	1.0466045
135	0x3f640533	0.89070433
136	0x3f7f781a	0.99792635
137	0x3f2f0cb7	0.68378776
138	0x3f9f7b84	1.2459569
139	0x3f77bd02	0.9677278
140	0x3f4e7aeb	0.8065631
141	0x3f515789	0.81774193
142	0x3f81d0a2	1.0141795
143	0x3f643058	0.89136267
144	0x3f830cca	1.0238278
145	0x3f93b0bb	1.1538309
146	0x3f593e9d	0.84861165
147	0x3fac1f29	1.3447009
148	0x3f65f352	0.898244
149	0x3f697afc	0.91203284
150	0x3f1e5912	0.6185466
151	0x3f883723	1.0641826
152	0x3f8ccb79	1.0999595
153	0x3f5212c4	0.82059884
154	0x3f38e25d	0.722204
155	0x3f82bef7	1.0214528
156	0x3f8371cf	1.0269107
157	0x3fa01431	1.2506162
158	0x3f7471c4	0.9548609
159	0x3f7f9832	0.99841607
160	0x3f9c7364	1.2222714
161	0x3f5f8398	0.8731017
162	0x3f966d1c	1.1752048
163	0x3f454fa9	0.77074677
164	0x3f8f9008	1.121583
165	0x3fb326c9	1.3996211
166	0x3f856abd	1.0423199
167	0x3f7001f2	0.9375297
168	0x3f814e11	1.0101949
169	0x3f7b478b	0.9815604
170	0x3f9afdec	1.2108741
171	0x3f727d4d	0.94722444
172	0x3f9ae8cf	1.2102298
173	0x3f5adbe5	0.8549178
174	0x3f7fd5ad	0.9993542
175	0x3f78faf3	0.9725792
176	0x3f8326fe	1.0246274
177	0x3f68624b	0.90774983
178	0x3f8623c0	1.047966
179	0x3f70d718	0.94078207
180	0x3f24145a	0.64093554
181	0x3f8974e5	1.0738798
182	0x3f77c5c1	0.96786124
183	0x3f89f132	1.0776732
184	0x3f83da03	1.0300907
185	0x3f7cf41a	0.9880997
186	0x3f8db8bb	1.1072
187	0x3f879b57	1.0594281
188	0x3f842c75	1.0326067
189	0x3f8d81e2	1.1055262
190	0x3f7c082d	0.98449975
191	0x3f905d5f	1.1278495
192	0x3f60cc70	0.87811947
193	0x3f9770a3	1.1831249
194	0x3f4821d7	0.78176636
195	0x3f81f1ae	1.015188
196	0x3f2054c0	0.6262932
197	0x3f4de4e6	0.80427396
198	0x3f611c04	0.87933373
199	0x3f27785b	0.6541802
200	0x3f4c6827	0.79846424
201	0x3f800f3a	1.0004647
202	0x3f9286f6	1.1447437
203	0x3f4e4d80	0.80587006
204	0x3f827af5	1.0193774
205	0x3f7a8698	0.97861624
206	0x3f9022c4	1.126061
207	0x3eebd22b	0.46058783
208	0x3f6ea28d	0.9321678
209	0x3f951bea	1.1649144
210	0x3f448c7d	0.7677687
211	0x3f7a810d	0.97853166
212	0x3f7524c3	0.9575922
213	0x3f4b17f1	0.79333407
214	0x3f83cd81	1.029709
215	0x3f3546e8	0.7081132
216	0x3f85a62b	1.0441335
217	0x3f88721e	1.0659826
218	0x3f6b39d4	0.91885114
219	0x3f867e93	1.0507377
220	0x3f2fda4c	0.6869247
221	0x3f693666	0.9109863
222	0x3f704b4c	0.93864894
223	0x3f7d92c5	0.9905208
224	0x3f89e70c	1.0773635
225	0x3f990598	1.1954832
226	0x3f49aaa1	0.78775984
227	0x3f90bc9d	1.130756
228	0x3f687c25	0.9081443
229	0x3f79e128	0.97609186
230	0x3f4116ab	0.75425214
231	0x3f8bea1a	1.0930817
232	0x3f6e4575	0.93074733
233	0x3f4e0348	0.80473757
234	0x3f8a602b	1.0810598
235	0x3f637914	0.88856626
236	0x3fa3d8f8	1.2800589
237	0x3f645219	0.8918777
238	0x3f71e206	0.9448551
239	0x3f81f3ba	1.0152504
240	0x3f6c00d3	0.9218876
241	0x3f169dee	0.5883473
242	0x3f5fecc6	0.8747066
243	0x3f84d1ee	1.0376565
244	0x3f46549d	0.7747286
245	0x3f697b4b	0.91203755
246	0x3f821e8d	1.0165573
247	0x3f57f13b	0.84352463
248	0x3f8676a5	1.0504957
249	0x3f565aa5	0.8373206
250	0x3f5f9e46	0.8735088
251	0x3fabb007	1.3413094
252	0x3e9434fa	0.28946668
253	0x3f8a51bc	1.0806193
254	0x3f760144	0.9609568
255	0x3f2c1da3	0.6723272

bn1.bias f4 [512]
0	0xbf00c6ed	-0.50303537
1	0xbe10dd33	-0.14146881
2	0xbe1d9fba	-0.15392962
3	0xbec83db7	-0.39109585
4	0xbebdd40c	-0.3707584
5	0xbf0535ad	-0.5203503
6	0xbecda9b0	-0.40168524
7	0xbeaec0a3	-0.34131345
8	0xbe963c6b	-0.2934297
9	0xbf07dd29	-0.5307184
10	0xbe8bcb93	-0.27303752
11	0xbeb519ab	-0.35371146
12	0xbe372e7f	-0.1788883
13	0xbe0e7b6e	-0.13914272
14	0x3d01c260	0.03167951
15	0xbed82821	-0.42218116
16	0xbe7e7ce0	-0.24852324
17	0xbe54050f	-0.20705055
18	0xbec2fcc6	-0.38083476
19	0xbebc6d69	-0.36802223
20	0xbd342879	-0.04398391
21	0xbde6a95d	-0.11262772
22	0xbf18a699	-0.5962921
23	0xbe57ce09	-0.2107469
24	0xbe6895e1	-0.22713424
25	0xbef15191	-0.47132543
26	0xbe76ebd2	-0.24113396
27	0xbf17a37c	-0.5923383
28	0xbf061963	-0.5238249
29	0xbe4cf56b	-0.20015495
30	0xbebb742a	-0.36612064
31	0x3e026686	0.12734422
32	0xbe8d031d	-0.27541438
33	0xbc937a03	-0.018002516
34	0xbeaa35da	-0.3324421
35	0xbf00380f	-0.5008554
36	0xbe12dbad	-0.14341612
37	0xbe6fcdda	-0.2341837
38	0xbd33a552	-0.043858834
39	0xbef2a3c1	-0.4739056
40	0xbf68972b	-0.90855664
41	0xbed2abf2	-0.4114681
42	0xbeaa0b68	-0.33211827
43	0xbd2e7c86	-0.042599224
44	0xbeab47cd	-0.33453217
45	0xbe9085e1	-0.28227141
46	0xbf5f3d10	-0.8720255
47	0xbf097e09	-0.5370794
48	0xbda95169	-0.08267481
49	0xbe64b159	-0.22333278
50	0xbeb764ce	-0.35819095
51	0xbec12e2c	-0.3773054
52	0xbdcf6a7f	-0.101277344
53	0xbe28cf07	-0.16485225
54	0xbe620ec0	-0.22075939
55	0xbec94774	-0.39312327
56	0xbeac5a3d	-0.33662596
57	0xbcc34742	-0.02383769
58	0xbe751066	-0.23932037
59	0xbeeb49db	-0.45954785
60	0xbe840776	-0.25786942
61	0xbecdf3b1	-0.40224984
62	0xbee80f7d	-0.45324317
63	0xbdfe5183	-0.12417891
64	0xbe5e2343	-0.21693139
65	0x3b78bb47	0.0037953423
66	0xbe52d4bc	-0.20588964
67	0xbf0ebb93	-0.55754966
68	0x3c7f72c1	0.015591324
69	0xbe844865	-0.25836483
70	0xbe8bd6e7	-0.27312395
71	0xbefb9da4	-0.49143708
72	0xbf049911	-0.5179606
73	0xbe9254f6	-0.28580445
74	0xbf1dd1ec	-0.6164844
75	0xbe98923a	-0.29799062
76	0xbe375c19	-0.17906226
77	0xbe824a8c	-0.254475
78	0xbee35475	-0.44400373
79	0xbeac7678	-0.33684134
80	0xbe94a2fb	-0.29030594
81	0xbed1a3ae	-0.4094519
82	0xbf51e717	-0.8199324
83	0xbea8e09c	-0.32983863
84	0xbdbf3306	-0.09335904
85	0xbe1dae5f	-0.15398549
86	0xbed51bc0	-0.41622734
87	0xbe172b4a	-0.14762607
88	0xbea54c9c	-0.3228501
89	0xbe0356d7	-0.12826096
90	0xbdcf3b13	-0.101186894
91	0xbec172be	-0.37782854
92	0xbe91e472	-0.28494602
93	0xbdcc578b	-0.09977635
94	0xbec73112	-0.38904625
95	0xbeae2965	-0.34015957
96	0xbe120efd	-0.1426353
97	0xbd025d72	-0.031827398
98	0xbe82e661	-0.2556639
99	0xbe4a021f	-0.19727372
100	0xbe641fa8	-0.22277701
101	0xbea5b02b	-0.32360968
102	0xbe95fc12	-0.29293877
103	0xbe8c995d	-0.27460757
104	0xbd577812	-0.052604742
105	0x3c6673eb	0.014065723
106	0xbeb3c717	-0.3511283
107	0xbe9a1a02	-0.30097967
108	0xbeb2b844	-0.3490621
109	0xbea8d7d6	-0.3297717
110	0xbe3c948d	-0.18416043
111	0xbe3bb57b	-0.18330948
112	0xbe237147	-0.1596118
113	0xbeb3abcc	-0.35092008
114	0x3e378ce6	0.17924842
115	0xbe2e7a02	-0.1703873
116	0xbf0138f4	-0.5047753
117	0xbe63008c	-0.22168177
118	0xbed2d3a8	-0.41177106
119	0xbe2e6730	-0.1703155
120	0xbe962188	-0.29322457
121	0xbe4c79b2	-0.19968298
122	0xbee2067a	-0.44145566
123	0xbee50a15	-0.44734254
124	0xbd89433f	-0.06702279
125	0xbda6ea3f	-0.08150148
126	0xbee61ccf	-0.44943854
127	0xbef76e4a	-0.4832633
128	0xbeb4682d	-0.3523573
129	0xbdd74387	-0.10510927
130	0xbea7db78	-0.3278463
131	0xbead0f9d	-0.33800974
132	0xbe407e73	-0.18798237
133	0xbea04d25	-0.31308857
134	0xbe089f75	-0.13342078
135	0xbe9467fd	-0.28985587
136	0xbf1a00e4	-0.6015761
137	0xbea199b8	-0.3156259
138	0xbef148b6	-0.47125787
139	0xbd1aa919	-0.03775892
140	0xbe8d714f	-0.2762551
141	0xbeb2677f	-0.34844586
142	0xbea63ad2	-0.3246675
143	0xbe61485a	-0.22000256
144	0xbd8bba6b	-0.06822666
145	0xbe7f6ad3	-0.24943094
146	0xbf0910d1	-0.53541285
147	0xbea90202	-0.33009344
148	0xbeab69d9	-0.33479193
149	0xbe139707	-0.14413081
150	0xbe09670d	-0.13418217
151	0xbe9be374	-0.3044697
152	0xbf06dd35	-0.52681285
153	0xbe83161c	-0.25602806
154	0xbd443df7	-0.047910657
155	0xbc0f0ac5	-0.008730595
156	0xbefa3727	-0.48870203
157	0xbf027d5b	-0.5097253
158	0x3bc9a9b5	0.006154264
159	0xbe910d2f	-0.2833037
160	0xbe6500b6	-0.22363552
161	0xbe3e188c	-0.18564051
162	0xbf292b34	-0.6608155
163	0xbead86d4	-0.33891928
164	0xbed1ba6b	-0.40962538
165	0xbf1d9aea	-0.61564505
166	0xbe26c284	-0.1628514
167	0xbdcad4e7	-0.09903889
168	0xbeffe796	-0.49981374
169	0xbef03362	-0.46914202
170	0xbeefbe0e	-0.46824688
171	0xbf0e3732	-0.5555297
172	0xbe75419a	-0.23950806
173	0xbefa7b6d	-0.4892229
174	0xbe934857	-0.28766128
175	0xbee99b51	-0.4562631
176	0x3ce6f444	0.028192647
177	0xbf290938	-0.6602969
178	0xbed4c71b	-0.41558155
179	0xbe8e78ed	-0.27826634
180	0xbe504975	-0.20340522
181	0xbf0f7f3f	-0.5605354
182	0xbeb70e6e	-0.35753196
183	0xbe65a690	-0.2242682
184	0xbec1725d	-0.37782565
185	0xbe9128f8	-0.2835157
186	0xbd860c88	-0.06545359
187	0xbda1e70d	-0.079053976
188	0xbf04f195	-0.51931125
189	0xbe8da60c	-0.27665746
190	0xbd3690c7	-0.044571664
191	0xbf182eff	-0.5944671
192	0xbe8ee49e	-0.27908796
193	0xbec8e6e8	-0.39238667
194	0xbe9ece2c	-0.31016672
195	0xbda34d0d	-0.07973681
196	0xbec8dab9	-0.39229372
197	0xbece8e40	-0.40342903
198	0xbeb2c8fa	-0.34918958
199	0xbde24264	-0.11047819
200	0xbf0162c9	-0.5054136
201	0xbe8d38ac	-0.275823
202	0xbe857b49	-0.26070622
203	0xbe4c7ab8	-0.19968688
204	0xbf15cbc6	-0.5851406
205	0xbeb692e3	-0.3565894
206	0xbf00c6df	-0.50303453
207	0xbe37c146	-0.17944822
208	0xbe136d42	-0.14397147
209	0xbec2e29d	-0.38063517
210	0xbe382610	-0.1798327
211	0xbf0cf7b7	-0.5506548
212	0xbeab8d7c	-0.33506382
213	0xbf20fabc	-0.6288259
214	0xbe8631ae	-0.26209778
215	0xbe73fa86	-0.23826036
216	0xbed4ae47	-0.41539213
217	0xbe118114	-0.14209396
218	0xbe61e28a	-0.22059074
219	0xbeaa7ab9	-0.33296755
220	0xbeaefc7d	-0.34177008
221	0xbe661057	-0.2246717
222	0x3d328524	0.043584004
223	0xbef38f4c	-0.47570264
224	0xbf012e6e	-0.5046147
225	0xbe568dde	-0.20952556
226	0xbebd22c1	-0.36940578
227	0xbe5a8690	-0.21340394
228	0xbecdcc91	-0.40195134
229	0xbed86a53	-0.4226862
230	0xbdbea18a	-0.09308155
231	0x3e6223f8	0.22084033
232	0xbf255c7e	-0.64594257
233	0xbdd70bf1	-0.105003245
234	0xbe984b15	-0.29744783
235	0xbee645b2	-0.44975048
236	0xbe4cee17	-0.20012699
237	0xbea3ceea	-0.319938
238	0xbf131e95	-0.5746854
239	0xbf0a0b56	-0.5392355
240	0xbec04e13	-0.37559566
241	0xbd91b3ae	-0.07114349
242	0xbec224ae	-0.3791861
243	0xbe441e57	-0.19152199
244	0xbf14eebf	-0.581768
245	0xbe912846	-0.2835104
246	0xbe651bbd	-0.22373863
247	0xbec74b56	-0.38924664
248	0xbe960232	-0.2929855
249	0xbf2b79e2	-0.66982853
250	0xbdf36640	-0.11884737
251	0xbf010866	-0.5040344
252	0xbd9eba2c	-0.07750353
253	0xbe26f585	-0.16304596
254	0xbea0b5c9	-0.3138869
255	0xbe44db08	-0.19224179

bn1.running_mean f4 [512]
0	0xbbb2369d	-0.0054386393
1	0x3bd80c6b	0.006593277
2	0xbbbf8b3d	-0.005845456
3	0x3b36c636	0.002788914
4	0xb90f0348	-0.00013638765
5	0xbb2261e6	-0.002477759
6	0x3a5113b7	0.0007975655
7	0x3b93271f	0.0044907476
8	0xbbf4bed1	-0.007469036
9	0x3b0c68c0	0.002142474
10	0xba71bcd7	-0.000922156
11	0xbb8ca849	-0.004292522
12	0xbbb15c28	-0.005412597
13	0x3c810a25	0.015751908
14	0x3b1675f2	0.0022958484
15	0xbc01f747	-0.007932491
16	0x3bcb36e9	0.006201614
17	0xbc01f2b6	-0.007931402
18	0x3b6bcbe6	0.0035979687
19	0x3b9d39de	0.004798158
20	0x3b2d664a	0.0026458674
21	0x3be096fc	0.0068539362
22	0xbbc2511d	-0.0059300796
23	0x3befdd92	0.0073201144
24	0x3bce5ca7	0.006297666
25	0xbb05bf90	-0.002040837
26	0x3bb56f18	0.005536925
27	0xbb2b9d32	-0.0026186225
28	0x3c893d0b	0.01675274
29	0xbb96cbee	-0.004601947
30	0xba276ab6	-0.00063864456
31	0xbb22fcb8	-0.002486987
32	0x3bc68805	0.0060586953
33	0x3c7406da	0.014894212
34	0xbc3db266	-0.011578178
35	0x3b11e08a	0.002225908
36	0x3c272397	0.010201356
37	0x3cc9f97e	0.0246551
38	0x3bd11ee3	0.006381856
39	0xbc1bc3e1	-0.00950715
40	0x3b1e441c	0.0024149483
41	0xbbf9ace7	-0.0076194885
42	0xba87e8f5	-0.0010369109
43	0x3bba2ec2	0.0056818435
44	0xbbcaf87c	-0.0061941724
45	0x3a6e316a	0.0009086343
46	0xbaa3b3df	-0.0012489519
47	0x3ba91b4c	0.0051607247
48	0xbb682a23	-0.0035425506
49	0x3c47bfba	0.012191707
50	0x3b43304a	0.0029783421
51	0x3c5cbccf	0.01347275
52	0xbaa5e8f4	-0.0012657926
53	0x3c748357	0.014923892
54	0x3bc9064d	0.0061347843
55	0xbbea0866	-0.0071421145
56	0x3ad8f357	0.0016552013
57	0x3a7fa802	0.0009752513
58	0x3b5cf6a6	0.003371635
59	0xbbd10a31	-0.0063793887
60	0x3a1bad9c	0.00059386506
61	0x3b57df1b	0.0032939378
62	0x3b44349e	0.002993859
63	0x3becdc17	0.007228385
64	0xbc9649ff	-0.018345831
65	0xba6f5ca6	-0.0009130932
66	0x3b59bfe1	0.003322594
67	0xbbea3f1d	-0.007148637
68	0xbbdae4c2	-0.006680102
69	0xbba53541	-0.0050417488
70	0xbba4344c	-0.005011117
71	0xbb365cbd	-0.0027826272
72	0xbbfccafa	-0.0077146264
73	0xbc09ce6e	-0.008411033
74	0x3b8f8881	0.004380286
75	0xbb51cf80	-0.0032014549
76	0x3c09644e	0.008385731
77	0x3bdaf4ef	0.0066820304
78	0xbba5a19c	-0.0050546657
79	0x3c25e4cc	0.01012535
80	0x3c55d171	0.013050423
81	0xb949c840	-0.00019243453
82	0xbb81c9fc	-0.003960846
83	0xbb32c8d0	-0.0027280338
84	0xbc7ed7f1	-0.015554414
85	0x3a1ea3cd	0.000605163
86	0x3accede6	0.0015634864
87	0x3bf8647c	0.007580338
88	0x399f1120	0.00030339602
89	0x3bb6ca2b	0.0055782995
90	0x393080d0	0.00016832654
91	0x3b17e4e5	0.0023177203
92	0x3c0fac5d	0.008769122
93	0xbbc15c32	-0.005900883
94	0x3bf39f6c	0.007434776
95	0x3b9fad02	0.004872919
96	0x3bdf1c95	0.006808827
97	0x3c4d71b0	0.012539312
98	0xbc232367	-0.009957171
99	0xb9065c74	-0.00012813677
100	0x3ad38e4c	0.001614043
101	0xbc4ffeaf	-0.012694999
102	0xbb86bf32	-0.0041121477
103	0x3b02d619	0.0019964038
104	0xbb482c0b	-0.003054383
105	0xbc17346f	-0.00922881
106	0xbc148fe1	-0.0090675065
107	0x3b9ca6ff	0.0047806497
108	0xbbad2180	-0.0052835345
109	0x3b942b44	0.004521759
110	0x3ba2190c	0.0049468335
111	0xbacca24c	-0.0015612333
112	0x3c3c2f0a	0.011485824
113	0xbb103da7	-0.0022009404
114	0x3bfb4efc	0.007669328
115	0xbbf79017	-0.0075550186
116	0xbb585e62	-0.003301524
117	0x3bb1a078	0.0054207407
118	0xbb9484a1	-0.004532412
119	0xbb978874	-0.004624421
120	0x3be6d206	0.0070440797
121	0x3bd231bd	0.0064146207
122	0x3b3e34ad	0.0029023096
123	0x3bb7d136	0.0056096567
124	0xbbf6f1d7	-0.007536154
125	0x3bc19152	0.005907216
126	0x3be2d2ed	0.006922117
127	0xbb37c9ed	-0.002804394
128	0xbbf59f4f	-0.0074957977
129	0x3c316c26	0.010829007
130	0x3ab36808	0.001368762
131	0xbb62177c	-0.003449886
132	0xbbd7d73d	-0.0065869377
133	0xbba647b7	-0.005074467
134	0xbc66f2ef	-0.014096006
135	0xbba24488	-0.004952017
136	0x3ba09c31	0.004901432
137	0x3bd23836	0.0064153923
138	0xbbeb3f43	-0.0071791722
139	0x3b6506b8	0.0034946632
140	0xbb4d87e8	-0.0031361524
141	0xbbe2749a	-0.0069108726
142	0x3becc03a	0.0072250636
143	0x3b7b6d31	0.0038364644
144	0x3b2bf2f5	0.0026237343
145	0x3c4d0efe	0.012515781
146	0x3bc13670	0.005896382
147	0x3c78aa2a	0.015177289
148	0xbc09e51e	-0.008416442
149	0x3c0c74a2	0.008572729
150	0x3bac0a5b	0.005250258
151	0xb9d0b64d	-0.00039808676
152	0xbb94d2b4	-0.0045417193
153	0xbb610890	-0.003433738
154	0x3ad6a12e	0.001637494
155	0x3b0d5966	0.0021568178
156	0xbb62f0fe	-0.0034628506
157	0x3c23277e	0.009958146
158	0xbc31fbb9	-0.010863238
159	0x3c54f308	0.012997396
160	0x3ab9fbff	0.001418948
161	0xbbbafc6b	-0.00570636
162	0xbbab0b8b	-0.005219882
163	0x3ba0ef5d	0.004911347
164	0x39e5a277	0.0004379933
165	0x3c0d090e	0.008608116
166	0x3b98fee9	0.0046690595
167	0x3c96ef30	0.0184246
168	0xbbfacaf8	-0.0076535903
169	0xbb0e415b	-0.0021706435
170	0xbba2faff	-0.0049737687
171	0x3be35c94	0.0069385264
172	0x3b7da5f6	0.0038703657
173	0xbb95fe25	-0.0045774155
174	0xbac20afb	-0.0014804298
175	0x399a1836	0.00029391207
176	0x39f072fc	0.00045862037
177	0xbb9a0a34	-0.0047009233
178	0x3b78c120	0.0037956908
179	0x3c0d8b2f	0.008639141
180	0xbadb709a	-0.0016741932
181	0x3ae980d9	0.0017814889
182	0x3bffd15e	0.007806941
183	0x3c2901a4	0.010315333
184	0x3c1de815	0.009637852
185	0xbb10dc98	-0.002210414
186	0x3c106ce6	0.008815026
187	0xbc57349d	-0.013135103
188	0xbc0b4a1a	-0.008501554
189	0x3c41b440	0.01182276
190	0x3ab09734	0.0013472796
191	0x3c8ffe93	0.017577445
192	0x3c0f0ccb	0.008731077
193	0xbbddc20d	-0.0067675174
194	0x3aa1337e	0.0012298671
195	0x3b222a33	0.002474439
196	0x3bdc7363	0.0067276224
197	0x3c65167e	0.013982413
198	0xbb304717	-0.0026897842
199	0x3c457ff6	0.012054434
200	0x3b8c9455	0.0042901435
201	0x3b4aabce	0.0030925157
202	0x3b9085a0	0.0044104606
203	0x3c18fc80	0.009337544
204	0xbbcc670e	-0.006237871
205	0xbbe7378c	-0.0070561823
206	0xbb886ad0	-0.0041631237
207	0x3bd23980	0.006415546
208	0x3b7faac1	0.003901169
209	0x3c96762d	0.018366897
210	0xbb580826	-0.0032963841
211	0x3b08e641	0.0020889195
212	0xbc051d86	-0.008124715
213	0xbbee487b	-0.007271824
214	0x3c0c421d	0.0085606845
215	0xbbf92672	-0.00760346
216	0x3b9d31d9	0.004797202
217	0x3c2305ec	0.009950142
218	0x3b81623d	0.0039484785
219	0xba84ceee	-0.0010132471
220	0x3b857658	0.0040729456
221	0x3bcd73a8	0.006269891
222	0x3b8f7ba5	0.0043787532
223	0x3bf3fca1	0.007445887
224	0x3ab103d8	0.0013505174
225	0xb8e03be0	-0.00010692305
226	0x3c5e3197	0.013561628
227	0xbb03dff5	-0.0020122502
228	0x3c3a6f7c	0.011379119
229	0x39ada9ed	0.00033123736
230	0x3b086ff0	0.0020818673
231	0x3c033be8	0.008009888
232	0x3bf0e4b0	0.0073514804
233	0x3bab00ff	0.0052186246
234	0x3bda0b9d	0.0066542164
235	0x3b1fb76a	0.0024370798
236	0x39e4d6fa	0.0004364772
237	0xbb69f4a7	-0.0035698803
238	0xbb97e2ab	-0.004635175
239	0xbbf8e337	-0.0075954455
240	0x3bbb81f2	0.005722278
241	0x3b299c1d	0.0025880404
242	0xbc55849d	-0.013032106
243	0xbc78a7ed	-0.015176755
244	0x3b438fcf	0.0029840355
245	0xbbc49a58	-0.0059998445
246	0xb991e13f	-0.00027824377
247	0xbbe74c8c	-0.0070586856
248	0x3c32bb8f	0.010908975
249	0x3b3d9f2c	0.0028933985
250	0xbb22f7b1	-0.0024866874
251	0xb89facb0	-7.6138764e-05
252	0x3b2ce557	0.0026381814
253	0xbc6bc761	-0.014390797
254	0xbbc07530	-0.005873345
255	0xbbaf7c91	-0.0053554256

bn1.running_var f4 [512]
0	0x4011a79e	2.2758555
1	0x3fdca584	1.7238011
2	0x3f915cba	1.1356423
3	0x3f29383c	0.6610143
4	0x3fae0dbd	1.3597943
5	0x3f9c2f7f	1.2201995
6	0x3fac687f	1.346939
7	0x4012afd4	2.2919817
8	0x3f49cdd3	0.7882969
9	0x3faa3490	1.3297291
10	0x3fe592b9	1.7935401
11	0x3fcdb54d	1.6070954
12	0x4040d824	3.0131922
13	0x3fe168ab	1.7610067
14	0x3fa4acca	1.2865231
15	0x40469c1d	3.1032784
16	0x3f6041d4	0.87600446
17	0x4044b289	3.073397
18	0x3fcc6dd2	1.5971014
19	0x3f945b67	1.1590394
20	0x3f4682b0	0.77543163
21	0x4016f6e1	2.3588183
22	0x3fac5359	1.3462936
23	0x3fe43ae9	1.7830478
24	0x407e8a28	3.9771824
25	0x3f989435	1.1920229
26	0x3ff95a42	1.948067
27	0x3fa46d6c	1.2845893
28	0x3f81f9d5	1.0154368
29	0x4055ebf9	3.3425276
30	0x3f2fe688	0.6871114
31	0x3fdf2325	1.74326
32	0x40344c9e	2.8171763
33	0x3fc31203	1.5239872
34	0x3feadf44	1.8349385
35	0x3f6f770a	0.93541014
36	0x3f654298	0.8955474
37	0x3f4e6f9f	0.8063907
38	0x3f9a53b6	1.2056797
39	0x3fc65f06	1.5497749
40	0x3fa10df0	1.2582378
41	0x3fa777d5	1.3083445
42	0x40282553	2.627278
43	0x3f87c8f8	1.0608206
44	0x3fd5f4cd	1.6715332
45	0x400f6672	2.2406278
46	0x3f738634	0.9512665
47	0x3fca2385	1.579209
48	0x3f8dcb2a	1.1077626
49	0x3fc1492d	1.5100456
50	0x4013542d	2.3020127
51	0x3fb802e0	1.4375877
52	0x3f9aeabf	1.2102889
53	0x4003e63e	2.0609279
54	0x3f253ec2	0.64548886
55	0x3f46d945	0.77675277
56	0x3fc0b493	1.5055107
57	0x3f424849	0.7589155
58	0x404e30c8	3.2217274
59	0x3fbb19d2	1.4617255
60	0x3f75f07d	0.9607008
61	0x3fde20e1	1.7353784
62	0x3ff63b48	1.9236841
63	0x3f77afbc	0.96752524
64	0x3fa96de6	1.3236663
65	0x3f8ae6e0	1.0851707
66	0x3f892e98	1.0717344
67	0x3f8de14b	1.1084379
68	0x3f5d0dc8	0.86349154
69	0x40d28aa7	6.5794253
70	0x3f6a368d	0.9148949
71	0x401d640a	2.459231
72	0x3f140330	0.57817364
73	0x3f1626e7	0.5865311
74	0x3f12396e	0.5711888
75	0x3f89eded	1.0775734
76	0x3f9b96e2	1.2155421
77	0x3ff616c7	1.9225701
78	0x3f496588	0.7867055
79	0x3f89a939	1.0754768
80	0x3f90df22	1.1318095
81	0x3f33d604	0.70248437
82	0x3fb8d6c8	1.4440546
83	0x3f8d0527	1.1017197
84	0x3f92388d	1.1423508
85	0x3fa69a4c	1.3015838
86	0x3f814ff5	1.0102526
87	0x3f763e63	0.96188945
88	0x3f870612	1.0548728
89	0x3ff139ca	1.8845761
90	0x3f8f7dd4	1.1210275
91	0x3f9bb760	1.2165337
92	0x3fabc8ac	1.3420615
93	0x4068f9c4	3.6402445
94	0x3ff14aa1	1.88509
95	0x3f8b8281	1.0899202
96	0x3f2f0179	0.6836162
97	0x3fc5b7f7	1.5446767
98	0x403fb162	2.9952016
99	0x3fbc7c24	1.4725385
100	0x405b6ffd	3.4287102
101	0x3f5a6799	0.8531433
102	0x3febc87d	1.8420559
103	0x3faa5b93	1.3309196
104	0x3f97725a	1.1831772
105	0x3fb5a4fd	1.4190975
106	0x3f21b0b4	0.6316025
107	0x3f880626	1.0626876
108	0x4003919b	2.055762
109	0x3f8b1550	1.0865879
110	0x3faae42c	1.3350883
111	0x3fa53744	1.2907491
112	0x40206cb1	2.506634
113	0x3f389ebc	0.7211721
114	0x3fae9f61	1.3642389
115	0x3f0e6824	0.55627656
116	0x3fe07672	1.7536147
117	0x40afdd71	5.4957814
118	0x3f9a5169	1.2056094
119	0x3f39895b	0.7247521
120	0x3fc30304	1.5235295
121	0x3f775999	0.9662109
122	0x3ff312c9	1.8990108
123	0x4019c41c	2.4025946
124	0x3f4f7552	0.8103839
125	0x3fb65ecf	1.4247683
126	0x40266a95	2.6002553
127	0x3f64ef6e	0.8942784
128	0x3ffbb121	1.966343
129	0x3fa2f848	1.273202
130	0x3f180521	0.59382826
131	0x4005a8f0	2.0884361
132	0x3f90feb6	1.1327732
133	0x400db2d1	2.214039
134	0x3fc15806	1.5104988
135	0x3fb11cc7	1.3836907
136	0x3fd5f400	1.6715088
137	0x405f2ee0	3.487236
138	0x3f8e2458	1.1104841
139	0x3fae8156	1.363322
140	0x4030d5d3	2.7630508
141	0x3f93dda2	1.1552012
142	0x3f800de8	1.0004244
143	0x3fcd0344	1.6016622
144	0x3f1014d5	0.5628179
145	0x40499b50	3.1501045
146	0x402f11d6	2.7354636
147	0x3f5f3628	0.8719201
148	0x4003f499	2.061804
149	0x40801470	4.002495
150	0x3fe967f1	1.8234845
151	0x4006568d	2.0990326
152	0x3f69eefd	0.9138029
153	0x3ff4d8d4	1.9128671
154	0x400eb76a	2.2299447
155	0x3f96fc1e	1.179569
156	0x3f8b0928	1.0862169
157	0x3fb0b526	1.3805282
158	0x3fcc7ab1	1.5974942
159	0x3fa6c9aa	1.3030293
160	0x3fb70872	1.4299452
161	0x400cf22a	2.2022805
162	0x3ef2eecb	0.4744781
163	0x4096f3ba	4.717252
164	0x3f988676	1.1916034
165	0x3f91060a	1.1329968
166	0x3f6fddad	0.93697625
167	0x3f4061b4	0.75149083
168	0x3f4f3da1	0.80953413
169	0x3f945405	1.1588141
170	0x400eb405	2.2297375
171	0x3f766277	0.96243995
172	0x3f8a0992	1.0784171
173	0x3f936dce	1.1517885
174	0x3fdd7b8f	1.7303332
175	0x40046e1b	2.0692203
176	0x3ef2fb78	0.4745748
177	0x3f8891d3	1.0669502
178	0x3fcde70e	1.6086137
179	0x3f6ca9fd	0.9244688
180	0x402b293b	2.6743915
181	0x3ffab368	1.9586
182	0x3f1c65e4	0.6109297
183	0x3f89dd5f	1.0770682
184	0x3f652739	0.89512974
185	0x3ff32b01	1.8997499
186	0x3fb98a0b	1.4495252
187	0x3fe0a5ea	1.7550633
188	0x400276f3	2.03851
189	0x3f8ae473	1.0850967
190	0x3fc4f0f3	1.5386032
191	0x3f4ddde8	0.8041673
192	0x3fbcab23	1.4739727
193	0x3f7c2bc2	0.9850427
194	0x3fb35929	1.4011585
195	0x3fb34aca	1.4007199
196	0x3ff404c0	1.906395
197	0x3faf50dd	1.3696553
198	0x4019d4fb	2.4036243
199	0x3fe419fe	1.7820432
200	0x4010bd3f	2.2615507
201	0x3f01e79c	0.5074403
202	0x4036aa32	2.854138
203	0x3fa8cd6d	1.3187691
204	0x3fa11334	1.2583985
205	0x3fa938b0	1.3220425
206	0x3fbd7952	1.4802649
207	0x402ce846	2.7016768
208	0x3f7a7885	0.9784015
209	0x3fa76114	1.3076501
210	0x3f86db44	1.0535665
211	0x3f429ca1	0.76020247
212	0x3fd1ef18	1.6401091
213	0x3f2adc54	0.66742444
214	0x3fb1b755	1.3884073
215	0x408bf3b2	4.373498
216	0x3f47910b	0.77955693
217	0x3f6708af	0.90247625
218	0x3fb95a6d	1.4480721
219	0x3fd14a92	1.6350882
220	0x40b36042	5.6055
221	0x3fea1ca5	1.8289992
222	0x3ef20ddd	0.47276202
223	0x40834460	4.1020966
224	0x3f338339	0.70122105
225	0x3f847efe	1.0351255
226	0x3ff864e2	1.9405787
227	0x3fb1a52f	1.3878535
228	0x3f879874	1.05934
229	0x3fe95cf9	1.8231498
230	0x3fdfb83a	1.7478096
231	0x3f479bf1	0.7797232
232	0x3f89b16d	1.0757271
233	0x3feb975d	1.8405567
234	0x3fd2c3ad	1.6465966
235	0x3fccad56	1.5990398
236	0x3f8045a6	1.0021255
237	0x3f4f6001	0.81005865
238	0x3f5d3c95	0.86420566
239	0x3f2a75eb	0.6658618
240	0x400f400f	2.2382848
241	0x3fc4026e	1.5313241
242	0x3f440334	0.7656739
243	0x3f9d410b	1.2285475
244	0x3f8345fa	1.025573
245	0x3f7fa256	0.9985708
246	0x3f1f28e8	0.62171793
247	0x3f93c615	1.1544825
248	0x3f8a8b7c	1.0823817
249	0x3f8dc36a	1.1075261
250	0x40162bd4	2.346425
251	0x3f63921b	0.88894814
252	0x40cb5e11	6.3552327
253	0x3f2d2608	0.67636156
254	0x3f4d4db5	0.80196697
255	0x3fc440e3	1.5332302

fc2.weight f4 [256, 512]
0	0xbe8d0cf5	-0.27548948
1	0xbc3ea713	-0.011636513
2	0xbe234a01	-0.15946199
3	0xbe76f268	-0.24115908
4	0x3cb93980	0.022610426
5	0xbef8eac8	-0.48616624
6	0x3c091b3c	0.00836831
7	0xbe1d943b	-0.15388577
8	0xbe34d402	-0.17659
9	0x3e0846a0	0.13308191
10	0xbc93479b	-0.01797848
11	0xbe738a64	-0.2378326
12	0x3df7e705	0.1210461
13	0x3dd24c15	0.10268418
14	0x3e958226	0.29200858
15	0x3c90971f	0.017650185
16	0x3e03caf1	0.12870385
17	0x3d4550d9	0.048172805
18	0xbea330fe	-0.31873316
19	0xbd8584c3	-0.06519463
20	0x3d48a44e	0.04898482
21	0x3d8e34fd	0.069437005
22	0x3e033077	0.12811457
23	0xbadb3748	-0.0016724849
24	0x3e151307	0.1455804
25	0xbe3f8ed9	-0.18706836
26	0xbdc06d8c	-0.093958944
27	0xbdc1be5f	-0.094601385
28	0x3e952865	0.2913238
29	0x3c138c5d	0.009005633
30	0xbda7b7f5	-0.08189384
31	0xbe897168	-0.26844335
32	0xbe8359e3	-0.25654516
33	0x3e31f1fa	0.17377463
34	0x3e9a249b	0.30106053
35	0x3ea48014	0.32128966
36	0xbe111846	-0.14169416
37	0x3d1071ac	0.035264656
38	0x3d7d019c	0.061769113
39	0xbdbb51b6	-0.091464445
40	0xbd34be00	-0.04412651
41	0xbc766171	-0.01503788
42	0xbe384076	-0.1799334
43	0x3d8898d5	0.066697754
44	0x3df1188d	0.11772261
45	0xbf09d518	-0.5384078
46	0xbd74f712	-0.059805937
47	0xbcc9c7ba	-0.02463137
48	0x3df0428b	0.11731442
49	0x3d1dc10b	0.03851418
50	0x3e68f723	0.22750525
51	0x3dfcc818	0.12342852
52	0xbe4d3362	-0.20039132
53	0xbd86633c	-0.06561896
54	0x3d08974a	0.033347405
55	0x3d048381	0.032351974
56	0xbe8bda9e	-0.2731523
57	0xbcbf1be9	-0.023328738
58	0xbd0a6342	-0.033786066
59	0xbd054d61	-0.032544497
60	0xbd46e984	-0.04856254
61	0x3e22f892	0.15915135
62	0x3d0daeb5	0.03459044
63	0xbc2fd017	-0.010730765
64	0x3d9ad644	0.07560399
65	0x3d42b992	0.047540255
66	0xbd9ab3c7	-0.07553821
67	0x3da0375e	0.078230605
68	0x3dea0c89	0.11428172
69	0x3e100164	0.1406303
70	0x3defdf4b	0.11712512
71	0xbdb63774	-0.088972956
72	0xbdf0b8e4	-0.11754015
73	0xbd41c00b	-0.047302287
74	0x3e9df64a	0.30851966
75	0x3d2e6522	0.042576917
76	0x3e1b95d3	0.15193872
77	0x3dfea7b0	0.124343276
78	0xbdab7f5a	-0.083739
79	0xbed940be	-0.42432207
80	0xbda9f1d6	-0.0829808
81	0x3e0cdbd5	0.13755734
82	0x3e8fdf91	0.28100255
83	0x3e092703	0.13393788
84	0xbde8d0e8	-0.11367971
85	0x3e056c28	0.1302954
86	0xbd9eb24f	-0.077488534
87	0x3cd4f726	0.025996756
88	0x3eb1d2f0	0.34731245
89	0xbdac2a5a	-0.084065154
90	0xbdd10273	-0.10205545
91	0x3dd35499	0.1031887
92	0xbcc31ec1	-0.023818376
93	0x3e68279f	0.22671364
94	0x3d124e78	0.035719365
95	0xbda01c0c	-0.078178495
96	0x3e0c31f6	0.13690934
97	0x3e4d9701	0.20077135
98	0x3c3fdcea	0.011710385
99	0x3cb76b07	0.022389902
100	0x3dea34ad	0.11435828
101	0x3e88be46	0.26707667
102	0xbd15d946	-0.03658416
103	0xbe2cac5d	-0.16862626
104	0xbd98f2b0	-0.07468164
105	0xbd870416	-0.06592576
106	0x3d8a13e9	0.06742079
107	0xbe84f42a	-0.25967532
108	0x3da2c16d	0.07947049
109	0xbe1405dd	-0.14455362
110	0x3d2657e9	0.04061118
111	0xbd77b439	-0.060474608
112	0xbd5927ce	-0.053016476
113	0xbdcded22	-0.10054995
114	0x3d9d5c79	0.076836534
115	0xbc873d68	-0.016508773
116	0xbeed1551	-0.46305326
117	0xbd0ee74b	-0.034888547
118	0xbefc88ce	-0.49323124
119	0xbcfecf01	-0.031104567
120	0x3d4073dd	0.046985496
121	0xbe21f2ea	-0.1581532
122	0x3e180968	0.14847338
123	0xbd4ffd75	-0.050778825
124	0xbdbc4320	-0.091924906
125	0xbde1467f	-0.10999774
126	0xbe2245e6	-0.15846977
127	0xbf119771	-0.56871706
128	0xbd06e7e6	-0.032936
129	0x3d984a78	0.07436079
130	0x3e814873	0.25250587
131	0xbe8fb343	-0.28066453
132	0xbe80af12	-0.25133568
133	0x3deff7c9	0.11717183
134	0xbe29f2e3	-0.1659656
135	0x3e2e23dd	0.17005868
136	0xbcbffdcc	-0.02343645
137	0x3dce965e	0.10087274
138	0xbcbfc0b1	-0.023407312
139	0xbdd3245e	-0.10309671
140	0x3e0f8a1f	0.14017533
141	0x3e6f1ad8	0.23350084
142	0xbd43faad	-0.047846485
143	0x3e02c1ce	0.12769243
144	0xbe33a789	-0.17544378
145	0xbd7851d5	-0.060624916
146	0xbe443e7e	-0.19164464
147	0xbe2bcb2a	-0.1677672
148	0xbd92b298	-0.0716297
149	0xbc842e0b	-0.016135236
150	0xbe4583d3	-0.19288568
151	0xbe51de76	-0.20495018
152	0x3e1fbb71	0.15598847
153	0xbe3339bc	-0.17502493
154	0xbdfadbe1	-0.1224897
155	0x3db754a3	0.0895169
156	0xbd41959a	-0.04726181
157	0x3ed1d3ae	0.4098181
158	0xbcd3b2be	-0.025842067
159	0xbd0e30a6	-0.034714364
160	0xbdeb2433	-0.11481514
161	0x3db32bf5	0.087486185
162	0xbd843319	-0.064550586
163	0x3e0499df	0.12949322
164	0xbd2b2788	-0.041785747
165	0xbe92bb2e	-0.28658432
166	0x3e095668	0.13411868
167	0xbe8007b3	-0.25005874
168	0x3dc70a3a	0.097187474
169	0x3e1e1a57	0.15439735
170	0xbf28450e	-0.6573037
171	0x3e54a392	0.20765522
172	0xbf0971cb	-0.5368926
173	0xbe426214	-0.18982726
174	0xbd349dd1	-0.044095818
175	0xbeca1f0d	-0.39476815
176	0x3e55a94e	0.20865366
177	0xbab83efe	-0.0014056859
178	0xbe6f2a8d	-0.23356076
179	0x3e589269	0.21149601
180	0x3dbf4dbd	0.09340999
181	0x3dd575f4	0.104228884
182	0x3d8540b3	0.06506481
183	0xbdd73789	-0.10508639
184	0xbeb674d3	-0.35636005
185	0x3db0aea7	0.08627062
186	0xbd10f58a	-0.035390414
187	0x3e91faef	0.2851176
188	0xbea335d0	-0.31876993
189	0x3d833a6a	0.06407626
190	0xbd8c37c9	-0.06846578
191	0xbd64d1df	-0.05586421
192	0xbdfb746b	-0.12278064
193	0xbe87c889	-0.26520184
194	0xbea9158f	-0.3302426
195	0x3db4bb8b	0.088248335
196	0x3d262533	0.04056282
197	0x3e0b99b4	0.13632852
198	0xbf234d75	-0.63790065
199	0x3cd6bd49	0.026213305
200	0xbd2ce80a	-0.042213477
201	0xbde42288	-0.11139399
202	0x3c7d64b4	0.015465904
203	0xbe587dcf	-0.21141742
204	0x3eb66eed	0.35631505
205	0xbeb093a6	-0.34487647
206	0xbd7da828	-0.061927944
207	0xbda82144	-0.0820947
208	0x3d577919	0.052605722
209	0x3c8a64e6	0.016893815
210	0x3df01734	0.11723176
211	0x3e55121c	0.2080769
212	0x3e082dc9	0.13298716
213	0x3d04fbc4	0.032466665
214	0x3dcb9403	0.0994034
215	0xbeaf7079	-0.34265497
216	0xbdc33617	-0.09531801
217	0x3c8a80f6	0.016907196
218	0x3d0814ae	0.033222847
219	0xbe072022	-0.13195851
220	0xbd90c0db	-0.07068034
221	0xbcb2e9af	-0.021839945
222	0x3c87410a	0.016510505
223	0xbe9b9627	-0.30387995
224	0xbe8538e3	-0.26019964
225	0xbe909d3d	-0.28244963
226	0xbbab6245	-0.0052302205
227	0xbcf04498	-0.029329583
228	0xbe66a8cf	-0.22525333
229	0x3b4a79a0	0.0030895248
230	0xbd3bdc79	-0.045864556
231	0x3df42761	0.119215734
232	0x3e06abe9	0.13151516
233	0x3dccfb94	0.10008922
234	0x3de7eb51	0.1132418
235	0xbe1d1042	-0.15338233
236	0xbe5a5c7f	-0.21324347
237	0xbda8e592	-0.08246912
238	0xbc4e34fd	-0.012585876
239	0xbe527ee9	-0.20556225
240	0x3d84ddd9	0.064876266
241	0x3d1dbacf	0.038508233
242	0x3dd586dd	0.10426114
243	0x3d13ebe8	0.03611365
244	0x3cc7a974	0.024372794
245	0x3e29d01d	0.16583295
246	0xbdc43728	-0.09580833
247	0x3e3a206a	0.18176427
248	0xbd588caa	-0.052868523
249	0x3dd4fe0f	0.1040002
250	0x3df0c21b	0.11755773
251	0xbe987eea	-0.29784328
252	0x3ce84785	0.028354416
253	0x3e949cc9	0.29025868
254	0x3e629c10	0.22129846
255	0x3e5fefa6	0.21868762
