src/model_artifacts/Model_UI_t20_2024-06-30.pth (torch, 779383 bytes, 31 tensors)

fc1.weight f4 [512, 25]
0.025582127 -0.042651657 0.18391542 -0.14102395 0.08499242 0.14327958 -0.13264263 -0.17457278
6.239089e-14 -0.07329091 -0.26015186 -0.244303 0.16246271 -0.15509528 -0.35087916 0.1932091
0.16627613 -0.18768527 -0.24849978 -0.15840381 -0.08712212 0.47037205 0.16839626 0.014422045
-0.5020082 0.24472082 0.17387739 -0.14799184 0.007097697 0.1882164 0.32212564 -0.4158578
-0.17030422 -3.513028e-13 -0.21857147 -0.30399475 0.024280878 -0.0104578845 0.049268603 -0.23584802
0.056665953 0.14962624 -0.012166167 -0.12946488 -0.06942101 0.07644182 0.11699026 0.06751446
-0.45530805 0.36829612 -0.15818013 -0.33933985 -0.2701964 -0.12046666 -0.18695307 0.30710837
-0.22747496 0.35472172 1.2346558e-13 0.19986862 -0.13070504 -0.057127662 0.28483027 0.23083162
-0.2986502 -0.31702888 -0.22703223 -0.2239855 -0.04608462 -0.16931058 -0.23051456 0.15575218
-0.28652808 -0.3888386 -0.3190523 -0.101656154 0.060551357 -0.41180298 -0.041913457 -0.087847084
-0.11174402 -0.7518906 0.12080563 3.8255315e-13 0.2814142 -0.09079059 -1.0454196 -0.085731365
-0.044425745 -0.010950127 0.25012636 0.16424195 0.00177142 0.32039785 -0.08287676 -0.037128735
-0.067038015 0.03924407 -0.21734114 -0.032108527 -0.07280308 -0.61212605 0.06614463 0.07663505
-0.12028345 -0.09583678 -0.08887249 0.64095217 -9.3443035e-14 0.08007356 0.008568306 0.22693655
0.4236298 -0.23703037 0.24070798 0.20269743 -0.46862304 -0.31380156 -0.030783275 0.4182653
-0.024827763 -0.20273921 -0.24697323 0.0715133 0.41493067 0.4280039 0.19773287 0.112791985
0.06530655 -0.022194944 -0.034234986 0.018095702 0.1958516 -5.4911188e-14 -0.09058079 0.04314555
0.30812436 0.22521171 0.10218408 -0.06073805 0.0464417 0.07181677 0.35107437 -0.016152835
-0.36452547 -0.104004875 -0.066553734 -0.14261946 -0.0814178 0.36563066 -0.034812532 0.16921549
0.27482095 0.28015196 -0.13334249 0.30062822 0.36828682 0.31207463 -1.0849283e-13 0.2917678
-0.030451735 0.33864385 -0.00061387033 -0.23435059 0.29418537 0.023015784 0.23312946 -0.046680342
-0.07768127 -0.19223905 0.029726889 -0.07463306 -0.041750066 -0.19186471 0.1854782 -0.10183663
-0.8652242 -0.18948926 0.061806485 0.21509878 -0.00066170056 -0.12962383 -0.015444996 -2.3286215e-13
0.041717444 -0.16206725 0.29808813 0.3986403 0.17676468 0.23038328 -0.33096495 -0.5791531
-0.022936478 -0.124224916 -0.08543683 -0.45716998 -0.05844416 0.13009642 -0.05516305 0.247531
0.14648964 0.04116499 0.29012877 0.14054683 -0.09422577 0.013931672 -0.3356651 0.065734245
8.8963326e-13 -0.5442679 -0.29077777 0.15404588 0.27654374 0.03213874 0.12692526 -0.44516197
0.25228795 0.17984542 -0.124695234 0.36477074 -0.107785664 0.031243965 -0.122619234 -0.06948861
0.109251276 -0.34529725 0.26689893 -0.2901176 -0.06549525 0.07545132 -0.28927046 -0.08602331
-0.01581139 -1.866556e-13 -0.08770539 -0.20424137 0.25209224 0.17559667 0.08283198 0.29173303
-0.14447336 -0.27976206 0.044275936 0.2429997 -0.12593588 -0.15867746 0.12602401 0.31204137
0.031488147 0.29689372 -0.09821117 0.03903826 0.117711596 -0.15873423 -0.40735114 -0.18434379
00000000: 9c91 d13c 81b3 2ebd 5354 3c3e 9568 10be
00000010: 8210 ae3d e2b7 123e 78d3 07be 35c3 32be
00000020: e67d 8c29 8b19 96bd a032 85be 912a 7abe
00000030: a05c 263e 4cd1 1ebe 6fa6 b3be 9bd8 453e
00000040: 4a44 2a3e 9130 40be ba76 7ebe 9c34 22be
00000050: 156d b2bd 9bd4 f03e 1270 2c3e 714a 6c3c
00000060: 9c83 00bf 1898 7a3e ea0c 323e 2c8b 17be
00000070: cc93 e83b cdbb 403e a7ed a43e 50eb d4be
00000080: 3b64 2ebe 12c4 c5aa 33d1 5fbe 33a5 9bbe
00000090: b1e8 c63c 8c57 2bbc e0cd 493d 2582 71be
000000a0: 8f1a 683d 9f37 193e 9a54 47bc 7192 04be
000000b0: 9a2c 8ebd 878d 9c3d 9798 ef3d 0545 8a3d
000000c0: 231e e9be 4f91 bc3e f9f9 21be f4bd adbe
000000d0: 2f57 8abe 39b7 f6bd a070 3fbe 4f3d 9d3e
000000e0: 32ef 68be 169e b53e 8802 0b2a 5caa 4c3e
000000f0: 8bd7 05be b2fe 69bd 46d5 913e 205f 6c3e
00000100: aee8 98be 9c51 a2be 237b 68be 745c 65be
00000110: 3ac3 3cbd c15f 2dbe 020c 6cbe 807d 1f3e
00000120: cfb3 92be da15 c7be d35a a3be 1a31 d0bd
00000130: b304 783d d7d7 d2be 72ad 2bbd 2ce9 b3bd
00000140: 0cda e4bd e77b 40bf f168 f73d b85b d72a
00000150: 8615 903e 6bf0 b9bd 4fd0 85bf ed93 afbd
00000160: c5f7 35bd 2968 33bc 9010 803e 0b2f 283e
00000170: fe2e e83a 300b a43e 4abb a9bd 4d14 18bd
00000180: 3a4b 89bd 64be 203d ad8e 5ebe 3b84 03bd
00000190: c819 95bd 4bb4 1cbf d676 873d d6f2 9c3d
000001a0: 2b57 f6bd 1346 c4bd c802 b6bd 7115 243f
000001b0: 3e6a d2a9 9bfd a33d 1562 0c3c 0e62 683e
000001c0: 01e6 d83e 17b8 72be 277c 763e ea8f 4f3e
000001d0: 5cef efbe 99aa a0be 352d fcbc df26 d63e
000001e0: 9863 cbbc de9a 4fbe 8de6 7cbe 9175 923d
000001f0: cb71 d43e 5423 db3e 7c7a 4a3e 7cff e63d
00000200: 71bf 853d 2cd2 b5bc fc39 0cbd 703d 943c
00000210: 528d 483e 4a4c 77a9 6c82 b9bd 63b9 303d
00000220: 7ac2 9d3e e69d 663e e345 d13d 76c8 78bd
00000230: a739 3e3d ac14 933d 05c0 b33e f352 84bc
00000240: 15a3 babe 8200 d5bd 534d 88bd d60a 12be
00000250: 60be a6bd f133 bb3e 9697 0ebd d346 2d3e
00000260: 55b5 8c3e 1470 8f3e ef8a 08be f1eb 993e
00000270: 1790 bc3e 3fc8 9f3e dc4d f4a9 9762 953e
00000280: eb75 f9bc ba62 ad3e 24ec 20ba 9af9 6fbe
00000290: 779f 963e 998b bc3c 7db9 6e3e e333 3fbd
000002a0: 5c17 9fbd 50da 44be ce85 f33c 38d9 98bd
000002b0: 1e02 2bbd 2f78 44be ffed 3d3e b98f d0bd
000002c0: 557f 5dbf 7909 42be cc28 7d3d db42 5c3e
000002d0: f975 2dba 1cbc 04be 020d 7dbc f916 83aa
000002e0: e9df 2a3d f5f4 25be 029f 983e 951a cc3e
000002f0: cd01 353e 98e9 6b3e 3d74 a9be 6143 14bf
00000300: 48e5 bbbc a269 febd 81f9 aebd 2f12 eabe
00000310: 2563 6fbd ff37 053e a6f2 61bd c478 7d3e
00000320: 6101 163e 9f9c 283d c28b 943e 82eb 0f3e
00000330: 71f9 c0bd ab41 643c 4cdc abbe ad9f 863d
00000340: d568 7a2b 2455 0bbf d3e0 94be 34be 1d3e
00000350: 2497 8d3e e9a3 033d b2f8 013e 45ec e3be
00000360: e32b 813e 6629 383e 3760 ffbd 3bc3 ba3e
00000370: bbbe dcbd 58f3 ff3c cb1f fbbd 0b50 8ebd
00000380: 22bf df3d cdca b0be faa6 883e 4b8a 94be
00000390: 6022 86bd 3986 9a3d 421b 94be fd2c b0bd
000003a0: e386 81bc d027 52aa e29e b3bd a624 51be
000003b0: 3c12 813e 9dcf 333e d0a3 a93d 085e 953e
000003c0: d3f0 13be f93c 8fbe af5a 353d ead4 783e
000003d0: 56f5 00be 587c 22be 700c 013e e3c3 9f3e
000003e0: b7f9 003d 7402 983e f022 c9bd 95e6 1f3d
000003f0: c712 f13d 3a8b 22be 5490 d0be 9ec4 3cbe

fc1.bias f4 [512]
-0.0020747907 -0.0003471271 0.0060328497 -0.0011103069 0.011066418 -0.012139192 -2.9866846e-05 -0.0007344149
-0.0046316194 -0.0053766025 -0.0155920265 -0.016621562 -0.01083633 0.003319143 0.002200238 0.0024393874
-0.005645917 0.013155347 -0.0017092912 0.0025056575 -0.0025362123 0.003359842 -0.005287482 -0.0090006245
-0.0024304003 -0.021573998 0.008884257 -0.00014736998 0.00071914203 -0.010286389 -0.0023744688 -0.0012715036
0.0074252123 -0.0011272416 0.0009882735 0.00046423372 0.00851488 -0.0040222523 0.0032545798 0.01092763
0.018135939 0.0037094965 -0.0002088744 -0.0011753672 -0.0055562137 -0.002105102 -0.0011797335 0.0047944156
-0.0053579593 0.0050959834 0.013853019 -0.0024618704 -0.0019429764 -0.0024015952 -0.0017114284 0.0070243753
0.0046813535 0.013682922 0.0070096464 -0.0073096636 -0.0008190361 0.00030411765 -0.00088064466 -0.011165517
-0.00038533623 0.0076925745 0.0076380325 0.021106392 -0.005874028 -0.012566122 0.0023876815 -0.010628002
-0.00033217424 -0.0016857794 -0.0043381774 -0.0017377805 0.009853805 0.017458446 0.009542643 -0.0015533096
0.00416084 0.002284225 0.0031131667 -0.0044228723 -0.0043332838 0.0049810386 -0.0011091564 0.0030175713
-0.009368312 -0.00033982078 -0.008181897 -0.003925227 -0.0045216046 -0.0062399786 -0.0046263766 -0.0013634244
-0.0011579809 -0.00703609 -0.0026631432 -0.005876674 0.008248304 -0.012776258 0.00048064571 -0.014195751
0.006519593 0.002226311 -0.000769956 0.004981525 -0.0036912286 -0.0003652298 -0.0024224948 -0.004261731
0.0061470373 -0.0061832424 -0.0010071764 0.0020631887 -0.013447594 -0.004021567 -0.00482034 -0.014358752
-0.0028946796 -0.0014111398 -0.0051178983 -0.005248145 -0.0008397623 -0.005469371 0.0025740718 0.0066818562
-0.0001543287 -0.0015584752 -0.0026747806 -0.004564734 0.0003614621 0.0027040055 0.0012565876 0.0010933523
0.00039420067 0.0033513722 0.0025937662 -0.0018649129 0.0051415125 -0.002767175 0.0028111984 -0.011554268
0.00023504149 -0.000575261 0.000491444 -0.0017018137 0.0007273739 0.0030910785 0.011209161 0.0015089358
-0.0023416877 -0.00048038573 0.0003190322 0.0042213267 0.021010932 0.007947004 -0.0014483082 0.0020720002
-0.00076332246 0.0003474492 0.0071300594 -0.0022802923 0.00886109 -0.0021435008 -0.0007603457 0.0011201762
-0.0004521284 -0.00025349614 0.0008358968 0.0044053607 -0.0041935607 0.002402047 0.012944939 0.0020499674
0.0070974543 -0.0020341235 -0.0014271509 -0.0015017071 -0.0073062563 0.0039410265 -0.010336348 0.0018859461
0.0011191146 -0.0006482741 0.0007395536 -0.004594808 -0.008149734 0.0017529806 0.0050426866 0.012149529
-4.858314e-05 0.002296347 0.020599075 -0.002288968 0.0022948622 0.008028095 -0.00059253245 -0.0027307458
0.002932339 0.0034757035 0.009052831 -0.006958917 0.0028592534 0.002153301 0.0016811853 -0.001173839
-0.0007224865 0.00019052696 -0.000989557 -0.002564729 -0.0015404491 -0.00551104 0.0037633227 0.00040580885
0.004517819 -0.0034876438 -0.0018061802 0.004748752 0.00014589529 0.009931944 0.010737376 0.0007698891
0.009598859 0.015557427 0.0046220496 -0.002679478 0.0040595164 -0.0010742855 -1.2815348e-05 0.01303865
0.0021675176 -0.0023163971 -0.01191049 -0.0037509538 -0.0062273736 0.00080991286 0.015600266 -0.010078199
-0.0034421317 0.0050330483 0.0025748909 -0.00012210174 -0.0002698009 -0.00024824188 -0.0016693271 -0.0043378016
-0.009629207 -0.0015202812 -0.0017451402 -0.00063979026 0.0010527088 0.00932531 0.0012084597 -0.0108849
00000000: 36f9 07bb 9cfe b5b9 36af c53b b887 91ba
00000010: ec4f 353c 76e3 46bc 908a fab7 c085 40ba
00000020: d7c4 97bb 362e b0bb b375 7fbc f129 88bc
00000030: dd8a 31bc fb85 593b de31 103b 21de 1f3b
00000040: 6201 b9bb 8689 573c 4c0a e0ba f535 243b
00000050: 9536 26bb cc30 5c3b 9d42 adbb 5b77 13bc
00000060: 5a47 1fbb f4bb b0bc 468f 113c 5487 1ab9
00000070: ce84 3c3a 3e88 28bc fa9c 1bbb 95a8 a6ba
00000080: 324f f33b f4bf 93ba f588 813a 6564 f339
00000090: ff81 0b3c 19cd 83bb ca4a 553b cd09 333c
000000a0: d291 943c 061b 733b 4b05 5bb9 c70e 9aba
000000b0: e610 b6bb c0f5 09bb 4aa1 9aba 791a 9d3b
000000c0: d291 afbb 35fc a63b c6f7 623c 5557 21bb
000000d0: 78ab feba 1564 1dbb 0252 e0ba bb2c e63b
000000e0: 0a66 993b 562e 603c 2db1 e53b e785 efbb
000000f0: 95b4 56ba fb71 9f39 10db 66ba 93ef 36bc
00000100: f406 cab9 fe11 fc3b 7648 fa3b 50e7 ac3c
00000110: eb7a c0bb 23e2 4dbc a67a 1c3b 1221 2ebc
00000120: ac27 aeb9 5ff5 dcba 4527 8ebb 3dc6 e3ba
00000130: db71 213c 0405 8f3c bf58 1c3c 6c98 cbba
00000140: a857 883b f0b2 153b 4506 4c3b beed 90bb
00000150: 38fe 8dbb fb37 a33b 1d61 91ba 72c2 453b
00000160: 8c7d 19bc f929 b2b9 5d0d 06bc 319f 80bb
00000170: f829 94bb bc78 ccbb dc98 97bb eeb4 b2ba
00000180: 64c7 97ba 008f e6bb 2188 2ebb 1d91 c0bb
00000190: e523 073c 8353 51bc 2dff fb39 4c95 68bc
000001a0: 4fa2 d53b 4de7 113b dfd6 49ba 0f3c a33b
000001b0: 8ae8 71bb 507c bfb9 b8c2 1ebb fea5 8bbb
000001c0: 166d c93b cc9c cabb 3b03 84ba 9036 073b
000001d0: 4c53 5cbc 59c7 83bb f1f3 9dbb f940 6bbc
000001e0: aab4 3dbb fff5 b8ba 0bb4 a7bb a2f8 abbb
000001f0: 7e23 5cba 6938 b3bb c2b1 283b 79f3 da3b
00000200: 4cd3 21b9 c045 ccba 5f4b 2fbb c493 95bb
00000210: 9f82 bd39 af35 313b 15b4 a43a d14e 8f3a
00000220: b8ac ce39 b2a2 5b3b 2dfc 293b 1870 f4ba
00000230: 227a a83b 7e59 35bb 153c 383b 1d4e 3dbc
00000240: 7875 7639 1dcd 16ba 40d4 003a 640f dfba
00000250: 3cad 3e3a b193 4a3b a1a6 373c 7cc7 c53a
00000260: 0077 19bb 48dc fbb9 c743 a739 0e53 8a3b
00000270: 1e1f ac3c 2734 023c 29d5 bdba 65ca 073b
00000280: b419 48ba d829 b639 46a3 e93b f570 15bb
00000290: 1b2e 113c fa79 0cbb f051 47ba e0d2 923a
000002a0: a60b edb9 ade7 84b9 1620 5b3a d85a 903b
000002b0: 236a 89bb a96b 1d3b 0217 543c bf58 063b
000002c0: c391 e83b ee4e 05bb 3d0f bbba eed4 c4ba
000002d0: 5269 efbb ba23 813b c959 29bc da31 f73a
000002e0: 41af 923a f0f0 29ba 9ade 413a 0b90 96bb
000002f0: 7686 05bc 45c4 e53a 1f3d a53b d10e 473c
00000300: c0c5 4bb8 4f7e 163b 64bf a83c 8302 16bb
00000310: 6665 163b 4588 033c 2e54 1bba 50f6 32bb
00000320: 7c2c 403b a1c8 633b 5352 143c a007 e4bb
00000330: 5062 3b3b 651e 0d3b 385b dc3a 80db 99ba
00000340: 4065 3dba 31c8 4739 06b4 81ba 0315 28bb
00000350: e5e8 c9ba f495 b4bb 14a2 763b bec2 d439
00000360: 360a 943b f490 64bb 5abd ecba 6b9b 9b3b
00000370: 78fb 1839 98b9 223c d2eb 2f3c 62d2 493a
00000380: 8844 1d3c 94e4 7e3c 9074 973b 2e9a 2fbb
00000390: b105 853b 0acf 8cba 8001 57b7 10a0 553c
000003a0: e90c 0e3b b2ce 17bb 3724 43bc 90d2 75bb
000003b0: ff0e ccbb 5550 543a 4298 7f3c 081f 25bc
000003c0: 6395 61bb 45ec a43b 80bf 283b 7008 00b9
000003d0: 1074 8db9 7626 82b9 53cd daba 1e24 8ebb
000003e0: d2c3 1dbc 2c44 c7ba 30bd e4ba 99b7 27ba
000003f0: 0cfb 893a 2fc9 183c 2e65 9e3a 9456 32bc

bn1.weight f4 [512]
0.846617 1.1620151 1.217525 0.98372436 1.0080187 1.0278083 0.95817095 0.7053129
1.1041547 1.053173 1.169842 1.0457102 0.98728794 0.79359823 1.270349 1.1367306
0.92017573 0.9624508 0.98015517 1.0075759 1.0216571 0.7301733 0.7414499 1.0766385
1.0584118 1.21706 1.0632896 0.96526235 0.28099373 1.0082599 0.7918896 0.6379386
1.0243049 0.7610086 0.87862825 0.65503335 0.9993167 0.98004836 0.9143058 1.1854689
0.93002576 1.0054882 1.2656299 1.0336556 1.0432342 1.0435561 0.84015375 1.2913496
1.0656248 0.8102301 0.9315031 1.1668407 0.96026516 0.7907171 0.8620916 0.9268164
0.9798261 0.9722513 0.9795 1.1634339 0.78187084 1.4298222 0.77797824 1.0307399
0.8119888 0.8974849 0.75976056 1.3149145 0.59834987 1.0119071 1.0370735 0.83074564
1.1146863 0.8688771 1.2194047 1.181555 1.0541456 1.1527221 1.2754323 0.9141009
1.1739345 0.94168353 0.9424529 1.0903474 0.74933666 0.97613084 1.2496046 1.1585923
1.2554325 0.7903979 0.9188678 0.9366591 1.1337839 0.92936516 0.54625815 0.91696745
0.49353525 1.1966736 0.7311577 1.1055877 1.2004896 1.1019745 1.0052369 0.9914696
0.851759 0.7755545 1.1103266 0.92440593 0.93794525 0.7398142 0.8996662 0.9219731
0.93641055 0.93304634 0.92249024 0.9962574 1.0512626 1.0170721 1.116567 1.0923543
0.9834625 0.5918101 1.0727144 0.81703085 0.72550404 0.9927287 1.0032604 1.1429559
1.0179473 0.9456357 0.8333476 1.049679 0.55541915 0.68786305 1.1091329 0.79043716
0.48941457 0.6376686 0.67744905 0.36035773 1.0101118 1.1702961 1.1401843 0.9625728
0.7178816 0.7708346 0.45393023 0.8972354 0.81165904 0.8179337 1.0288721 0.73496026
0.86712104 1.138894 0.69336265 0.8829929 0.9965208 0.9443052 0.9694106 0.92097986
0.8863353 0.5162917 0.91193354 0.81113786 1.1098906 0.99214643 0.77824455 1.0153579
0.936461 0.8373245 1.1623261 0.9104877 1.0220724 1.0700953 0.7173506 0.84590554
1.1571505 0.6718206 0.96382505 0.5668389 1.1724355 1.1642439 1.4427407 0.97529197
0.72622573 0.87315106 0.75345284 0.93967736 0.9012118 0.99092543 1.1648887 0.9620726
0.7607915 0.80369306 0.968461 0.77778476 1.0217553 0.7125562 0.9157326 0.85997033
0.60724133 0.95724535 1.0184505 1.1147324 1.063177 0.9024403 0.9000069 0.6489061
0.8970025 1.1167834 0.82089025 0.7303311 0.9201061 1.0576336 1.2342649 1.0850875
0.63190645 1.0649422 0.41376048 0.8632996 0.79003024 1.0194755 1.0775014 1.1164513
1.0016876 0.99118465 1.0294968 1.0440083 0.76206094 0.97245 0.77644217 1.1690828
0.5819039 0.81858164 1.4798722 1.0130434 0.7751773 0.9101476 1.0841134 0.9522668
0.7632712 1.1647224 0.9601857 0.9073467 1.0723583 0.79587424 0.9246503 1.0061575
0.73492295 1.03813 1.0882976 0.7573577 1.0989716 0.85013634 0.97479236 1.0639591
00000000: e4bb 583f e9bc 943f dcd7 9b3f 5cd5 7b3f
00000010: c206 813f 398f 833f b14a 753f 638f 343f
00000020: f154 8d3f 5fce 863f 62bd 953f d5d9 853f
00000030: e7be 7c3f 4129 4b3f cc9a a23f 6380 913f
00000040: a390 6b3f 2d63 763f 73eb 7a3f 3ff8 803f
00000050: a9c5 823f a3ec 3a3f a9cf 3d3f 4acf 893f
00000060: 0a7a 873f 9fc8 9b3f e019 883f 6f1b 773f
00000070: 69de 8f3e a90e 813f 47b9 4a3f f24f 233f
00000080: 6c1c 833f 76d1 423f c8ed 603f 44b0 273f
00000090: 38d3 7f3f 73e4 7a3f f20f 6a3f 72bd 973f
000000a0: 2b16 6e3f d6b3 803f 2900 a23f d44e 843f
000000b0: b388 853f 3f93 853f 5114 573f f24a a53f
000000c0: 6566 883f 3d6b 4f3f fd76 6e3f 095b 953f
000000d0: f0d3 753f 706c 4a3f 09b2 5c3f d743 6d3f
000000e0: e2d5 7a3f 76e5 783f 83c0 7a3f 67eb 943f
000000f0: b028 483f 6a04 b73f 9529 473f 49ef 833f
00000100: 7fde 4f3f 92c1 653f ab7f 423f 1e4f a83f
00000110: 752d 193f 2c86 813f d3be 843f bfab 543f
00000120: 0aae 8e3f bb6e 5e3f 7415 9c3f 323d 973f
00000130: 3eee 863f 668c 933f 5e41 a33f 8402 6a3f
00000140: 7c43 963f 2c12 713f 9844 713f 8190 8b3f
00000150: 87d4 3f3f b6e3 793f 0bf3 9f3f c14c 943f
00000160: 03b2 a03f 8457 4a3f ec3a 6b3f e4c8 6f3f
00000170: d51f 913f e0ea 6d3f 93d7 0b3f 61be 6a3f
00000180: a7b0 fc3e 9a2c 993f 272d 3b3f e683 8d3f
00000190: a5a9 993f 800d 8d3f 9aab 803f f4d0 7d3f
000001a0: e10c 5a3f bd8a 463f 2f1f 8e3f dea5 6c3f
000001b0: 2e1d 703f 7764 3d3f 8650 663f 6e06 6c3f
000001c0: 9ab8 6f3f 20dc 6e3f 5228 6c3f ba0a 7f3f
000001d0: c68f 863f 6b2f 823f abeb 8e3f 44d2 8b3f
000001e0: 33c4 7b3f de80 173f b54e 893f ef28 513f
000001f0: a2ba 393f 7823 7e3f d66a 803f 614c 923f
00000200: 194c 823f 2e15 723f 4556 553f e25b 863f
00000210: f32f 0e3f cb17 303f 11f8 8d3f 175a 4a3f
00000220: 8c94 fa3e 403e 233f 4d6d 2d3f cf80 b83e
00000230: 584b 813f 43cc 953f 8ff1 913f 2c6b 763f
00000240: 17c7 373f 6b55 453f 8b69 e83e 38b1 653f
00000250: e3c8 4f3f 1a64 513f 15b2 833f 5b26 3c3f
00000260: a5fb 5d3f 47c7 913f 3780 313f d30b 623f
00000270: fd1b 7f3f fcbd 713f 4b2b 783f 56c5 6b3f
00000280: dfe6 623f b12b 043f 7a74 693f bba6 4f3f
00000290: e510 8e3f 4ffd 7d3f 093b 473f 3ff7 813f
000002a0: e8bb 6f3f e65a 563f 1ac7 943f b915 693f
000002b0: 45d3 823f e2f8 883f 4aa4 373f 448d 583f
000002c0: 821d 943f 6ffc 2b3f 3dbd 763f 5b1c 113f
000002d0: 5e12 963f f205 953f baab b83f bcac 793f
000002e0: eee9 393f d486 5f3f 49e2 403f b28e 703f
000002f0: d1b5 663f 4aad 7d3f 131b 953f 644a 763f
00000300: 3bc3 423f d4be 4d3f 0fed 773f e71c 473f
00000310: e1c8 823f 156a 363f 746d 6a3f 0427 5c3f
00000320: 2b74 1b3f 080e 753f 965c 823f 8daf 8e3f
00000330: 2f16 883f 5406 673f da66 663f b61e 263f
00000340: f5a1 653f c2f2 8e3f dd25 523f fbf6 3a3f
00000350: 138c 6b3f 8a60 873f 64fc 9d3f 26e4 8a3f
00000360: 9fc4 213f 0750 883f 6ad8 d33e 3401 5d3f
00000370: 6c3f 4a3f 2c7e 823f 91eb 893f e0e7 8e3f
00000380: 4d37 803f 47be 7d3f 8dc6 833f 10a2 853f
00000390: 6d16 433f 7cf2 783f eac4 463f 81a4 953f
000003a0: a7f7 143f 918e 513f 746c bd3f 68ab 813f
000003b0: 0572 463f 6fff 683f 3ac4 8a3f c2c7 733f
000003c0: be65 433f a015 953f bbce 753f e047 683f
000003d0: 0943 893f 6abe 4b3f e2b5 6c3f c5c9 803f
000003e0: e923 3c3f 72e1 843f 564d 8b3f 32e2 413f
000003f0: 1aab 8c3f 89a2 593f fe8b 793f d02f 883f

bn1.bias f4 [512]
-0.28873917 -0.36427978 -0.15227276 -0.1500059 -0.16801266 -0.040126316 0.03674179 0.013596164
-0.29583487 0.26235798 -0.22960372 -0.16637583 -0.30697262 -0.09631821 -0.16694501 -0.7101195
-0.23111059 -0.16416562 -0.05557277 -0.17521311 -0.24326733 -0.059837896 -0.08072889 -0.11445688
-0.6235275 -0.028944295 -0.17918397 0.064130224 0.13931464 0.03140914 -0.55097467 0.012302012
-0.2073667 -0.86935157 -0.3383977 -0.15330064 -0.39517367 -0.25190836 -0.55305165 0.07827292
-0.20712094 -0.061278056 -0.08356832 -0.2754745 -0.2588911 -0.20750402 -0.20180416 -0.59892374
-0.26533356 -0.034743764 -0.19706777 -0.23881838 -0.36851785 -0.32855088 -0.28094912 -0.35254484
-0.22015493 -0.08079385 -0.33358845 -0.017888322 -0.19345386 -0.020483214 -0.23665866 -0.1542857
-0.03977142 -0.24578802 -0.39047337 -0.085283525 -0.2317821 -0.20260665 -0.13465716 -0.17209804
-0.07023322 -0.30771333 -0.20449333 -0.18800978 -0.080138646 -0.20166104 -0.5371054 -0.47824162
-0.39373213 -0.252539 -0.3333074 -0.107520655 -0.11230559 0.20556232 -0.34157193 -0.43723094
-0.026203983 -0.23863053 -0.05913543 -0.22996496 -0.13675696 0.06636911 -0.17389417 -0.23622936
-0.072524205 -0.6933534 -0.29271007 -0.27750903 0.018592635 -0.15743335 -0.1021867 -0.29884714
-0.44530636 -0.57871765 -0.21148406 -0.2820484 -0.13895644 -0.09025073 0.02294641 -0.332487
-0.032882273 0.14304237 -0.67179185 -0.3652454 -0.012567996 -0.237948 -0.23363504 -0.27809495
-0.34711972 -0.3667632 -0.62265176 -0.016055707 -0.09055019 -0.43340412 -0.29313785 -0.19700964
-0.052753627 -0.22530231 -0.18261214 -0.21765067 -0.23251522 -0.24723735 -0.33120728 -0.15328306
0.0081953015 -0.24849549 -0.039507706 -0.02794355 -0.08025065 -0.3542396 -0.1484059 -0.21901374
-0.16318521 -0.15917823 0.037668083 -0.01602533 -0.19632865 -0.06375008 -0.26902983 -0.30587095
-0.10551726 -0.07966422 -0.0840081 -0.06810191 -0.061645135 -0.044656947 -0.25992727 -0.1375314
0.12888795 0.22329733 0.14043127 -0.38152698 -0.2214466 -0.22280996 -0.18866783 -0.016061157
-0.20869456 -0.42901775 -0.17127563 -0.19186983 -0.10903838 -0.3075746 -0.40487683 -0.19759867
-0.038822826 -0.20221877 0.05564153 -0.22049145 -0.25171778 -0.15119176 -0.20130874 -0.00023635011
-0.1647554 -0.38442492 -0.23093599 -0.16601337 -0.2535054 -0.23008767 -0.07815244 0.26457983
-0.13648407 -0.31514457 0.024015443 -0.16979118 -0.26477093 0.10530698 -0.19959848 -0.27343598
-0.1029406 -0.13683133 0.059184637 -0.010702923 -0.54303485 -0.05279793 0.022386452 -0.46019173
-0.4700292 -0.22967836 0.02585682 -0.0034015812 -0.16689847 -0.077764675 -0.17287013 -0.0028255037
-0.21900286 -0.06621078 0.00652617 -0.4966368 -0.7089652 -0.45689744 -0.06542087 -0.42422223
0.13186908 -0.14236996 0.09549027 -0.22001609 -0.41596133 -0.11047816 -0.10155737 0.14546768
-0.03262746 -0.15568963 -0.26081228 -0.23563792 -0.017664503 -0.41735077 -0.37255415 -0.015827324
-0.07366849 -0.44744477 0.12639518 -0.008453934 -0.54282445 -0.45192903 -0.23811693 0.049602896
-0.15391852 -0.0042825993 -0.021686194 -0.43861797 -0.09274364 -0.2523187 -0.10590584 -0.281617
00000000: 9fd5 93be e182 babe 64ed 1bbe 269b 19be
00000010: 830b 2cbe 7e5b 24bd 8f7e 163d 72c2 5e3c
00000020: ab77 97be c953 863e 3d1d 6bbe 6d5e 2abe
00000030: 842b 9dbe 7b42 c5bd a2f3 2abe 64ca 35bf
00000040: 41a8 6cbe 081b 28be 46a0 63bd 116b 33be
00000050: 121b 79be 9518 75bd 3055 a5bd 5e68 eabd
00000060: 809f 1fbf 961c edbc 017c 37be b556 833d
00000070: 7fa8 0e3e dfa6 003d ad0c 0dbf 618e 493c
00000080: f057 54be d38d 5ebf 7742 adbe d8fa 1cbe
00000090: 3454 cabe 22fa 80be cb94 0dbf 8d4d a03d
000000a0: 8317 54be b3fe 7abd de25 abbd fe0a 8dbe
000000b0: 608d 84be ef7b 54be c0a5 4ebe 1153 19bf
000000c0: cdd9 87be 7a4f 0ebd 22cc 49be ce8c 74be
000000d0: 5fae bcbe d237 a8be 90d8 8fbe c280 b4be
000000e0: 4b70 61be 3f77 a5bd 1bcc aabe 888a 92bc
000000f0: c518 46be 6acc a7bc a656 72be 12fd 1dbe
00000100: 5be7 22bd dbaf 7bbe 20ec c7be 21a9 aebd
00000110: 4958 6dbe 1e78 4fbe 91e3 09be 783a 30be
00000120: 6fd6 8fbd 9a8c 9dbe b366 51be a385 40be
00000130: bb1f a4bd 3b80 4ebe bd7f 09bf 16dc f4be
00000140: 4297 c9be cb4c 81be 44a7 aabe ca33 dcbd
00000150: 7900 e6bd ee7e 523e 84e2 aebe bcdc dfbe
00000160: bca9 d6bc 905b 74be fe37 72bd ef7b 6bbe
00000170: 040a 0cbe 87ec 873d 5011 32be 1ce6 71be
00000180: 9287 94bd 9c7f 31bf 18de 95be aa15 8ebe
00000190: 954f 983c 3536 21be 4347 d1bd 7e02 99be
000001a0: 32ff e3be d726 14bf 478f 58be a668 90be
000001b0: 994a 0ebe 60d5 b8bd 1cfa bb3c bc3b aabe
000001c0: 90af 06bd b379 123e 8dfa 2bbf 7201 bbbe
000001d0: ffe9 4dbc a4a8 73be 063e 6fbe 7662 8ebe
000001e0: adb9 b1be 63c8 bbbe 1b66 1fbf 4287 83bc
000001f0: 6172 b9bd 25e7 ddbe 2a16 96be e5bc 49be
00000200: 3014 58bd a6b5 66be adfe 3abe d1df 5ebe
00000210: 7818 6ebe ca2b 7dbe 0094 a9be 3cf6 1cbe
00000220: 9645 063c 9a75 7ebe d5d2 21bd dfe9 e4bc
00000230: 745a a4bd e55e b5be b7f7 17be 2345 60be
00000240: 061a 27be 9eff 22be d949 1a3d 8e47 83bc
00000250: 610a 49be 678f 82bd 47be 89be 1e9b 9cbe
00000260: 6f19 d8bd ff26 a3bd 700c acbd 0479 8bbd
00000270: 9c7f 7cbd 34ea 36bd 3015 85be 08d5 0cbe
00000280: 34fb 033e 0ea8 643e 37cd 0f3e 8157 c3be
00000290: e6c2 62be 4b28 64be 2432 41be b092 83bc
000002a0: 07b4 55be 37a8 dbbe e162 2fbe 8679 44be
000002b0: 844f dfbd 6b7a 9dbe 044c cfbe 4e57 4abe
000002c0: af04 1fbd 7012 4fbe 5fe8 633d 83c8 61be
000002d0: 27e1 80be 03d2 1abe e123 4ebe c0d4 77b9
000002e0: a4b5 28be 58d3 c4be 7c7a 6cbe 69ff 29be
000002f0: 76cb 81be 1a9c 6bbe 630e a0bd 0277 873e
00000300: 7bc2 0bbe a15a a1be 09bc c43c bddd 2dbe
00000310: 0e90 87be 30ab d73d 8b63 4cbe cdff 8bbe
00000320: 85d2 d2bd 831d 0cbe 976b 723d 505b 2fbc
00000330: 5504 0bbf a442 58bd cb63 b73c 409e ebbe
00000340: aba7 f0be ce30 6bbe afd1 d33c 10ed 5ebb
00000350: 6fe7 2abe 1643 9fbd de04 31be 162c 39bb
00000360: 4942 60be 8499 87bd 7bd9 d53b 2e47 febe
00000370: be7e 35bf 76ee e9be 61fb 85bd a833 d9be
00000380: b008 073e 6ec9 11be 6790 c33d e64b 61be
00000390: e2f8 d4be 6042 e2bd 4ffd cfbd 7bf5 143e
000003a0: 5fa4 05bd 1a6d 1fbe 3089 85be 114b 71be
000003b0: 26b5 90bc 00af d5be 6bbf bebe 4ea8 81bc
000003c0: 81df 96bd 7b17 e5be bd6d 013e 5f82 0abc
000003d0: 8bf6 0abf 3e63 e7be edd4 73be 682c 4b3d
000003e0: d19c 1dbe 0c55 8cbb 3fa7 b1bc 8992 e0be
000003f0: 61f0 bdbd eb2f 81be 29e5 d8bd 1a30 90be

bn1.running_mean f4 [512]
-0.0017973897 -0.00012261349 0.013427815 0.0047117425 0.0007389628 -0.00668917 -0.005612322 0.010902568
-0.0028800876 0.0029752366 0.0010971794 -0.004545266 -0.0076775327 -0.0004700771 -0.0018906518 0.00045787904
-0.0066789715 0.003447573 -0.008402215 0.003319213 -2.7457696e-05 0.0030715114 0.004021004 0.010832581
-0.006447999 -0.006167506 0.0026715992 0.004035704 0.004858334 -0.011190156 -0.00012538259 0.006469538
-0.008801957 0.00038541603 0.005171186 0.014006194 -0.004680432 0.008139768 -0.0050103064 0.009334322
-0.0044514206 0.0023269434 -0.0044582365 -0.0010356869 -0.0134794405 0.0013907617 0.0006188229 0.00067773904
0.0011020511 -0.0104529895 0.0022570305 -0.0068576927 -0.0037891646 -0.0025615732 0.005932146 0.0060958522
-0.003592436 -0.00030563737 0.005945536 -0.0030310475 -0.0055386024 0.009036283 -6.141598e-05 0.005340882
0.008279399 0.0029046393 -0.00030784716 -0.0032639236 -0.00035643345 0.012266013 -0.008865418 -0.0022492856
-0.0055528134 -0.002562148 0.008534151 -0.006523748 0.008574235 0.0041035432 -0.0018162351 -0.006107262
0.0037946776 -0.0063297194 -0.0050483947 0.0069489847 0.003429146 0.014607349 0.001108768 -0.0063690688
-0.0029608242 0.0046162 0.0002929524 -0.007992464 0.0034159552 -0.0071253167 0.00025513853 -0.0032785384
0.0024056367 -0.0042730346 0.0058227284 -0.0042536715 -0.0030065523 -0.000769004 0.0024926222 -0.0052027386
0.0015361086 0.00587232 -0.00565107 0.002015499 -0.0035417369 0.0008246108 0.0023567094 0.0068693603
-0.0003665548 -0.00224036 -0.003610279 -0.0046497267 -0.02040652 0.005723609 0.008199379 -0.0012299049
0.0032136908 -0.0012962893 0.0007136244 0.0057422603 -0.0011621749 0.002043721 0.009708806 0.0028836036
-0.0038266182 0.0003520371 0.0012382541 0.002371024 0.006215833 -0.0011224895 0.00652108 -0.0033256111
0.0099995155 0.003757746 0.004455891 -0.003809915 0.009124328 0.010035779 0.0036420883 -0.0015207906
0.0070415298 0.014345067 0.006406714 0.0052910773 0.00082759856 -0.005330464 0.010525132 -0.0009562485
0.0019641563 -0.0011187772 0.019155798 -0.008391438 0.0062551573 0.0035763667 0.001276704 0.0040841205
0.0049629393 0.00014234762 -2.9297255e-05 -0.0011665248 0.017118257 -0.004176245 -0.0030646874 -0.011429926
0.0025933422 -0.0015093181 0.0084284395 -0.0013535051 0.0073359828 0.0044500222 0.006115908 0.014376093
0.011836669 0.012646201 0.0057134107 -0.0035182699 -0.0060747797 0.008902845 -0.0011665773 -0.0043865643
0.0025127928 0.0026185955 -0.0030811 0.008721798 -0.016522348 0.00041862307 0.007852452 0.0031626588
0.007815341 0.002076821 0.008479175 0.004004294 0.012692519 0.0019216896 -1.2860866e-05 -0.0016948378
-0.00094649213 -0.005721801 0.005743332 0.0009559449 -0.0008949503 -0.0046474617 -0.0027201201 0.0010215009
0.011104532 0.005324147 0.004967042 0.0037216558 -0.0010907087 -0.0059510907 0.0072828685 0.0075847544
-0.0010242858 -0.010509672 -0.0012134173 0.009090885 -0.005486928 0.002484267 -0.008057649 -0.0061617442
0.0048286314 0.016446289 0.009607145 -0.0018444422 0.0043295436 0.004826299 -0.0069640307 0.006770996
0.0037884708 -0.010219017 0.00014687784 0.00123011 -0.0027277637 0.002624211 0.0118028615 1.2047763e-05
-0.0045059524 0.009894857 -0.0025227098 -0.00534017 0.014114286 -0.0076848385 -0.010785503 -0.010515141
-0.0020100651 -0.0037512754 0.005592076 -0.0019871816 0.004247668 -0.0032117977 0.0077048945 -0.013495322
00000000: 6496 ebba cf91 00b9 5700 5c3c f664 9a3b
00000010: f4b6 413a d330 dbbb 92e7 b7bb afa0 323c
00000020: dabf 3cbb 30fc 423b 3bcf 8f3a 74f0 94bb
00000030: d093 fbbb ae74 f6b9 bfcf f7ba 7c0f f039
00000040: 46db dabb adf0 613b 72a9 09bc 2787 593b
00000050: f454 e6b7 694b 493b a0c2 833b 237b 313c
00000060: bc49 d3bb ca18 cabb ff15 2f3b f03d 843b
00000070: a932 9f3b eb56 37bc 2279 03b9 6bfe d33b
00000080: 1536 10bc aa11 ca39 0d73 a93b 3c7a 653c
00000090: 4f5e 99bb a95c 053c 7f2d a4bb fcee 183c
000000a0: 39dd 91bb a27f 183b 6616 92bb e3bf 87ba
000000b0: dfd8 5cbc 384a b63a 8038 223a 4caa 313a
000000c0: b372 903a 0443 2bbc b0ea 133b 7fb6 e0bb
000000d0: a253 78bb 11e0 27bb 7362 c23b b7bf c73b
000000e0: 136f 6bbb f43d a0b9 c5d2 c23b 8aa4 46bb
000000f0: 2a7d b5bb eb0c 143c 74cc 80b8 9102 af3b
00000100: 51a6 073c c35b 3e3b 8c66 a1b9 8de7 55bb
00000110: b0df bab9 63f7 483c 4240 11bc c068 13bb
00000120: 60f4 b5bb b6e9 27bb d3d2 0b3c 2ac5 d5bb
00000130: f37a 0c3c 0477 863b bd0e eeba 6d1f c8bb
00000140: 20b0 783b 8969 cfbb 016d a5bb 4fb4 e33b
00000150: 86bb 603b aa53 6f3c 1554 913a 9fb3 d0bb
00000160: 630a 42bb 7e43 973b 6897 9939 d3f2 02bc
00000170: 38de 5f3b 7d7b e9bb 1dc4 8539 bfdc 56bb
00000180: e3a7 1d3b d004 8cbb 96cc be3b 6262 8bbb
00000190: 9409 45bb fc96 49ba 435b 233b bc7b aabb
000001a0: 4057 c93a 976c c03b 9c2c b9bb 7616 043b
000001b0: 7c1c 68bb b22a 583a 0673 1a3b 5f18 e13b
000001c0: 272e c0b9 01d3 12bb 6e9a 6cbb bc5c 98bb
000001d0: 932b a7bc 1d8d bb3b b056 063c c334 a1ba
000001e0: c99c 523b 40e8 a9ba 8612 3b3a 9229 bc3b
000001f0: 1e54 98ba f3ef 053b af11 1f3c d7fa 3c3b
00000200: 00c8 7abb 9f91 b839 ea4c a23a 2f63 1b3b
00000210: 30ae cb3b 7f20 93ba c9ae d53b 7ff2 59bb
00000220: 02d5 233c 8444 763b b902 923b c4af 79bb
00000230: 357e 153c 1c6d 243c 1ab0 6e3b 4455 c7ba
00000240: a2bc e63b 9207 6b3c 6aef d13b c660 ad3b
00000250: 33f3 583a 2cab aebb 9a71 2c3c c0ac 7aba
00000260: 13b9 003b efa3 92ba 9fec 9c3c 3e7c 09bc
00000270: 10f8 cc3b 7a61 6a3b 1457 a73a 16d4 853b
00000280: 27a0 a23b 2643 1539 60c3 f5b7 14e6 98ba
00000290: 963b 8c3c e2d8 88bb ecd8 48bb 9644 3bbc
000002a0: 10f5 293b 50d4 c5ba 7017 0a3c 1868 b1ba
000002b0: af62 f03b 7ed1 913b f467 c83b b489 6b3c
000002c0: 97ee 413c 0332 4f3c 9037 bb3b c692 66bb
000002d0: f20e c7bb 3ddd 113c d7e7 98ba 2bbd 8fbb
000002e0: abad 243b be9c 2b3b 48ec 49bb dfe5 0e3c
000002f0: e059 87bc a37a db39 92a7 003c 9c44 4f3b
00000300: eb0b 003c 461b 083b 3dec 0a3c 7436 833b
00000310: 49f4 4f3c 34e1 fb3a 00c5 57b7 5225 deba
00000320: 031e 78ba f27d bbbb 9032 bc3b 6098 7a3a
00000330: 199b 6aba bc49 98bb 0b44 32bb e2e3 853a
00000340: c8ef 353c 2f76 ae3b 91c2 a23b 06e7 733b
00000350: 1cf6 8eba 5e01 c3bb 21a5 ee3b 8889 f83b
00000360: 5441 86ba c230 2cbc 870b 9fba eff1 143c
00000370: b0cb b3bb 16cf 223b 3b04 04bc 75e8 c9bb
00000380: 7f39 9e3b 5eba 863c 4967 1d3c 36c1 f1ba
00000390: d8de 8d3b ee25 9e3b 8632 e4bb 3bdf dd3b
000003a0: fe47 783b aa6d 27bc 3803 1a39 a43b a13a
000003b0: 48c4 32bb f4fa 2b3b ca60 413c c020 4a37
000003c0: aba6 93bb 0a1e 223c 0c54 25bb 98fc aebb
000003d0: 9b3f 673c 19d1 fbbb aeb5 30bc b347 2cbc
000003e0: 4cbb 03bb f5d7 75bb bc3d b73b 603b 02bb
000003f0: 0630 8b3b 067d 52bb 5779 fc3b 7c1b 5dbc

bn1.running_var f4 [512]
1.3092797 0.83649445 2.7703102 2.4706028 1.0777403 2.0455613 0.7385437 1.7725978
0.8020231 0.7848742 0.62947977 0.7609847 0.8654926 2.5947158 1.1637188 4.7899313
0.607212 1.2131344 0.43849507 0.75384927 1.7147218 1.246989 1.3615863 1.216717
0.64337116 0.8310972 0.7103413 2.291899 6.0018597 1.131575 0.8932856 2.3049521
0.790748 1.3070831 1.4096433 2.6937907 2.5362968 1.112343 1.4745259 1.8655636
0.79028773 1.0372641 1.9587953 2.7750354 0.41082504 1.0235893 2.4267902 1.0612515
1.0504376 4.737845 1.1916353 0.8981559 0.7628928 2.3108358 2.8711996 1.6145321
1.3615767 1.0902152 1.4793676 1.2784989 4.72165 0.7612817 2.103641 0.8076867
1.6147664 0.6176636 1.2958691 1.5284318 3.2096877 1.0683959 1.5062456 6.213744
0.573194 3.3852272 2.6448667 1.6165096 0.87359166 2.141475 0.7976201 2.5379136
1.1926805 2.0540047 1.4956805 2.4254181 1.9836682 4.9990816 1.103298 1.0099276
1.642374 3.211722 1.8854607 3.276611 0.7205461 1.9890524 2.8159487 0.83439636
1.8562249 0.67645395 1.4779193 0.94706094 1.6664299 1.1368386 2.882766 0.75013214
0.8750294 1.4100864 0.7089069 0.74052954 1.8567687 3.424954 1.7561923 2.6183007
5.340651 0.61931175 4.4637294 1.3294939 0.81119245 0.925063 1.0731121 1.0296717
1.5854809 0.69031864 0.9756504 1.8801389 2.3228495 0.55940986 1.5283523 1.1779602
0.4513308 1.333154 0.5729422 0.59826344 2.3117206 2.247805 0.8007198 1.1306758
3.5336595 3.3704886 1.3497714 1.4660909 0.60052186 1.1098766 1.5337278 0.8842881
3.3914251 1.7190334 1.9862278 1.3339745 1.1181983 4.574711 0.82186997 0.9879122
4.2390785 2.6147654 2.1879272 4.655935 0.4516921 1.2495441 2.2166004 1.1249189
0.9746035 1.504191 1.7287098 1.2681862 0.5205265 1.1864377 1.9124886 4.1591086
2.1355202 3.480524 1.6607021 0.86994004 0.9232702 1.5256974 2.8950937 2.041113
0.60073566 1.288151 1.1960372 1.3709351 1.2510254 1.9268589 0.8045466 1.7873181
1.4257532 1.9010504 3.0163453 0.9797444 1.7960626 1.2096573 0.8117537 0.8454685
1.73549 0.89791226 1.4712424 4.3120627 1.4913347 1.9242961 2.4735544 2.2395918
1.210732 1.417636 2.0497584 1.9148052 1.1084542 1.0679669 0.62858427 2.538755
2.883342 1.1158135 3.550041 0.8442398 2.8695586 0.9822677 1.5010656 3.3194067
1.2059758 0.99743986 3.240644 1.3723036 1.245895 1.3434569 1.015886 2.2504714
4.7487793 0.74851537 0.9875208 1.8308581 1.7155422 1.94255 2.1355193 2.2815754
2.7508788 1.1507504 0.84867865 0.73257655 0.8750192 1.5078439 0.7875339 2.2980492
1.5370679 1.9898883 0.9583907 0.8437683 1.8322405 1.5994934 2.5441034 2.0852604
1.3638995 1.7909071 3.209841 4.808941 2.1775088 0.7627943 1.7437841 1.2159456
00000000: 7a96 a73f 8024 563f c34c 3140 5b1e 1e40
00000010: 65f3 893f 7aea 0240 3311 3d3f 7ce4 e23f
00000020: 6351 4d3f 84ed 483f 9625 213f e5cf 423f
00000030: ec90 5d3f d30f 2640 bdf4 943f 1e47 9940
00000040: 3f72 1b3f fd47 9b3f 6d82 e03e 44fc 403f
00000050: 017c db3f 569d 9f3f 7648 ae3f 62bd 9b3f
00000060: f9b3 243f c9c2 543f edd8 353f 79ae 1240
00000070: 3c0f c040 73d7 903f 5dae 643f 5684 1340
00000080: 766e 4a3f 804e a73f 316f b43f 1167 2c40
00000090: b052 2240 4161 8e3f 44bd bc3f caca ee3f
000000a0: 4c50 4a3f 12c5 843f ceb9 fa3f 2e9a 3140
000000b0: a957 d23e f904 833f 8850 1b40 17d7 873f
000000c0: bd74 863f 6d9c 9740 8187 983f 8ced 653f
000000d0: f14c 433f bce4 1340 bcc1 3740 fda8 ce3f
000000e0: 2548 ae3f 2c8c 8b3f eb5b bd3f daa5 a33f
000000f0: c217 9740 5ce3 423f 0ea2 0640 8ec4 4e3f
00000100: aab0 ce3f 341f 1e3f 0adf a53f a7a3 c33f
00000110: 866b 4d40 32c1 883f a8cc c03f fed6 c640
00000120: d8bc 123f 90a7 5840 7f45 2940 c9e9 ce3f
00000130: b4a3 5f3f ed0d 0940 d530 4c3f 2d6d 2240
00000140: c1a9 983f d074 0340 7572 bf3f 0d3a 1b40
00000150: d7e8 fd3f 7af8 9f40 de38 8d3f 4f45 813f
00000160: 5039 d23f da8c 4d40 c756 f13f ffb3 5140
00000170: b675 383f 4599 fe3f 8138 3440 009b 553f
00000180: c798 ed3f 162c 2d3f 762c bd3f 9672 723f
00000190: 934d d53f ed83 913f 3d7f 3840 a908 403f
000001a0: ed01 603f b67d b43f ec7a 353f 5893 3d3f
000001b0: 99aa ed3f 7232 5b40 e9ca e03f 3d92 2740
000001c0: 9de6 aa40 378b 1e3f dfd6 8e40 db2c aa3f
000001d0: 4faa 4f3f eed0 6c3f bd5b 893f 48cc 833f
000001e0: 0af1 ca3f b9b8 303f 3ac4 793f 64a8 f03f
000001f0: 91a9 1440 7c35 0f3f 0ca1 c33f 66c7 963f
00000200: d514 e73e caa4 aa3f 57ac 123f cb27 193f
00000210: 3bf3 1340 0adc 0f40 f9fb 4c3f fcb9 903f
00000220: 7a27 6240 16b6 5740 4fc5 ac3f dea8 bb3f
00000230: cdbb 193f 7010 8e3f 3151 c43f b460 623f
00000240: 1c0d 5940 4909 dc3f b63c fe3f adbf aa3f
00000250: 1f21 8f3f 0864 9240 1266 523f d0e7 7c3f
00000260: 88a6 8740 5158 2740 0007 0c40 6bfd 9440
00000270: 3044 e73e 10f1 9f3f c8dc 0d40 58fd 8f3f
00000280: 9d7f 793f 5589 c03f 5d46 dd3f ed53 a23f
00000290: 3a41 053f 31dd 973f 6dcc f43f 6b17 8540
000002a0: 5dac 0840 e8c0 5e40 e391 d43f 64b4 5e3f
000002b0: 705b 6c3f 0d4a c33f 3749 3940 98a1 0240
000002c0: d0c9 193f 22e2 a43f bf17 993f cd7a af3f
000002d0: 9a21 a03f 50a3 f63f c4f6 4d3f d7c6 e43f
000002e0: 157f b63f 9f55 f33f cd0b 4140 87d0 7a3f
000002f0: 61e5 e53f 0dd6 9a3f 17cf 4f3f a070 583f
00000300: 8924 de3f 94dd 653f ac51 bc3f 6bfc 8940
00000310: 0ee4 be3f 564f f63f b74e 1e40 7955 0f40
00000320: 44f9 9a3f 1975 b53f 3e2f 0340 5618 f53f
00000330: d4e1 8d3f 24b3 883f e6ea 203f f67a 2240
00000340: ad88 3840 fad2 8e3f df33 6340 1920 583f
00000350: d9a6 3740 e575 7b3f eb22 c03f 2971 5440
00000360: 6a5d 9a3f 3858 7f3f b666 4f40 a5a7 af3f
00000370: 7d79 9f3f 65f6 ab3f 8d08 823f b907 1040
00000380: 00f6 9740 b49e 3f3f 2ace 7c3f 8f59 ea3f
00000390: e396 db3f 7aa5 f83f 59ac 0840 5505 1240
000003a0: 660e 3040 ca4b 933f 0143 593f 238a 3b3f
000003b0: 4201 603f 0701 c13f d29b 493f 3d13 1340
000003c0: a4be c43f a9b4 fe3f 1859 753f 3301 583f
000003d0: db86 ea3f 33bc cc3f 97d2 2240 e874 0540
000003e0: 4294 ae3f 723c e53f 096e 4d40 d8e2 9940
000003f0: 4e5c 0b40 7d46 433f 5134 df3f 1ba4 9b3f

fc2.weight f4 [256, 512]
0.21268877 -0.024928398 -0.23619628 -0.08653767 0.10614739 0.039612617 0.09994044 -0.06235329
0.054232534 -0.044190682 -0.12623999 0.26172987 0.31223375 -0.13412389 -0.078996465 0.21248169
0.104013115 -0.064714186 -0.05891798 0.15131636 -0.36746657 -0.031785324 -0.027135044 -0.037981097
0.058738496 -0.027917126 0.017301159 0.027401553 0.06822191 0.048968766 -0.109893315 0.0051556993
0.115464464 -0.0140353525 0.14556432 -0.086449005 0.122456625 0.045885913 0.066460885 -0.085542634
0.08911194 -0.015615749 -0.14478056 0.031395707 0.07391728 0.0149863735 0.08637036 0.4156071
0.18240345 -0.05641027 0.17747495 0.17828713 0.070374995 -0.14522775 0.033569578 -0.072767146
-0.33348888 0.1475272 0.041142996 -0.108733326 -0.18231207 0.22877693 0.09755499 0.0071144677
0.15580031 0.16559076 0.09329544 -0.33614877 -0.06325955 0.14985284 0.18991406 -0.16027832
0.14920197 0.014632864 -0.2537473 0.045007713 0.03201595 0.115103476 -0.25264406 0.20497079
-0.12241717 -0.07398406 0.05890844 -0.05042308 0.095282 -0.044089958 -0.04298205 0.16969566
-0.10094008 0.12249829 0.099225625 0.24377663 -0.111068875 -0.10186007 0.037306327 0.049025234
0.09872749 0.26936978 0.036431305 -0.1642603 0.04101312 -0.51269996 -0.029354418 0.009604841
0.118922904 -0.07714964 -0.29654798 0.30282825 -0.21581525 -0.006757473 0.018294938 0.27277577
-0.17053807 0.17060618 0.12980235 -0.011884727 0.023265444 0.097704865 -0.26425108 -0.29175767
-0.08868083 0.1805233 -0.27588987 0.17757286 0.008521699 0.05566488 0.38660195 -0.25343016
0.13487937 0.24770154 0.08727082 -0.13078728 -0.019031098 0.004336208 -0.012133924 -0.11466919
0.080856785 0.06452394 0.028324088 -0.062775634 -0.068187825 -0.04702723 -0.5488061 0.1281924
0.13815114 0.09356983 0.036245134 0.21086736 0.12543103 -0.046943374 0.08130188 0.108919345
0.10990323 0.16242899 0.024400122 0.1518791 -0.032762464 0.12065652 0.10458239 0.12762943
0.15843321 0.1400483 0.026437566 0.0908264 -0.025909059 0.22394209 0.12995529 0.09861906
0.005762925 0.052081835 -0.09427115 -0.1297063 -0.065687254 -0.002918561 0.13178031 0.04736373
-0.04789533 0.100706585 -0.07406832 0.16886933 -0.13042419 0.28440842 -0.0024514387 -0.18210244
0.17045973 0.13962793 0.04586035 0.0153142745 -0.020841543 0.0119819855 0.008721074 0.043440238
0.15314907 0.075547464 0.24384385 0.09944017 -0.009897296 0.08928234 0.07945844 0.24444252
0.054194674 -0.073889874 0.00037480437 -0.17234604 0.39393026 0.036554746 0.016423468 0.16871575
-0.29329908 0.00026720585 0.099464394 0.102816075 0.20042723 -0.07682105 -0.5359686 -0.015988126
0.106969215 0.09487146 -0.041253075 0.18768229 0.04727276 -0.30505535 0.25671738 -0.38850957
0.32863003 0.29420367 0.11744959 0.2847168 0.1487345 -0.0014295364 0.12350378 -0.09191338
-0.1032979 0.1645735 -0.18303666 0.08172989 0.07680927 0.050257333 0.0008505444 0.039903548
0.04654696 -0.10064205 0.0030967733 0.26977295 -0.236153 -0.004971247 -0.069773 0.01385699
0.10835643 -0.03053372 -0.14942107 0.013479109 -0.00068985694 -0.17867078 -0.026503995 0.30263117
00000000: 16cb 593e a436 ccbc 70dd 71be a93a b1bd
00000010: ce63 d93d d740 223d 93ad cc3d 2a66 7fbd
00000020: ef22 5e3d 4a01 35bd 0e45 01be 7501 863e
00000030: 1add 9f3e c657 09be e6c8 a1bd cd94 593e
00000040: d404 d53d df88 84bd fb53 71bd adf2 1a3e
00000050: 9424 bcbe 5431 02bd 504a debc 1192 1bbd
00000060: c797 703d 75b2 e4bc 29bb 8d3c 3979 e03c
00000070: eeb7 8b3d 7993 483d bf0f e1bd 24f1 a83b
00000080: a278 ec3d 89f4 65bc d00e 153e 2d0c b1bd
00000090: 8aca fa3d def2 3b3d a51c 883d fa30 afbd
000000a0: 5280 b63d 33d9 7fbc 5b41 14be c998 003d
000000b0: f161 973d 6889 753c f1e2 b03d 74ca d43e
000000c0: f8c7 3a3e 750e 67bd febb 353e e790 363e
000000d0: c420 903d 95b6 14be 4180 093d f106 95bd
000000e0: 0ebf aabe 5f11 173e 8f85 283d 94af debd
000000f0: 04b0 3abe 8044 6a3e e9ca c73d 7b20 e93b
00000100: 1e8a 1f3e a090 293e ae11 bf3d b11b acbe
00000110: 398e 81bd 0673 193e d578 423e 0020 24be
00000120: 67c8 183e aebe 6f3c 2beb 81be 025a 383d
00000130: 2823 033d 5fbb eb3d 905a 81be dde3 513e
00000140: dab5 fabd f484 97bd fa49 713d 6e88 4ebd
00000150: 3623 c33d ac97 34bd f20d 30bd b3c4 2d3e
00000160: acb9 cebd 62e0 fa3d ce36 cb3d 95a0 793e
00000170: 1478 e3bd 039c d0bd 85ce 183d afce 483d
00000180: a331 ca3d d6ea 893e fe38 153d da33 28be
00000190: 60fd 273d 4e40 03bf ad78 f0bc 9f5d 1d3c
000001a0: da8d f33d a100 9ebd 23d5 97be 4e0c 9b3e
000001b0: acfe 5cbe cb6d ddbb 44df 953c 44a9 8b3e
000001c0: 88a1 2ebe 63b3 2e3e e8ea 043e 28b8 42bc
000001d0: 2c97 be3c 7d19 c83d eb4b 87be 4361 95be
000001e0: 4c9e b5bd 1adb 383e 7041 8dbe a9d5 353e
000001f0: 999e 0b3c db00 643d b1f0 c53e 99c1 81be
00000200: d11d 0a3e 79a5 7d3e 0bbb b23d 1aed 05be
00000210: 1be7 9bbc c016 8e3b 5ecd 46bc aed7 eabd
00000220: 3e98 a53d 2125 843d eb07 e83c 8390 80bd
00000230: 0fa6 8bbd a09f 40bd 8e7e 0cbf de44 033e
00000240: 7e77 0d3e 8aa1 bf3d c775 143d 9ded 573e
00000250: fe70 003e b247 40bd 9a81 a63d 1b11 df3d
00000260: f214 e13d c953 263e c4e2 c73c 3286 1b3e
00000270: ef31 06bd c41a f73d 4b2f d63d 4ab1 023e
00000280: 513c 223e d268 0f3e 9893 d83c 3103 ba3d
00000290: 3c3f d4bc 1351 653e 0013 053e caf8 c93d
000002a0: ebd6 bc3b c353 553d 3c11 c1bd bad1 04be
000002b0: 0a87 86bd 5445 3fbb 6bf1 063e 7800 423d
000002c0: e52d 44bd 413f ce3d 22b1 97bd 15ec 2c3e
000002d0: eb8d 05be fb9d 913e 51a8 20bb 1079 3abe
000002e0: ff8c 2e3e a0fa 0e3e 10d8 3b3d b9e8 7a3c
000002f0: e2bb aabc 1750 443c d6e2 0e3c 64ee 313d
00000300: 1cd3 1c3e a1b8 9a3d 34b2 793e 4aa7 cb3d
00000310: 4528 22bc a9d9 b63d 1bbb a23d 244f 7a3e
00000320: 3cfb 5d3d 9353 97bd 6481 c439 7b7b 30be
00000330: 3ab1 c93e 6eba 153d 828a 863c d2c3 2c3e
00000340: 4c2b 96be c317 8c39 fdb3 cb3d 3c91 d23d
00000350: cc3c 4d3e 5b54 9dbd 3d35 09bf 88f9 82bc
00000360: ad12 db3d f84b c23d fcf8 28bd c92f 403e
00000370: 15a1 413d 3730 9cbe 7670 833e baea c6be
00000380: 3242 a83e dda1 963e 6989 f03d 67c6 913e
00000390: db4d 183e 485f bbba 8def fc3d 153d bcbd
000003a0: d98d d3bd f585 283e f66d 3bbe 0062 a73d
000003b0: 2e4e 9d3d a2da 4d3d 12f7 5e3a e771 233d
000003c0: 06a8 3e3d 6b1d cebd 3cf3 4a3b ae1f 8a3e
000003d0: 18d2 71be d8e5 a2bb 26e5 8ebd 6e08 633c
000003e0: fae9 dd3d da21 fabc d601 19be 7bd7 5c3c
000003f0: 84d7 34ba 79f5 36be e81e d9bc 79f2 9a3e
