src/model_artifacts/Model_UI_test_2024-06-30.pth (torch, 779424 bytes, 31 tensors)

fc1.weight f4 [512, 25]
000000 d4 83 05 be 91 97 10 3e 63 0e 0a be 0a 4b c1 3d
       -0.1303857 0.14120318 -0.1348205 0.09438141
000010 cb 27 0d 3e 3d 24 8f be b0 9a 88 3e e2 83 ac 3e
       0.13784711 -0.27957335 0.26680517 0.3369437
000020 6c b2 a7 28 ac db 08 bf 9f e9 ae bd fd f8 ea 3d
       1.8618103e-14 -0.5346019 -0.085406534 0.11473272
000030 ff 25 e7 3c 5d e4 d9 bd 74 1e d9 3d 99 c7 3b 3e
       0.02821636 -0.1063926 0.106015116 0.18337859
000040 1b d1 22 3c 1e 1c da ba 0c af fd bc 64 2b 87 3d
       0.00993755 -0.001664046 -0.030967258 0.06600073
000050 05 20 b8 3e 79 91 be bd b2 e6 20 3d b9 ac 0e 3d
       0.3596193 -0.093050905 0.03928251 0.03483269
000060 f7 44 a3 3e 1e ac bf 3d 44 ac 38 bd bf 69 02 be
       0.31888554 0.093590006 -0.04508616 -0.12735651
000070 89 54 19 3e 55 d3 79 be 0b e5 c0 3d dd 43 21 bd
       0.14973654 -0.24397023 0.094186865 -0.03937136
000080 fb ea fe bd da 2d b1 aa 77 b9 16 3d a5 a0 42 3e
       -0.12447163 -3.1473332e-13 0.036797967 0.19006594
000090 1e 40 cc be 56 24 1d be 3b c6 2d 3e 34 53 74 3e
       -0.39892668 -0.15345892 0.1697015 0.23859864
0000a0 d2 4b 83 be 2f 17 30 be f3 29 8a 3e 43 35 19 be
       -0.25643784 -0.17196344 0.2698513 -0.14961724
0000b0 a6 87 b6 be e7 0b 74 3e 3a f1 ee 3e d5 8d 60 be
       -0.35650367 0.23832665 0.46668416 -0.21929105
0000c0 b7 c2 0e 3c ea 35 e4 be ac 9b 8d be 17 a1 eb 3d
       0.008713416 -0.44572383 -0.2765783 0.11505335
0000d0 79 c5 60 be 3f e6 0c be c1 4c e5 bd 19 9c dc bd
       -0.2195033 -0.13759707 -0.1119628 -0.10771961
0000e0 4a 28 2c 3e 9d 4a 0d bf ba 4c fe 28 05 c7 ae bd
       0.16812244 -0.55191976 2.823294e-14 -0.08534054
0000f0 6e dc 1e 3e 74 0e 51 3e 4d 5c a2 be 10 88 96 bd
       0.15513775 0.2041567 -0.31711045 -0.073501706
000100 71 ab 1c 3e 36 69 8e 3b 30 9b c6 be f8 fb d4 bd
       0.15299775 0.004346038 -0.38790274 -0.10399622
000110 d8 a6 a4 3e 2f 95 18 3d 00 4b 74 3e c9 03 55 3e
       0.32158542 0.037251648 0.23856735 0.20802225
000120 0f 3e 09 be 79 b9 3c bd 32 51 d6 3d 8e a7 45 be
       -0.1340258 -0.046075318 0.104647055 -0.19302198
000130 c9 9a ae be e1 e5 01 bf a5 10 c1 3d 48 79 42 be
       -0.34102467 -0.5074139 0.09427003 -0.18991578
000140 e0 fb 4b bc 72 21 a1 3d fd 53 04 3f 80 99 47 a8
       -0.012450188 0.07867707 0.51690656 -1.1080004e-14
000150 6a 55 c8 bd 2e a9 4b 3e 18 c3 8f be bc df 02 be
       -0.097819164 0.19888756 -0.28078532 -0.1278066
000160 f6 25 b3 3e 6b 2d 53 be 5a 8a 88 be e9 b2 dc be
       0.349899 -0.20622794 -0.26668054 -0.43105248
000170 b4 2a 1b 3e 6a 9e 0a 3d 18 86 00 3e 45 38 dc bc
       0.15153009 0.03384248 0.12551153 -0.0268823
000180 ff 7a b3 ba 74 83 a5 3e 9a d9 c6 be 66 9b d0 3c
       -0.0013693272 0.32326853 -0.38837892 0.025464725
000190 4a 51 87 3d f9 c3 2a bd ec 70 58 be 8d a7 0e bc
       0.066073015 -0.0416908 -0.21136826 -0.008706939
0001a0 35 fd 73 3d e8 94 4e be 90 ea 94 3e 06 f7 94 3e
       0.05956765 -0.2017399 0.29085207 0.29094714
0001b0 3c d4 2c ab c8 02 5d be 42 1f e4 3d 8d 23 b8 3e
       -6.140121e-13 -0.21583092 0.111387745 0.35964623
0001c0 7b bb c1 3e 22 94 bb be 40 af b6 be f5 1a 55 bc
       0.3783835 -0.36636454 -0.3568058 -0.013006915
0001d0 b8 31 82 3d b5 3a b5 bd 8d 25 2d bd c6 e5 e0 bc
       0.06357139 -0.08849088 -0.04227214 -0.027453315
0001e0 f2 09 e4 3d 09 01 77 3e 12 80 ea bc 45 84 d7 3d
       0.111347094 0.24121489 -0.028625522 0.10523275
0001f0 28 af ae be f1 9b 25 bf 62 44 61 be 40 48 8a 3e
       -0.3411801 -0.6469107 -0.21998742 0.27008247
000200 96 26 1c be ac 8d 8e bc b6 34 37 3b 0f f1 0d 3c
       -0.15249094 -0.017401539 0.0027955002 0.00866343
000210 ec ec 88 3c 9d 12 1e a9 10 cb 51 be 78 d4 8f be
       0.016714536 -3.5099192e-14 -0.20487618 -0.28091788
000220 10 c4 c4 3d d5 23 89 3e 59 02 0a 3e ba 2d ae 3c
       0.096077085 0.2678515 0.13477458 0.021262038
000230 e7 a1 bb bd 1c 7c b6 3e b4 de ad 3e ee 65 b2 be
       -0.0916174 0.35641563 0.33958972 -0.3484339
000240 d1 71 a6 3e d4 12 59 3e 4c 3b 1c 3c 56 4b fc bd
       0.3250871 0.21198589 0.009535622 -0.12319057
000250 84 fb b7 bd 01 72 77 be 16 10 5e 3d ea 74 96 be
       -0.0898352 -0.24164583 0.05421456 -0.29386073
000260 01 43 7b bd 27 c4 3f 3e 5c 1c 39 bb 62 6f 8e 3c
       -0.061343197 0.1872717 -0.0028245663 0.017387096
000270 ba d7 0c be 29 44 64 bd 6a 84 e3 a8 3c 69 82 be
       -0.13754168 -0.055729065 -2.5259488e-14 -0.25470912
000280 29 40 3e 3e 31 eb 5b bd 95 c0 1c 3d 9e 71 f2 3e
       0.18579163 -0.053691093 0.038269598 0.47352308
000290 3c 9a 45 be 9a 50 b0 3d 15 05 2b bf f9 17 44 3c
       -0.19297117 0.086091235 -0.6680463 0.011968606
0002a0 2b 5e c7 3e 8d f4 80 be 30 54 26 3d 1d 17 09 3d
       0.38939032 -0.25186577 0.04060763 0.03346931
0002b0 be 0f 4f 3d c0 80 e5 bd 56 d1 9d bd 15 9a 24 be
       0.050552122 -0.11206198 -0.07705943 -0.16074403
0002c0 32 d5 03 3d fc 74 ea 3d 2d af a0 3c 2f 4d c6 3e
       0.03218574 0.11448094 0.01961478 0.3873076
0002d0 17 8e b8 be 2c 80 5a ba ba fc a2 3e 7a 0b 77 ab
       -0.36045906 -0.0008335139 0.3183344 -8.7767955e-13
0002e0 b8 50 ed 3d 42 fb 14 3e 4a 21 8d 3e 99 ea f3 3d
       0.115876615 0.14548972 0.2756446 0.1190998
0002f0 f4 f6 82 bd 56 2d 91 3d 6c 38 18 bf ae 9d d6 bd
       -0.06394759 0.07088725 -0.5946109 -0.10479294
000300 93 54 95 3d aa 38 45 bc 7b 01 37 bd b8 57 98 3d
       0.07291522 -0.012037436 -0.044679146 0.07438606
000310 95 5e 76 3d 98 87 9d bd c4 b5 80 3d 58 b8 70 3d
       0.060148794 -0.07691878 0.06284669 0.058769554
000320 27 34 f0 be 4f 98 5e 3e 69 eb 3e bd d7 65 38 bd
       -0.4691479 0.21737789 -0.046611223 -0.045018997
000330 ed b2 a9 be d3 6d 9c 3e 8a 6f 08 be 45 9d 2e 3e
       -0.33144322 0.3055254 -0.13323799 0.17052181
000340 61 44 4c 2b 77 7b 99 bd 5e 55 0e 3e 33 29 07 bf
       7.2570254e-13 -0.07494252 0.13899752 -0.5279724
000350 e9 47 90 3e 6a 97 96 3e ea 1b b8 3d 0a 2d 2a 3e
       0.28179863 0.29412395 0.08989699 0.16618744
000360 5b 7e de be 42 a4 77 3c a9 1b be 3c 51 e3 85 3e
       -0.43455777 0.015114846 0.023206549 0.2614999
000370 f2 2b 7a be a5 44 6a 3e 5d 89 74 3b 02 9c 98 3e
       -0.24430826 0.22877748 0.003731332 0.29806525
000380 4c bf 99 bd 44 17 e2 3e 2b 06 a7 be 08 ee c9 be
       -0.0750719 0.44158375 -0.32621893 -0.39439416
000390 39 16 8e be ff 04 fb 3d 33 c3 ff 3d 98 dd 1f 3d
       -0.2775133 0.12256812 0.12488403 0.039029688
0003a0 dc dc 87 be 2a df 34 aa 51 13 5b bd cd 57 0f bf
       -0.2653569 -1.6064637e-13 -0.05348522 -0.5599335
0003b0 0a b6 20 be cc 45 01 3e a9 37 d0 3d 20 54 fe bd
       -0.15694442 0.12624282 0.10166866 -0.12418389
0003c0 dc 11 26 3f 7a b7 c6 3d 85 97 14 3e e5 31 22 bd
       0.64871 0.09702964 0.14510925 -0.039598364
0003d0 20 d5 14 bd 05 b5 35 be 78 73 a2 3e 24 6e d3 be
       -0.036336064 -0.17744835 0.3172872 -0.41294968
0003e0 ba 11 6a be 90 e3 8d 3d de 8e ff bd 3a e2 1f bf
       -0.22858325 0.0692817 -0.12478422 -0.6245457
0003f0 e2 ad 0a 3e 0c d8 74 be dc f5 87 be 39 08 43 be
       0.13542894 -0.2391054 -0.26554763 -0.19046105

fc1.bias f4 [512]
000000 a8 b4 49 bc 68 06 63 3c ca 26 ce 3b 30 1a 2d bb
       -0.012311138 0.013856508 0.006291245 -0.0026413314
000010 4c 81 56 bc d5 3b 80 bb 97 3d 12 3c 70 4e b4 bc
       -0.01309235 -0.0039133825 0.008925817 -0.022010058
000020 86 9e a8 3b 83 40 b7 bc e9 69 32 ba 55 b0 e1 3c
       0.0051458506 -0.022369629 -0.0006805943 0.027549902
000030 d4 6d 2d 3a 72 8e d1 3c 2b 8f 36 3d 9e d4 31 bc
       0.0006615792 0.025580619 0.04457013 -0.010853915
000040 84 46 bc bb 74 56 7d bc bb e6 a2 3c 33 4e ae bc
       -0.005745711 -0.015462507 0.019885411 -0.021277523
000050 54 f7 8a bb c4 fd ce ba b8 fd 89 3d 8c a5 0b bd
       -0.0042409096 -0.0015792181 0.06737846 -0.034093425
000060 e8 f3 27 bc eb 61 ab ba 6d 77 0d 3c 8b 3f d4 3b
       -0.010251023 -0.0013075446 0.00863443 0.0064773015
000070 b1 c3 df 3b de bc d3 3a 5a 3e 53 3b a7 93 4f 3d
       0.006828748 0.0016154309 0.003223321 0.05067792
000080 46 d0 7d bb 5a fe 56 bc 62 ff b9 3a fb 2d b4 bc
       -0.0038728877 -0.013122166 0.001419049 -0.021994581
000090 d0 7b 48 bb d0 fb 4c 3a 36 6c 8a 3b d0 ba 94 3c
       -0.0030591376 0.00078195054 0.0042243255 0.018155485
0000a0 10 cd 01 3c 74 87 6d bb 46 c4 4d 3c 56 f4 41 bb
       0.007922426 -0.0036244066 0.012559002 -0.0029595098
0000b0 7c f3 29 b9 a0 09 39 38 99 7e 98 39 33 97 6b 3c
       -0.00016207801 4.41164e-05 0.00029086022 0.01437931
0000c0 bd e1 07 3d 28 d8 ce 3c 7c a0 7f bb 93 8b c7 3c
       0.033174265 0.025249556 -0.0039005568 0.024358546
0000d0 56 df 0a bc fb 1a 12 3c dc 90 23 bc 35 fa 37 3b
       -0.008476099 0.008917565 -0.009983268 0.002807272
0000e0 d8 28 dd ba a8 c6 16 bc e1 aa 29 bc b5 03 c0 bc
       -0.0016873134 -0.009202637 -0.010355682 -0.023439268
0000f0 8e 15 8e 3c 64 64 1b 3c 25 f8 38 bb 24 e9 c5 bb
       0.017344262 0.009484384 -0.0028224078 -0.0060397554
000100 d9 b5 1e 3c 49 59 4c bb cc 41 d2 3a 99 48 34 3c
       0.009686911 -0.0031181148 0.0016041338 0.011003637
000110 e4 e3 6e ba 80 80 c9 b6 b4 94 f5 3a 1c 5e 7e bb
       -0.0009112938 -6.005226e-06 0.0018736334 -0.0038813418
000120 bf 67 d7 3c ea 14 a3 ba ac 16 a3 3a e4 8b 9d bb
       0.026294587 -0.0012442146 0.001244267 -0.004807936
000130 f3 50 f5 3c c2 08 14 3b 8c ef e9 ba 74 d3 61 bb
       0.029945826 0.0022588228 -0.001784788 -0.0034458311
000140 38 f0 bc 3b 1c 29 88 bb 4b d3 52 bb d9 50 73 3b
       0.005765941 -0.0041552912 -0.0032169397 0.0037127046
000150 9b 35 68 bb 97 ce 15 bc 15 9d e8 bb 92 bb 1d 3c
       -0.0035432342 -0.009143493 -0.0070988038 0.00962724
000160 87 31 7c 3c f7 ab 40 3c 44 c3 4e 3c 48 80 70 bc
       0.015392668 0.01175975 0.012619797 -0.014679022
000170 72 98 68 3c 9c 4d f9 bb 38 cf 26 3c d4 6d fd 3b
       0.014196502 -0.0076081287 0.010181241 0.00773404
000180 3f f3 e3 bb c5 a0 f2 bc 76 f0 b1 3c d4 f6 da bc
       -0.0069564874 -0.029617677 0.021721106 -0.026729025
000190 28 0f 11 bb 6b 04 36 bd fc 82 bf 3a b2 39 fd bb
       -0.0022134278 -0.044437807 0.001461118 -0.007727825
0001a0 bc c6 0d ba 28 87 37 3c 5a 24 23 bc aa 77 d3 3b
       -0.0005408337 0.011201657 -0.009957397 0.006453474
0001b0 2f 14 16 3b 51 21 1f 3c 48 29 98 bb 16 8a f8 3c
       0.0022900214 0.009712533 -0.004643593 0.030339282
0001c0 2f da 6d bb 62 20 42 3b c0 6b a8 3a 76 62 0e 3c
       -0.0036293378 0.0029621352 0.0012849495 0.008690467
0001d0 57 5c 0c bc 90 2d b1 3c bb 65 ef 3b ee b1 51 bb
       -0.008566937 0.021628171 0.0073058284 -0.0031996923
0001e0 38 2e 33 bb b0 ca 19 ba a2 12 0c bc 66 76 3d 3c
       -0.002734078 -0.00058666896 -0.008549364 0.011563873
0001f0 6b cf 94 bc bd 34 fb 3b 1d 5e d2 bb 2a 5f 9f 3b
       -0.01816531 0.007666199 -0.0064199106 0.0048636394
000200 28 48 9a bc b5 cc 84 3c 30 05 d1 b8 65 79 8a bc
       -0.018833235 0.016210893 -9.966863e-05 -0.016903589
000210 31 b7 21 bd b6 6b fe 3b 92 e7 af 3c af 1c 07 bd
       -0.039481346 0.007764305 0.021472726 -0.03298634
000220 57 e9 31 bb ab 4c 2c bb 0d 73 7d bc 62 cc 27 bc
       -0.0027147138 -0.0026290815 -0.015469325 -0.0102416
000230 80 8f fd bb e8 a1 58 ba 6e 66 11 bc 16 64 c4 bb
       -0.007738054 -0.0008263872 -0.008874519 -0.0059933765
000240 42 6c 1d 3c 07 99 00 bc 38 33 83 bb 8c 0d ee 3a
       0.00960833 -0.007848985 -0.0040039085 0.0018161996
000250 20 be a6 39 57 f6 5b bc 17 be c0 3c a6 62 2e bb
       0.00031803641 -0.013425431 0.023528142 -0.0026609092
000260 3e 71 0a 3c 44 ff 95 bb f4 96 75 3c 4b 3e 4b bd
       0.008449851 -0.004577549 0.014989603 -0.049619954
000270 aa 68 16 3a 72 04 b7 bb 9e 28 bd 3b a8 dd e1 3b
       0.0005737642 -0.0055852467 0.005772664 0.0068928786
000280 00 2f 87 3c b2 ac b7 bc d6 c7 9f bb 7d d9 64 bc
       0.016501904 -0.022421215 -0.004876117 -0.013967869
000290 2c 5e 83 bc 8b cf 11 bc 9f b8 99 3c 66 7b 89 3b
       -0.016036116 -0.00889958 0.018764792 0.0041956184
0002a0 b4 8b 1c bb 8e 98 ac 3a 92 9a 86 3b 7c 85 ad 3c
       -0.002388698 0.0013168023 0.0041077817 0.021181814
0002b0 d0 e1 dd bb c6 7b 8c bc 1e 24 64 bc c5 f2 25 bd
       -0.0067713037 -0.017148864 -0.013924627 -0.040514726
0002c0 4b 42 81 3b 9e c5 f3 3b 40 b9 70 bc 08 3f 92 bc
       0.0039446703 0.0074393293 -0.014692605 -0.017852321
0002d0 22 73 51 bc 46 1d ca bb 0c 94 73 bd 32 61 8c bb
       -0.012783797 -0.0061680404 -0.05946736 -0.0042840475
0002e0 4e f1 e3 bb 49 cf 6f 3c 5c 85 70 3a 63 a7 08 3c
       -0.006956256 0.014636823 0.00091751455 0.008340689
0002f0 66 ab 8e bb 1c 79 aa ba 68 96 e8 3b 30 70 a1 b9
       -0.0043539284 -0.0013006064 0.007098008 -0.000307919
000300 8e 58 36 3b 4c cd ec 3b 12 f8 cd 3a 94 89 49 bb
       0.0027823779 0.0072266217 0.001571419 -0.003075217
000310 7b a0 95 bb a3 4a 3b 3b e2 e6 76 bb 77 18 05 3b
       -0.00456625 0.0028578422 -0.0037674238 0.0020308772
000320 90 8d 16 3c 2f 97 88 bd 90 07 3c bb 12 95 04 bb
       0.009189025 -0.06669461 -0.002869103 -0.0020230454
000330 03 5c 81 3c 00 c8 3b 36 a0 da ad b9 b8 2a ed bb
       0.015790945 2.7981587e-06 -0.0003316002 -0.0072377585
000340 70 14 08 3a a2 a6 ba bc e8 88 22 bb cc 07 1b bb
       0.00051910337 -0.022784535 -0.002480084 -0.002365577
000350 83 8d c7 3b 5e eb 61 3a 3d 47 1c 3c 41 69 cd 3c
       0.0060898676 0.00086181413 0.009538469 0.025074603
000360 e9 64 29 bc 09 db cb 3c 46 44 28 bc ce 87 d7 bc
       -0.010339 0.024884718 -0.010270184 -0.026309874
000370 1b 6d 9d 3c db 0d 5b 3b 5b 68 b5 3c ec cc 27 3b
       0.019217065 0.0033425007 0.022144487 0.002560432
000380 1b 87 a5 39 9c f7 6f 3c d9 bd cc 3c df 03 5b 3b
       0.00031571914 0.014646437 0.02499287 0.0033419055
000390 dd ce cb bc 42 93 84 3b 72 e6 c2 bc 94 9c 4f bb
       -0.024878914 0.004045875 -0.023791526 -0.0031679021
0003a0 84 7f 95 bc 31 bf 36 3c 16 ca d7 bb bc 9e 2a bc
       -0.01824928 0.011153982 -0.00658537 -0.010413822
0003b0 d6 bb 56 bc c7 f2 1d 3c 00 05 f6 37 04 32 9c bc
       -0.013106307 0.009640402 2.9327814e-05 -0.019066818
0003c0 ca 78 4d bb 85 b3 ad bb b3 70 14 bc 12 0c bf 3b
       -0.0031352513 -0.0053009414 -0.009060073 0.0058302963
0003d0 9e e5 d8 bb 4d fa 57 3d bf 8f 5d bb 44 b0 c7 bb
       -0.0066191694 0.05272894 -0.0033807603 -0.0060940105
0003e0 a8 7a 10 bc d7 0c 8b 3c 5a 62 37 bc 0e 92 fa ba
       -0.008818306 0.016973896 -0.011192882 -0.0019117014
0003f0 ef 8d 20 3c b8 dc 02 bc a3 e0 d1 3c 58 c5 c4 39
       0.009799465 -0.007987194 0.02561981 0.00037531066

bn1.weight f4 [512]
000000 06 58 61 3f 4a ac 7e 3f d5 e5 86 3f 5b 3e 29 3f
       0.8802494 0.9948164 1.0538889 0.6611077
000010 de e8 95 3f 94 bd 9c 3f 77 1d b3 3f 09 1b 94 3f
       1.171169 1.2245355 1.3993367 1.157075
000020 76 f1 8b 3f 66 14 85 3f e6 ed 62 3f a9 50 9d 3f
       1.0933063 1.039685 0.88644254 1.229024
000030 d5 79 8b 3f 6a 3c 84 3f cd 4b 84 3f 40 b3 98 3f
       1.0896555 1.0330937 1.0335633 1.1929703
000040 90 e1 95 3f 40 e4 94 3f c4 37 88 3f b7 56 85 3f
       1.1709461 1.1632156 1.0642018 1.0417088
000050 68 ea 88 3f 3e e0 61 3f 62 dc d0 3f 4c c1 69 3f
       1.0696535 0.8823279 1.6317255 0.9131057
000060 f8 c4 44 3f 38 42 2a 3f f6 ac 5e 3f ed a0 69 3f
       0.7686305 0.6650729 0.8698267 0.9126118
000070 0e 15 1f 3f 72 17 52 3f 67 a5 7e 3f e1 9f 98 3f
       0.621415 0.82067025 0.99471134 1.1923791
000080 7c 3e 90 3f 36 3e 15 3f 6e a3 4e 3f b1 d7 6a 3f
       1.1269069 0.5829805 0.80718124 0.9173537
000090 c2 b6 3f 3f b3 50 36 3f e8 83 91 3f 04 37 49 3f
       0.7488824 0.7121689 1.136838 0.7859957
0000a0 9c 9d 73 3f 2e fb 93 3f 33 ef 5c 3f cd 6b 90 3f
       0.9516237 1.1561029 0.8630249 1.1282898
0000b0 30 bd a1 3f 58 58 92 3f e6 5a df 3e 2d 75 5d 3f
       1.263586 1.143321 0.43624038 0.8650692
0000c0 07 bb 65 3f 89 d0 a5 3f bc d6 10 3f 4e 29 7d 3f
       0.89738506 1.2954265 0.5657766 0.9889115
0000d0 cd ef 9d 3f 8c c1 4a 3f cf c2 88 3f eb ef 85 3f
       1.2338806 0.7920158 1.0684451 1.0463842
0000e0 68 29 8b 3f 91 d6 65 3f 77 65 5c 3f a0 9f 69 3f
       1.0872011 0.8978053 0.86092323 0.91259193
0000f0 0c 2d 89 3f fa c9 91 3f ef 90 2a 3f 7d e6 7c 3f
       1.0716872 1.1389763 0.666274 0.987892
000100 4d 21 53 3f 2d 30 ed 3e 15 73 44 3f 68 3d 8f 3f
       0.8247269 0.46325818 0.767381 1.1190615
000110 e3 ad 10 3f fd cb 1c 3f e8 60 15 3f aa 64 28 3f
       0.5651533 0.6124876 0.5835099 0.657786
000120 be 51 86 3f cb 9d 0a 3f 2d 29 41 3f 72 c9 7a 3f
       1.0493696 0.5414702 0.75453454 0.9796363
000130 aa d5 ad 3f 09 2a 7b 3f 45 40 02 3f 86 d5 3d 3f
       1.358083 0.98111016 0.5087932 0.74153936
000140 b0 b7 8d 3f 5a 65 16 3f b2 08 9c 3f 99 bb 35 3f
       1.1071682 0.587484 1.2190154 0.70989376
000150 29 13 1e 3f bf ac 39 3f 20 36 77 3f 62 40 51 3f
       0.61747986 0.72529215 0.96566963 0.81738865
000160 6d 72 64 3f b7 ba ad 3f b5 68 a6 3f 3c a4 85 3f
       0.892371 1.3572606 1.3000704 1.0440745
000170 b3 6b 92 3f 36 db 33 3f 87 8b b3 3f cb 31 5f 3f
       1.1439117 0.70256364 1.4026955 0.87185353
000180 85 dc 37 3f a8 7b 90 3f 08 66 49 3f 0b 41 53 3f
       0.7182086 1.1287737 0.7867131 0.8252112
000190 f5 24 77 3f c7 1b 93 3f 03 3d 85 3f 0d 32 21 3f
       0.96540767 1.1492852 1.0409244 0.62966996
0001a0 e8 23 46 3f ea 9c 86 3f 5c f6 5a 3f 8f 72 31 3f
       0.7739854 1.0516636 0.85532165 0.6931543
0001b0 d3 59 6d 3f 14 e5 9b 3f 2d 50 13 3f 31 d0 64 3f
       0.92715186 1.2179284 0.57544214 0.89380175
0001c0 a7 a8 55 3f 96 c3 4c 3f 2c f3 0b 3f 5d f1 79 3f
       0.8346047 0.7998594 0.54667926 0.97633916
0001d0 96 23 a9 3f 37 fb 4a 3f cc a9 35 3f 81 f4 17 3f
       1.3213985 0.79289573 0.70962214 0.5935746
0001e0 83 e6 35 3f 0d 3e d9 3e a2 a2 5d 3f fa b7 5b 3f
       0.7105486 0.42430153 0.8657628 0.858276
0001f0 a2 16 5c 3f df 12 63 3f c6 ac 8f 3f d6 ee 87 3f
       0.85972035 0.8870067 1.1224601 1.0619762
000200 ff a3 3a 3f df ea 8c 3f 56 53 21 3f c0 64 86 3f
       0.7290649 1.1009177 0.63017786 1.0499496
000210 1e 3e ac 3f d0 88 98 3f 58 49 85 3f eb 18 8d 3f
       1.3456457 1.1916752 1.0413008 1.1023229
000220 02 1b 2a 3f 64 b6 3e 3f d5 fa 69 3f cd 38 55 3f
       0.6644746 0.74497056 0.91398364 0.83289796
000230 5b 8d 59 3f 11 cc 8c 3f 27 07 9d 3f b1 4a 7c 3f
       0.84981316 1.0999776 1.2267808 0.9855147
000240 9b 54 39 3f e2 3a 3d 3f 5d 7b 72 3f 95 0d 83 3f
       0.7239472 0.73917973 0.9471949 1.023852
000250 5f 3c 78 3f 24 f7 13 3f a5 a2 6d 3f 45 f6 73 3f
       0.9696712 0.5779898 0.928263 0.9529765
000260 71 77 87 3f b5 58 26 3f 95 88 7c 3f b9 30 a2 3f
       1.0583326 0.64979106 0.9864591 1.2671119
000270 b9 27 ca 3e a2 31 5a 3f e7 de 45 3f 5d 6b 8e 3f
       0.3948343 0.85231984 0.77293247 1.1126515
000280 c0 a1 89 3f 96 f9 91 3f c5 3d 8e 3f a2 92 44 3f
       1.0752487 1.1404293 1.11126 0.76786244
000290 5e 85 85 3f b4 7c 86 3f 3c a8 5b 3f 0c 6d 5f 3f
       1.0431325 1.0506806 0.8580358 0.8727577
0002a0 fb 31 7e 3f 67 6d 60 3f 02 60 7f 3f ca 5c 82 3f
       0.99295014 0.87666935 0.9975587 1.0184567
0002b0 01 de 78 3f 34 e0 9d 3f 84 3d 2a 3f c6 cd ac 3f
       0.9721375 1.2334046 0.66500115 1.3500297
0002c0 bf b3 df 3e b0 58 8c 3f 15 63 94 3f ce e2 9d 3f
       0.43691823 1.0964565 1.1592737 1.233484
0002d0 2a cc 9d 3f 47 17 60 3f ad 6f 86 3f 58 0a 3f 3f
       1.2327931 0.8753552 1.0502831 0.7462516
0002e0 ba b4 2f 3f a3 8f 0b 3f d4 cd 4d 3f 06 f9 3f 3f
       0.6863514 0.5451605 0.80392194 0.74989355
0002f0 d6 f8 89 3f ca 5f 30 3f ba 7e 49 3f 0e fd 43 3f
       1.0779064 0.6889616 0.78708994 0.76558006
000300 09 42 5b 3f aa a7 45 3f 1d 8b 3f 3f 67 e7 9d 3f
       0.85647637 0.7720896 0.74821645 1.2336243
000310 60 f9 8b 3f 77 89 6d 3f 0e 36 16 3f f6 6d 66 3f
       1.0935478 0.9278788 0.5867623 0.9001154
000320 12 20 70 3f 8e 85 a1 3f 33 23 8a 3f 84 09 7c 3f
       0.93798935 1.2618883 1.0791992 0.9845202
000330 a9 ce 82 3f 5b 25 77 3f 20 99 0c 3f 83 da 65 3f
       1.0219318 0.96541375 0.5492115 0.8978655
000340 d5 2f 87 3f 69 64 85 3f 0a 49 01 3f fe 02 52 3f
       1.0561472 1.0421268 0.50502074 0.82035816
000350 28 35 98 3f 08 a9 4c 3f 30 77 9d 3f 0a 48 82 3f
       1.1891222 0.7994542 1.2301998 1.0178235
000360 16 fb 8b 3f 63 ca 86 3f 1a 20 63 3f c6 f6 81 3f
       1.0936 1.0530514 0.8872086 1.0153434
000370 4e ab 5a 3f e8 bf 5f 3f f9 54 87 3f 3f 52 3a 3f
       0.8541764 0.874022 1.0572807 0.7278175
000380 3d c0 56 3f 71 43 a1 3f 2c 5d 92 3f 4d 14 77 3f
       0.8388708 1.2598706 1.1434684 0.9651535
000390 a8 ab a1 3f 97 56 21 3f 53 08 82 3f 28 e4 48 3f
       1.263051 0.6302275 1.015879 0.7847314
0003a0 08 db 99 3f 49 a3 69 3f fd c1 07 3f 12 e5 84 3f
       1.2019968 0.9126478 0.5303038 1.0382407
0003b0 18 93 44 3f b3 cd 71 3f ba 79 72 3f ca 25 7f 3f
       0.7678695 0.944545 0.9471699 0.99667037
0003c0 4c 66 54 3f f3 50 31 3f 70 05 0b 3f c2 25 5b 3f
       0.8296859 0.69264144 0.5430517 0.8560449
0003d0 e4 be 9d 3f 7f 25 9d 3f 8d 92 4a 3f 4c df 56 3f
       1.232388 1.2277068 0.7912987 0.83934474
0003e0 88 44 10 3f bc fa 72 3f 93 83 76 3f b4 67 52 3f
       0.5635457 0.9491384 0.96294516 0.8218949
0003f0 38 5c 91 3f b9 c8 4b 3f 95 c1 6f 3f d7 0f 52 3f
       1.1356268 0.79603153 0.9365476 0.8205542

bn1.bias f4 [512]
000000 02 68 42 be 22 48 02 be 09 3b 99 be 24 4a 5c be
       -0.18984988 -0.12722829 -0.29927853 -0.21512657
000010 9f ee 8c be cc 97 ac bd 34 ca 8a be 21 c8 18 be
       -0.27525803 -0.084273905 -0.27107394 -0.14920093
000020 87 44 77 bd 26 db c9 be 97 36 76 be cb 1c f6 bd
       -0.060368087 -0.3942501 -0.24044262 -0.120172106
000030 a1 35 91 be f6 a6 15 be f5 28 0b be a7 d7 10 be
       -0.28361228 -0.14614472 -0.13589843 -0.14144765
000040 bb 12 b5 be 2c 9f 38 be 87 b9 b0 bd 39 8e 81 be
       -0.35365853 -0.18029469 -0.086291365 -0.2530382
000050 a7 89 69 bd e1 69 9f 3d f7 a3 aa be 42 59 a0 be
       -0.05701604 0.07783867 -0.3332822 -0.31318098
000060 b3 15 83 be e9 4b ab be e7 e0 a9 be 42 57 65 be
       -0.25602493 -0.33456352 -0.331794 -0.22396567
000070 3e b6 3c be e3 09 c2 be 49 43 53 bd c1 d2 c5 3c
       -0.18428895 -0.37898168 -0.05157784 0.024148347
000080 11 ac 16 bf cb cf 1e be 2c fb 43 3d a2 d9 ca bd
       -0.588563 -0.15508954 0.047846958 -0.099047914
000090 f5 1f 14 bd 59 fe 2f bf 93 2d a4 bd cb 66 e6 be
       -0.03616329 -0.6874748 -0.08016505 -0.450003
0000a0 c2 94 a8 bd b3 08 20 3e 26 a0 c3 be 28 57 bf bd
       -0.08231498 0.15628318 -0.3820812 -0.093427956
0000b0 57 4b 01 bf 95 b8 c4 be ef c0 7d be 6c 66 65 be
       -0.50505584 -0.38422075 -0.2478063 -0.22402352
0000c0 8d 49 37 bd 9e 35 c9 bd 7b a4 4c be 07 81 f2 be
       -0.044747878 -0.0982468 -0.1998462 -0.47364065
0000d0 7e 1b 42 be b3 f9 ae be 74 59 35 3e a2 26 0e bf
       -0.189558 -0.3417488 0.17709905 -0.555277
0000e0 59 bc 8b be 82 5e ac be 61 b3 0f be fb c3 8f be
       -0.27292135 -0.33665854 -0.14033271 -0.2807921
0000f0 a8 70 73 be f2 75 8b be 2c 65 2a 3c 87 51 10 be
       -0.23773444 -0.27238423 0.010400098 -0.140936
000100 20 eb 1e bf 78 a8 59 be 59 3f e9 bd e9 5f 03 bf
       -0.6207752 -0.21255672 -0.11389036 -0.5131822
000110 6d 40 9d bd fd 4c 3b be 5c a5 81 bd 8a 14 8c be
       -0.07678304 -0.18291087 -0.06330368 -0.2735942
000120 8a fe f6 be 3e 42 8f be fe 2f 01 be 85 f7 96 be
       -0.48241073 -0.27980226 -0.12615964 -0.29485717
000130 97 ea 2b bf e5 11 9a be 75 61 7d be 93 06 e1 be
       -0.6715483 -0.30091777 -0.24744208 -0.43950328
000140 97 44 2f be 51 d8 19 be 3b 24 f8 be b8 3b af be
       -0.17116009 -0.15023924 -0.48465142 -0.3422525
000150 f5 11 14 be f2 7b a9 be 0f d4 99 be c9 71 7f be
       -0.14459975 -0.33102375 -0.300446 -0.2494575
000160 6f 6d e2 bd 0e 4f 2d be e0 a4 6a be d7 a1 8f be
       -0.11056029 -0.16924688 -0.22914457 -0.28053162
000170 94 67 89 be 7b 00 5a 3d 3d d6 85 be 9f e9 c5 be
       -0.26836836 0.053223114 -0.26140013 -0.386548
000180 d1 e9 8a be 40 db f4 bc 4a 7e 09 bf 93 4e 93 be
       -0.27131513 -0.029889703 -0.53708327 -0.28770885
000190 15 fe 9d be 71 4f 55 be f9 91 ce be eb 26 4c be
       -0.30857912 -0.20831086 -0.40345743 -0.19936721
0001a0 10 5b 32 be bc a1 2e bf 96 aa bb bc 0b e4 09 be
       -0.1741755 -0.6821554 -0.02290849 -0.13465898
0001b0 41 39 5f be a8 6f 9a be ca 92 71 be 11 de f8 be
       -0.21799184 -0.30163312 -0.23591152 -0.48606923
0001c0 7f b7 34 be 84 64 ca be 45 df bd be cc 9a 95 be
       -0.17648123 -0.39529812 -0.37084404 -0.29219663
0001d0 fd 2c 34 be 98 0c a2 be 58 98 a7 be 65 78 57 be
       -0.17595287 -0.31650233 -0.32733417 -0.2104202
0001e0 05 36 f8 bd ed 68 63 be c1 49 80 be b5 a8 e6 be
       -0.121196784 -0.22207995 -0.2505627 -0.45050588
0001f0 16 13 a2 be 79 36 48 be 69 3a 12 bd e1 9d 97 be
       -0.31655186 -0.1955203 -0.035700236 -0.2961264
000200 22 e4 6f be e0 03 c9 be c6 19 c0 be 54 9c a1 be
       -0.2342687 -0.3926077 -0.37519664 -0.3156458
000210 a5 6e 0d bf f8 d1 ee be d0 8b 14 be ac b5 34 bd
       -0.55246955 -0.46644568 -0.14506459 -0.04411857
000220 7f ed 5f be aa 60 a2 be 22 c0 80 bd d1 48 2b be
       -0.21867941 -0.31714374 -0.062866464 -0.16726996
000230 32 5d 45 bf a7 c4 0b be b8 10 ac be ea 27 c1 bc
       -0.7709533 -0.13649236 -0.33606505 -0.023578603
000240 59 8f 96 be 22 56 e2 be 9a 88 1e bf c2 67 f9 be
       -0.2940624 -0.4420634 -0.6192719 -0.48711973
000250 ab eb 52 be da 34 ac be 4c 44 a0 be ef 96 3c be
       -0.20597713 -0.33634073 -0.31302106 -0.18416952
000260 05 e2 bd 3d 6f ee c3 bc fd ef 59 be 0f 74 84 bd
       0.092716254 -0.023917405 -0.21282955 -0.06467449
000270 7f ba 82 be 0c 4f 26 bd 7a d2 8c bd 19 f7 5b be
       -0.2553291 -0.04060273 -0.06876083 -0.21480979
000280 4c 10 08 bf a0 a2 89 be 13 d8 97 be 8b 46 83 be
       -0.5314987 -0.26881886 -0.2965704 -0.25639758
000290 1d db d8 be 6b 99 8d be 53 9e fb be bd d6 ad be
       -0.4235467 -0.2765611 -0.4914423 -0.33952895
0002a0 94 94 74 be ac 28 27 be 09 d7 14 be cf 55 87 be
       -0.23884803 -0.16324109 -0.14535154 -0.26432654
0002b0 89 f0 bf be 00 4e 1a be b5 c3 62 bd 7d ad d2 be
       -0.374882 -0.15068817 -0.055362422 -0.41147986
0002c0 e6 2f f5 bd 8c 58 24 ba ba bc 09 bf 0e 21 b1 be
       -0.119720265 -0.0006269298 -0.538036 -0.3459553
0002d0 fc de d0 be da 51 3e be c4 68 c9 be 06 13 92 bb
       -0.40795124 -0.18585911 -0.39337742 -0.004457834
0002e0 78 aa ae be e5 20 31 be 0e 81 82 be f4 29 c2 be
       -0.34114432 -0.17297705 -0.25489086 -0.37922633
0002f0 cb bf 00 be 5b a8 af be 21 ac e3 be ad f7 c1 be
       -0.12573163 -0.34308133 -0.4446726 -0.37884274
000300 b1 6b aa be 84 f8 82 be e5 5f 50 bd f5 95 90 be
       -0.33285287 -0.25580227 -0.050872702 -0.28239408
000310 a3 e8 0e bf 70 1e 37 be ca 25 9b be 63 2e 95 be
       -0.55823725 -0.17882705 -0.30302268 -0.29136953
000320 0b 15 14 be 82 c8 33 be cb be 98 be 2e af 82 be
       -0.14461152 -0.17556956 -0.29833063 -0.25524276
000330 5a 3e 96 bd 43 1b 18 bf 6b f8 6d be 8e e2 84 be
       -0.07336111 -0.594166 -0.23239295 -0.25954098
000340 c6 fb 09 bf 18 08 aa bd 3c 97 b5 bd 39 95 b9 be
       -0.538998 -0.08302325 -0.08866736 -0.3624666
000350 bd 66 d1 be 35 c8 df be 0c a4 21 bf 1d d2 b1 be
       -0.40898696 -0.43707433 -0.6314094 -0.34730616
000360 29 95 01 bd 30 cd 79 be a5 37 ba bd d3 81 83 be
       -0.03163639 -0.24394679 -0.090926446 -0.25684986
000370 7f 5f db 3c 36 6d d3 be 22 10 05 be 12 6c 92 be
       0.026778935 -0.4129426 -0.12994435 -0.28598076
000380 51 54 4b be e9 8b 81 bc 8f f1 cc be b8 f0 06 bf
       -0.19856383 -0.015813785 -0.40028045 -0.5271106
000390 e9 bb ea be 44 dc e3 be 53 85 02 bf aa 9c 5c be
       -0.4584649 -0.44503987 -0.50984687 -0.21544138
0003a0 cf 73 6b bd ee 67 1f be 40 ff 6e be 5c fb bf be
       -0.05748349 -0.1556699 -0.23339558 -0.3749646
0003b0 4d 60 de be 40 75 05 bf e1 f7 14 bd d5 16 9e be
       -0.43432847 -0.52132034 -0.03636921 -0.30876794
0003c0 40 e5 ec be ca bd 08 bf 77 dc 6a 3b 48 97 07 bf
       -0.46268654 -0.53414595 0.0035836974 -0.5296521
0003d0 75 6c 7e be dc fa 36 bd df 6c e1 be 55 0f 12 be
       -0.2484606 -0.044672832 -0.44028375 -0.14263661
0003e0 ee e1 92 be 11 91 66 be 48 64 84 be d0 6e 01 bf
       -0.28687996 -0.22516276 -0.2585776 -0.5055971
0003f0 83 99 a1 be 01 10 0c be 40 74 ce be 7f 6c 69 be
       -0.31562433 -0.1367798 -0.40323067 -0.22795294

bn1.running_mean f4 [512]
000000 72 bb cc bb f8 92 af 3b 1a 2b db bb 16 db 03 3b
       -0.006247931 0.005358096 -0.0066884877 0.00201196
000010 c9 20 4e bc 1f 26 87 bc 33 1d b8 3b f2 c0 7e bb
       -0.012581059 -0.01649767 0.005618715 -0.0038872329
000020 e4 d8 5a ba 64 eb 8d bc a6 10 0f bb fc a1 dd 3a
       -0.0008348359 -0.017324157 -0.0021829992 0.0016909237
000030 5b 0e 25 3c c4 39 ab 3c 91 a5 a2 3c 48 8d 97 bc
       0.010074223 0.020901568 0.019854339 -0.018499985
000040 25 ca 3b 3b 38 7f 5a 3c 5e 37 1e 3c 22 d9 08 3c
       0.0028654423 0.013335995 0.009656755 0.00835255
000050 3c 86 46 3c 40 c1 13 ba b0 17 6f 3d fa cb 25 bb
       0.012116965 -0.00056364015 0.0583722 -0.0025298581
000060 73 1f 7a bb 7f bf 3d bb c6 b1 12 bc 54 75 dd 3b
       -0.0038165718 -0.0028953252 -0.008953517 0.0067583714
000070 10 d1 95 bb e2 b0 d5 bb a9 ab ae 3b 02 4f 14 3d
       -0.0045720413 -0.00652133 0.005330522 0.03620816
000080 93 5c 84 3b 9c e0 5a bc a8 f0 42 bb c2 fb c6 bb
       0.004039356 -0.013359215 -0.0029745493 -0.0060724923
000090 fe c8 6e 3a 6b fc 91 3a cb f8 5b ba a2 1a 28 3c
       0.00091089297 0.0011137848 -0.000839126 0.010260256
0000a0 6d fb 85 3c e4 d0 f2 ba c4 e2 67 bb b1 48 00 3b
       0.01635524 -0.0018525389 -0.0035382966 0.0019574577
0000b0 53 63 79 bc 0c 79 a3 ba 54 d7 07 bc 38 08 cb 3b
       -0.015221435 -0.0012471988 -0.008291084 0.006196048
0000c0 f8 76 b0 3b ea f8 b2 3c aa bb a3 bb 3a 8f 8c bb
       0.005385276 0.021847207 -0.0049967365 -0.004289535
0000d0 bc 1d 1c bc 0f 77 9e 3b 8f 36 ac bb 71 87 ce 3b
       -0.009528574 0.0048359702 -0.0052555273 0.006302767
0000e0 dc cb eb bb 82 bd c0 39 06 ba 94 bb 35 42 55 bc
       -0.007195933 0.00036762288 -0.0045387773 -0.013016273
0000f0 7c 81 b0 bb b4 f2 8f 3b 59 ff 49 bc 2c 0c cc 3b
       -0.0053865295 0.004392946 -0.012328946 0.006227037
000100 0d e3 89 bc 95 48 48 bb 86 ef 02 3c 06 6e ab 3b
       -0.016831899 -0.003056084 0.007991677 0.0052316217
000110 9e 36 ba 3a 6a 63 2c bb ca 68 21 bc 77 67 85 bb
       0.0014206951 -0.0026304373 -0.009851644 -0.004071172
000120 f8 4e 10 3c a7 2d 32 3a 75 5b d2 3b 15 29 ed bb
       0.00880789 0.0006796964 0.006419594 -0.0072375634
000130 f1 3c d3 3c 95 66 48 bb 32 3e c7 39 34 0e 3b ba
       0.025785895 -0.0030578722 0.00038002577 -0.00071356003
000140 c1 79 41 3c 26 90 d2 bb 17 e7 a0 bb b1 a5 fd 3a
       0.011808814 -0.0064258752 -0.0049103606 0.0019351748
000150 7c 78 a9 bb dc 2b e0 bb 7c 94 0d bc 72 4b f0 3a
       -0.0051718336 -0.006841166 -0.008641358 0.0018333031
000160 63 aa d0 3c 2c 55 8e 3c 62 9f 08 bc 96 27 32 bc
       0.025471872 0.017374597 -0.008338781 -0.010873696
000170 43 79 89 3c 98 e5 6a bb 18 45 d2 3b 25 a1 32 bb
       0.016781455 -0.0035842415 0.006416928 -0.0027256694
000180 b1 cb e9 bb 52 0a 02 bd 8c cd 0d ba af 13 1f bb
       -0.0071348776 -0.031748123 -0.0005409352 -0.0024273207
000190 71 88 36 3b 20 ec 0f bd d7 aa a1 bb ec c7 4a bb
       0.0027852322 -0.035137296 -0.004933696 -0.0030941917
0001a0 8f 51 e6 bb f3 ea 20 3c af 59 66 bb b6 b9 13 3b
       -0.0070287655 0.009821641 -0.003514867 0.0022541112
0001b0 22 ac 95 bb 18 e7 a4 3a d9 44 9b ba 52 0c b0 3b
       -0.004567639 0.0012581078 -0.001184608 0.0053725624
0001c0 d8 17 ad 3b 05 5f 8d b9 58 b4 c4 b8 30 ea 0e 39
       0.0052823834 -0.0002696441 -9.3796e-05 0.00013629417
0001d0 86 77 7b 3b 68 c1 d8 3b be 34 d8 ba d3 e6 88 ba
       0.0038370802 0.0066148527 -0.0016495211 -0.0010444768
0001e0 82 c0 0a bc c2 1b 74 bb a3 55 94 bc 6b e7 ab 3b
       -0.008468749 -0.003724799 -0.018107241 0.005246093
0001f0 16 3f 62 bb 2e 48 c8 ba 48 36 eb bb 4d 5c e6 bb
       -0.0034522465 -0.00152803 -0.0071781017 -0.007030046
000200 d2 62 27 3b 31 83 a2 3a f1 27 e2 ba 63 c3 2a bc
       0.002554108 0.0012398717 -0.0017254335 -0.01042256
000210 5c e0 98 bc 90 cc 93 3c 34 c7 ae bb fe a1 0a bd
       -0.01866167 0.018041879 -0.0053338055 -0.033845894
000220 78 2b 34 bb fc 63 7a 3b 80 2e 74 38 b2 c9 af 3b
       -0.002749173 0.0038206568 5.821744e-05 0.00536462
000230 0c 3b 97 bb 7e a6 a3 bb a1 90 10 3c 95 c8 3b bc
       -0.0046151932 -0.0049942126 0.008823545 -0.011461397
000240 b4 b8 84 ba ef a4 c5 ba 77 91 ca 3b ac c2 41 bb
       -0.0010125847 -0.0015079061 0.0061818915 -0.0029565496
000250 72 99 f1 3b d7 d9 ac bb 42 2a 62 3c 8d 15 c9 3b
       0.0073730284 -0.005274992 0.01380402 0.0061366023
000260 37 6f 7c 3c b7 c2 93 bb 37 04 7c 3b 77 c1 bf bc
       0.015407375 -0.004509296 0.003845466 -0.02340768
000270 4e e5 7d bb da 89 4e bc 95 dd 42 3b 00 43 0d 3c
       -0.0038741413 -0.012606109 0.0029734124 0.008621931
000280 e8 a7 b3 3b ef 12 b1 bc 87 98 93 bc 0a 39 8f bc
       0.0054826625 -0.021615474 -0.018017067 -0.017483253
000290 8e 02 9c bc 98 e8 f7 bb e3 2a 00 3c a8 cb 80 3a
       -0.019044187 -0.007565569 0.007822725 0.0009826319
0002a0 bf df d9 39 db bf 8e 3b 0e d0 a4 39 95 80 fb 3b
       0.0004155617 0.004356367 0.0003143553 0.0076752403
0002b0 ac b7 08 39 1c f8 4e bc 7e b4 f2 ba 8b 68 8f bc
       0.00013038394 -0.012632396 -0.0018516926 -0.017505905
0002c0 6f af 28 ba 5a f0 2d bb 36 5a bf bb 11 8c 2f bc
       -0.0006434833 -0.0026540966 -0.0058396114 -0.010714547
0002d0 b8 15 54 3b 96 d1 7a bc 55 51 4e bd 5a 19 a4 bb
       0.0032361578 -0.015308758 -0.050370533 -0.005007905
0002e0 20 c7 9d ba 06 5d 90 bb 81 27 29 bc 38 c4 e9 ba
       -0.0012037493 -0.0044056205 -0.01032436 -0.0017834967
0002f0 ea b5 f0 b9 b4 39 1c bc 85 d2 fe bb e4 61 b6 3b
       -0.00045911904 -0.009535242 -0.0077765607 0.0055658687
000300 bb da 25 bb e0 fd 51 bb e3 41 30 ba 41 53 5a 3c
       -0.0025307375 -0.003204219 -0.0006723685 0.013325513
000310 2a 70 e8 3b 55 9b 21 bc dc 67 9d bb 72 c8 0d 3c
       0.007093449 -0.009863694 -0.004803641 0.008653747
000320 ec bc d9 39 05 8d 20 bd ee af 2e bc de f5 ab 3b
       0.00041530223 -0.039196987 -0.010662062 0.0052478155
000330 14 0e 05 3b d2 4d 4b 3a 20 9d 99 bb 6a 90 fb 3b
       0.002030258 0.00077554316 -0.00468792 0.0076771276
000340 cf 63 65 bc 90 95 b0 bb be b4 fe 3b be 29 e6 3a
       -0.014000847 -0.005388923 0.007773011 0.0017560048
000350 b1 4e 77 3c c9 ff a0 3a 71 f8 31 3c 59 f6 16 3d
       0.015094445 0.0012283261 0.010862456 0.03685603
000360 98 91 16 3b c8 ed 8c 3c 65 65 2a bc e1 52 5b bc
       0.0022974964 0.017203227 -0.010400151 -0.013386459
000370 ac b4 5f 3b 29 b1 24 3c a6 9d 82 3c c1 59 5f bb
       0.0034134788 0.010052004 0.015944313 -0.0034080597
000380 21 22 a5 3b 43 08 4d 3c cc 00 57 3c a0 f0 40 3b
       0.005039469 0.012514177 0.013122749 0.0029440299
000390 d9 0e 88 bc 43 82 3c bb 6c e4 c3 bc 66 21 b1 ba
       -0.016608642 -0.0028764165 -0.023912631 -0.0013513982
0003a0 5c 67 ce 3a 02 2e 73 3c 2b 9d 1a bc e5 82 2d bc
       0.0015747356 0.014842512 -0.009436886 -0.01059029
0003b0 a0 99 1a bc 27 aa fe 3a 98 ea 34 bc 6d da d5 bc
       -0.009436041 0.0019429371 -0.01104226 -0.02610513
0003c0 f9 89 21 3b d2 47 71 bb 14 2b 07 bc 4b ab a4 3c
       0.0024648889 -0.003681649 -0.008250017 0.02010121
0003d0 6d be 47 bc 6f ae b6 3c 06 dd 05 3a cb c3 02 3c
       -0.012191397 0.022299973 0.00051064824 0.007981251
0003e0 e3 6d 28 bb c8 24 20 3c 8a 1d 67 3c a2 e2 15 3c
       -0.0025700263 0.009774394 0.014106164 0.009148272
0003f0 0c af db 3b 2f a3 14 bc 1c 4b 9f bb 92 78 29 3a
       0.006704217 -0.009072109 -0.0048612487 0.0006464805

bn1.running_var f4 [512]
000000 75 ef ad 3f c1 49 88 3f 80 6a 4f 3f 8f 3c 1d 40
       1.3588701 1.0647508 0.8102188 2.4568212
000010 c9 5f 91 3f 8c f5 2f 3f 8a ba 64 3f e7 ba b4 3e
       1.1357356 0.6873405 0.89347136 0.35298845
000020 f4 62 c9 3f 8f 70 64 3f fe 5f e7 3f b3 42 77 3f
       1.5733323 0.8923425 1.807617 0.9658615
000030 fe 8f 9c 3f 66 c6 a1 3f 9e 87 17 3f da 87 0d 3f
       1.2231443 1.2638671 0.5919131 0.5528542
000040 ca 0b 9c 3f 4f ed 59 3f b1 54 73 3f eb 3e f2 3e
       1.2191098 0.8512773 0.95051104 0.47313628
000050 53 f5 86 3f ff fd 05 40 30 b2 49 3f 05 eb 23 40
       1.0543617 2.0936277 0.7878752 2.5612195
000060 0c 39 20 40 d7 5c 8a 40 a3 72 48 3f fd 97 c1 3f
       2.5034819 4.323833 0.7829992 1.5124508
000070 7a ff 00 40 4c f2 1f 40 f0 ed 90 3f e1 99 9b 3e
       2.015593 2.4991636 1.1322613 0.30390838
000080 a9 6e 28 3f 4a c6 da 3f 29 c1 2e 40 aa c1 a9 3f
       0.65793854 1.7091763 2.7305396 1.3262227
000090 d7 9c ba 3f 64 bb d4 3f 31 e5 18 3f 9a a6 37 40
       1.4579114 1.6619687 0.5972472 2.8695436
0000a0 cf 5a 8f 3f b7 b8 93 3f e9 00 fc 3f 57 27 2f 3f
       1.1199588 1.1540745 1.9687778 0.684194
0000b0 1c e5 75 3f 48 65 70 3f 19 64 5b 41 a9 68 3e 3f
       0.9605272 0.9390454 13.711938 0.7437845
0000c0 48 19 cb 3f e9 9b 02 3f 77 b0 11 41 86 f9 9e 3f
       1.586709 0.5101915 9.105582 1.2419899
0000d0 db 54 15 3f fe 03 a6 3f 90 f5 3d 3f ac 83 a7 3f
       0.58332604 1.2969968 0.74202824 1.3087058
0000e0 2f 68 29 3f 6b 8c e0 3f af 81 11 40 fa 5e 85 3f
       0.66174597 1.7542852 2.2735403 1.041961
0000f0 bc ab e6 3f 12 70 52 3f 70 9e 93 40 35 03 cf 3f
       1.8021159 0.82202256 4.6130905 1.6172854
000100 ee fb b4 3f 45 32 6e 40 92 79 aa 3f 78 ec 03 3f
       1.4139383 3.7218182 1.331835 0.515327
000110 8d 52 e3 3f 7e 87 a9 40 7c 98 33 40 70 ab 34 40
       1.7759567 5.2977896 2.806182 2.8229637
000120 27 9d 5a 3f 59 28 6d 40 9d fd d8 3f c8 50 95 3f
       0.85396045 3.7055876 1.6952397 1.1665277
000130 5f 4f 96 3f f0 ea 65 3f 38 09 ed 3f fd 4a 46 40
       1.1742972 0.8981161 1.8518438 3.098327
000140 31 19 6e 3f 8c 8a bf 40 cf 62 1e 3f a3 f0 0c 40
       0.9300719 5.9856625 0.6186952 2.2021873
000150 eb 88 5a 40 62 a5 70 40 de e0 6a 3f 41 7c 87 3f
       3.4146068 3.7600942 0.9174937 1.0584794
000160 8c 11 88 3f df e3 ec 3f d2 a2 9f 3f 25 9a 5a 3f
       1.0630355 1.8507041 1.2471564 0.85391456
000170 3d 9b d0 3f 6d 23 4f 3f d5 88 37 3f a7 c5 f8 3f
       1.6297375 0.8091343 0.71693164 1.9435319
000180 fc 89 5a 40 c0 a2 f3 3e 95 cd 02 40 50 cd 9a 3f
       3.414672 0.47585106 2.0437977 1.2093906
000190 79 12 83 3f ca d9 47 3f b1 85 66 3f d3 79 bd 3f
       1.0240012 0.78066695 0.90047747 1.4802803
0001a0 a6 85 ad 40 b7 c0 72 3f dc 5e df 3f 4e fa 4b 40
       5.4225645 0.9482531 1.7450824 3.1871524
0001b0 2d 8b 53 40 95 bf 1f 3f b1 6c 7d 40 e5 32 b4 3f
       3.3053696 0.62401706 3.959759 1.4078032
0001c0 9f 0d 5e 3f 43 3e f3 3f bc 64 5a 40 fd 30 8e 3f
       0.86739534 1.9003376 3.4123983 1.11087
0001d0 bd 65 f0 3f 98 22 c9 3f 56 0c 37 40 d3 f4 01 41
       1.8781048 1.5713682 2.860128 8.122272
0001e0 5e 69 85 40 80 27 87 40 1b 04 a2 3f 6d 47 99 3f
       4.169112 4.223572 1.2657503 1.1974922
0001f0 46 1a df 3f 59 60 b1 3f 46 b5 56 3f 0f 8e a9 3f
       1.7429893 1.3857528 0.8387035 1.3246478
000200 81 d4 91 3f 12 37 e1 3f 60 33 0d 40 56 b2 74 3f
       1.1392976 1.7594931 2.2062607 0.9558462
000210 39 a0 14 3f 8c 07 6e 3f 9d 1f 9b 3f c1 2e 35 3f
       0.5805698 0.92980266 1.2119023 0.70774466
000220 a9 70 87 40 24 3d ea 3f 60 70 a6 3f b3 f4 4c 40
       4.2325025 1.8299909 1.3003044 3.2024353
000230 9f 5f 8a 3f bc 1e ab 3f d3 a9 06 3f 06 7b b0 3f
       1.0810431 1.3368754 0.5260288 1.3787544
000240 bb c7 f1 3f a5 a5 1d 40 fa 24 42 3f 7f dc 27 3f
       1.8889078 2.4632351 0.7583767 0.65570825
000250 98 0f 32 40 2a 01 46 40 55 0b 87 3f aa f5 07 40
       2.7822018 3.093821 1.0550333 2.1243691
000260 53 16 69 3f 86 ea 78 40 d9 5b 2a 3f 5d a5 e3 3e
       0.9104969 3.8893142 0.665464 0.444621
000270 a3 4f 0b 41 0e 34 43 3f 45 11 35 3f 40 ea 04 3f
       8.706943 0.76251304 0.70729476 0.5191994
000280 07 68 58 3f c8 94 3a 3f 52 2e 39 3f 20 49 46 40
       0.84533733 0.7288327 0.72336304 3.0982132
000290 53 ce eb 3e 0c fd a0 3f 56 f8 fb 3f af 5e 66 3f
       0.4605585 1.2577224 1.9685161 0.89988226
0002a0 bb 66 d2 3f 6c 70 27 3f c5 09 ec 3f 22 6f 9d 3f
       1.6437601 0.6540592 1.8440481 1.229954
0002b0 5a 89 b1 3f 0b 68 1c 3f 3e 52 a5 40 de cb 47 3f
       1.3870041 0.61096257 5.1662893 0.7804545
0002c0 07 53 09 40 82 d7 10 3f 9b c7 16 40 ab 4e 2d 3f
       2.1456926 0.5657884 2.355933 0.6769816
0002d0 3a d7 b3 3f 94 39 26 40 94 b8 4c 3f d3 01 b4 3f
       1.4050057 2.5972643 0.79969144 1.4063057
0002e0 44 fc d2 3f ca 42 56 40 ab c6 21 40 2a 5c d6 3f
       1.6483235 3.3478265 2.5277507 1.6746876
0002f0 78 b5 49 3f 0d 03 82 40 ff f3 ca 3f 78 f5 28 40
       0.78792524 4.0628724 1.5855712 2.6399822
000300 d7 f8 a1 3f e8 a6 2b 40 52 67 a3 3f 17 99 14 3f
       1.2654065 2.6820621 1.2765906 0.58046097
000310 39 ef b2 3f f6 fb df 3f 5c 8b 5f 40 cb 72 d6 3f
       1.3979255 1.7498767 3.4928808 1.6753782
000320 ca f4 31 40 4b d0 0d 3f ea 49 01 3f 1f e5 93 3f
       2.7805657 0.55395955 0.5050341 1.1554297
000330 b6 d9 73 3f 7c e5 88 3f 4a 05 ec 40 8b 9e e8 3f
       0.95254076 1.0695033 7.3756456 1.8173383
000340 02 b9 4c 3f 90 a0 00 40 bc b9 07 40 10 da 14 40
       0.799698 2.0098 2.1207113 2.3258095
000350 0c 79 6d 3f 48 2c ad 3f ba a1 b4 3f 4c 5d 55 3f
       0.9276283 1.3529139 1.4111855 0.83345485
000360 eb 60 09 3f 73 33 66 3f b6 00 98 3f ab 77 9b 3f
       0.5366351 0.89922255 1.1875217 1.2145895
000370 6e bd 03 3f d7 f1 e4 3f 2e 9e 8c 3f 85 22 b6 40
       0.5146092 1.7886304 1.0985773 5.691714
000380 46 6e 4b 40 dd 59 5b 3f f0 b3 6c 3f 65 d4 49 3f
       3.1786056 0.85683995 0.9246206 0.78839713
000390 47 ed 62 3f c1 45 20 40 fa d2 88 3f 2d 5c ed 3f
       0.88643306 2.5042574 1.0689385 1.8543755
0003a0 4f ea 0e 3f 69 f4 ab 3f 55 dd e5 40 f9 0c ba 3f
       0.55826277 1.3433963 7.183268 1.4535209
0003b0 5c 50 0b 40 1b 75 0a 40 1b c6 85 3f fe 6a 78 3f
       2.1767797 2.1633976 1.0451082 0.9703826
0003c0 db c5 d8 3f 8b 5f 59 40 3a 9e 07 40 a9 37 00 40
       1.6935381 3.3964565 2.1190324 2.0033972
0003d0 b4 24 0e 3f 38 ca 64 3f ec 21 3b 40 eb d4 a8 3f
       0.55524755 0.8937106 2.9239454 1.3189977
0003e0 c8 92 ce 40 35 86 1e 3f db a5 4c 3f 3d 91 9f 3f
       6.4554176 0.61923534 0.79940575 1.2466198
0003f0 34 b9 f2 3f df 48 6d 40 7a 11 9d 3f 4d f3 ac 40
       1.896277 3.7075727 1.2270958 5.4047

fc2.weight f4 [256, 512]
000000 67 03 ec 3d 85 db 9e 3e b4 af 01 bf 8d 67 31 be
       0.115240864 0.31026855 -0.50658727 -0.17324658
000010 0c 78 9f 3d e8 80 90 be c8 84 d8 3e e3 49 8e be
       0.07786569 -0.28223348 0.42288804 -0.27790746
000020 36 66 42 be 42 28 fd 3d 0a e8 95 be f6 56 1e be
       -0.18984303 0.12361194 -0.29278594 -0.1546286
000030 c1 41 38 3e ce 6b 65 bd 60 e7 b5 3a c6 ed a7 3e
       0.17993833 -0.056011014 0.0013878159 0.32798594
000040 f7 17 95 bd c9 a6 25 be 54 95 53 3e 58 f3 5d bc
       -0.072799616 -0.16176905 0.20662433 -0.013546787
000050 8a d4 84 3d c7 56 e8 bc a7 3f 89 be 54 07 6d 3e
       0.06485851 -0.028361691 -0.26806375 0.23147327
000060 b8 45 79 3d 99 0b 41 3e c5 39 50 bd e0 57 82 3e
       0.060857505 0.1885208 -0.050836343 0.25457668
000070 40 dd e6 be 05 01 06 bf 5a b1 1b be 48 95 b8 3d
       -0.45090675 -0.52345306 -0.15204373 0.09012848
000080 82 69 5c be 10 77 22 bc c7 ea 3f be 49 af bb 3d
       -0.21524623 -0.009916082 -0.18741904 0.09164292
000090 cf 7a c4 3d 64 1c f4 3e a6 73 e4 bd f4 43 93 bc
       0.095937364 0.4767791 -0.11154871 -0.017976739
0000a0 67 00 98 bd 3d 84 07 bf 47 e4 26 3d 56 11 49 3e
       -0.07421952 -0.52936155 0.040745046 0.1963552
0000b0 c3 61 54 be f4 7a 1f 3f bb 8f 90 bd 19 08 7b be
       -0.20740418 0.62296987 -0.070586644 -0.24514808
0000c0 05 dd 18 bf 26 0b dc 3c ea 38 af be 6c d5 de bd
       -0.5971225 0.026860785 -0.3422311 -0.10880551
0000d0 0d 20 a0 3e c7 0f 2f bf 38 2b 85 be 09 e0 b4 3e
       0.31274453 -0.6838345 -0.26009536 0.35327175
0000e0 95 93 12 bf 32 70 75 be 7c 2a f3 3d 22 18 06 be
       -0.5725644 -0.2396858 0.118733376 -0.13095143
0000f0 8e 54 60 3e 77 20 96 3e f6 4a 2a be 65 7f b5 bd
       0.21907255 0.29321644 -0.16630158 -0.08862189
000100 bd 89 cc bc e0 48 35 be 0e d7 1a be cc 1e 86 bd
       -0.024968022 -0.17703581 -0.151211 -0.06548843
000110 74 91 76 be ca 8d 0e 3e db f7 47 3d 0e 1b 83 bc
       -0.24078923 0.13921276 0.048820358 -0.016004112
000120 e6 49 53 be 22 82 77 3e cd 9f cb bd 2f ba 7c 3e
       -0.20633659 0.24170735 -0.09942589 0.24680398
000130 ef 6a 02 3f 92 eb c6 be e4 c9 75 be 55 61 10 bd
       0.5094442 -0.388516 -0.24002796 -0.035249073
000140 55 67 03 3f 04 1f a0 bd 17 ea b7 be e6 52 8e be
       0.5132955 -0.07818416 -0.35920784 -0.2779762
000150 99 f8 cc 3d 5d 51 d0 3c 6e a5 de bd a9 f1 f4 bd
       0.10008354 0.025429422 -0.10871397 -0.119601555
000160 7d d4 ec be 31 22 33 be 87 e5 f3 be e7 ce 6e 3e
       -0.46255866 -0.17493512 -0.47636053 0.23321114
000170 c6 5a a7 be 63 1f 63 3d df c5 f8 3d 51 1b ce be
       -0.32686442 0.055449855 0.12147116 -0.40255216
000180 ab 9d ad 3c 95 e1 1d 3e 62 76 61 3e ca 38 3a 3e
       0.021193346 0.15418084 0.22017816 0.18185726
000190 22 38 ea bc e2 0c fb 3b c4 19 08 be cd 0d 88 bb
       -0.02859122 0.007661448 -0.13291079 -0.004152036
0001a0 f9 5a bf bc 4c b2 8a be 70 e1 5f 3c 17 84 b3 bd
       -0.023358809 -0.27089155 0.013664588 -0.087654285
0001b0 0b 52 d1 3c c5 63 72 3e ae cf c8 3d ac 63 63 3e
       0.025551816 0.23670872 0.09805237 0.2220599
0001c0 15 fe 48 3e d3 c6 04 bd 9c 11 4a 3e ff 19 07 be
       0.19628175 -0.032416176 0.1973328 -0.1319351
0001d0 c4 1b 92 bd a0 89 30 3e 46 42 15 3e c3 24 9a bd
       -0.07134202 0.1724 0.14576063 -0.07526543
0001e0 10 c0 1a 3e d7 20 6b be a6 8e 89 3e 5a ef 0c 3e
       0.15112329 -0.22961746 0.26866645 0.1376318
0001f0 ae d6 b6 3e 56 d4 c7 3e ee 61 63 be 27 03 ab be
       0.35710663 0.39029187 -0.22205326 -0.33400843
000200 8c 43 06 be df 8f d9 3e d2 a1 92 3d 9e dc b0 be
       -0.13111705 0.42492577 0.07159771 -0.34543318
000210 0c 16 42 be 1b 34 e4 be e2 40 03 be 58 0c c4 3e
       -0.18953723 -0.44571003 -0.1281772 0.38290668
000220 85 8b 33 3d ec 92 2b be d2 06 1c bf 85 c3 03 3d
       0.043834228 -0.16755265 -0.60947907 0.032168884
000230 52 29 26 be 8a 23 fe 3d e5 78 0c bf f6 ca 37 bf
       -0.162267 0.12409122 -0.5487197 -0.7179407
000240 2a 99 06 bf 2e f8 f9 bc c4 30 07 be 58 48 36 bd
       -0.5257746 -0.03051385 -0.13202196 -0.044502586
000250 68 65 60 be c7 0d 88 be 7f 40 8d be 9d 3e 73 be
       -0.21913683 -0.2657301 -0.2758827 -0.23754354
000260 f6 a3 a2 3d f2 51 1d bb 34 71 90 3e c9 79 99 be
       0.07941429 -0.0024005142 0.28211367 -0.29975727
000270 5a 70 11 bd 07 48 6b 3e 48 c0 12 be cf 71 f4 bd
       -0.035507537 0.22976695 -0.14331162 -0.1193577
000280 24 f9 86 3d e2 f1 f6 3e 64 96 b6 3d 0c 97 ef 3c
       0.065904886 0.48231417 0.089154035 0.02924683
000290 82 bf ad 3d a3 89 9d be a0 54 d2 3e 7d 7d c4 3e
       0.08483793 -0.3076907 0.4108019 0.3837699
0002a0 85 f0 12 be ac fd c1 3e 6c 08 3a bc 66 41 9e be
       -0.14349563 0.3788885 -0.011354547 -0.3090927
0002b0 13 3b 2d 3d 49 2f f8 3d b4 20 56 bd 5d 7f 09 3f
       0.042292666 0.12118394 -0.052277282 0.53709966
0002c0 2f 66 b1 be c1 da 58 3e 1f 91 63 3e 4d 90 25 3e
       -0.34648272 0.21177198 0.22223328 0.16168328
0002d0 0e 1c 82 be d9 27 00 bc 50 6b 1e bf 65 79 96 3c
       -0.2541203 -0.007822 -0.61882496 0.018368432
0002e0 1e 43 8b 3e 53 2a 63 3e cc d3 cc 3d ed 3c b8 3d
       0.27199644 0.22184114 0.100013345 0.08995996
0002f0 e0 9f 2f be 4b b1 83 3d 04 6b 55 3e 2a c6 56 3d
       -0.17150831 0.064303 0.20841604 0.052435078
000300 8f 20 01 bd 65 1c 73 3d 90 03 c8 3d ce 4e cb be
       -0.03152519 0.05935325 0.097663045 -0.3970856
000310 af 73 46 bf 1e 4d ac bd 00 d8 d1 bd c5 f5 51 be
       -0.7752027 -0.084131464 -0.10246277 -0.2050391
000320 8b 96 57 bd cc b2 4e be ad 07 0e 3f 38 44 93 bc
       -0.052633803 -0.20185393 0.5548046 -0.017976865
000330 d3 cc cf be 01 da 72 be 0e db 96 3d 74 67 92 3e
       -0.40585956 -0.23715974 0.07366 0.28594553
000340 fb 90 b5 3d c4 60 38 3f d0 31 9a be 62 ba 0c 3e
       0.088655435 0.7202265 -0.3011613 0.13742974
000350 49 73 4e 3d e5 ed 02 3f 11 9e f5 3e 7d 60 95 be
       0.050402913 0.5114425 0.47972158 -0.29175177
000360 0b ae 80 3e e0 82 31 3d ef 9b 99 bd 8f ed 7a 3f
       0.25132784 0.043337703 -0.07500445 0.98018736
000370 de c3 be 3e 70 f3 b8 be e3 77 1a bf 79 c0 48 3e
       0.3725881 -0.36123228 -0.6033918 0.19604672
000380 b2 9c 7d 3e 0d 4a a1 3c 46 c4 d4 bd 62 2a ca 3e
       0.24766806 0.01968863 -0.10388999 0.3948546
000390 67 6c b5 bd 6f 9e 4c be a9 aa 22 3e 07 5c 33 be
       -0.08858567 -0.19982313 0.15885414 -0.17515574
0003a0 6a c5 25 be b7 8d 81 3e bb d6 15 be 46 cd e2 3e
       -0.16188589 0.25303432 -0.14632694 0.44297236
0003b0 1b ac 2a be 8f 96 23 be 33 54 9c be b6 0e 20 bf
       -0.16667216 -0.15975402 -0.3053299 -0.6252245
0003c0 12 66 24 bf 26 33 8b 3e ae 3d ad 3c d4 14 7e bd
       -0.64218247 0.2718746 0.021147575 -0.062031582
0003d0 f0 71 b6 3e 13 27 7b 3e 96 28 14 be ac cc d0 be
       0.35633802 0.24526624 -0.14468607 -0.40781152
0003e0 f8 6e c6 bd eb b5 40 3c 9b 30 d1 bd e2 9c 24 bd
       -0.09689134 0.011762123 -0.10214349 -0.040188678
0003f0 24 a1 75 be f3 ab cf 3d 11 60 63 3e 5c 2a 3e be
       -0.23987252 0.101402186 0.22204615 -0.18570846
