src/model_artifacts/Product_UI_odi_Model.pth (torch, 779383 bytes, 31 tensors)

fc1.weight f4 [512, 25]
000000 b5 3d 18 3e 5d de 57 3e 28 d9 d6 bd 32 9e b3 3e
       0.1486729 0.21080919 -0.10490638 0.3508163
000010 db 4d a3 3e 03 33 9e bd cd 12 e2 3d 67 e1 41 be
       0.31895337 -0.077245735 0.11038742 -0.1893364
000020 69 e7 de 2a 00 18 f9 3e 6c 73 5d 3e e4 88 60 3e
       3.9595695e-13 0.48651123 0.21626061 0.2192722
000030 de 0f 3d 3e c1 fa f1 3c 07 b1 22 bf a5 e7 36 be
       0.18463084 0.029538514 -0.6355137 -0.17861803
000040 86 3a 32 bd 36 fd f0 3e 1d 43 14 bd 21 7d 7a bd
       -0.043512844 0.47068185 -0.036196817 -0.06115449
000050 f7 21 21 bd 7c e8 9e be 3c 7f 21 be b9 2b 17 bf
       -0.039339032 -0.31036747 -0.15771192 -0.5905109
000060 69 2a f5 be 0a d3 c6 be 95 94 6e 3e 24 51 70 bd
       -0.4788392 -0.38832885 0.23298867 -0.05867113
000070 ee 54 64 3e 40 87 0a be aa b1 8d 3e a6 4f 8a be
       0.22298023 -0.13528156 0.2767461 -0.27013892
000080 a0 f5 9e 3c ba 05 01 29 44 0a 25 3e 73 71 7f 3d
       0.019404233 2.864872e-14 0.16117197 0.062364053
000090 8c 46 96 3e 67 2d 85 3e 3f ba 67 bd cf 89 ad 3e
       0.29350698 0.26011202 -0.056574102 0.33894202
0000a0 b1 4a a5 3d b6 00 f6 3e 05 df d0 3e b9 10 03 be
       0.08070887 0.48047417 0.4079515 -0.12799348
0000b0 42 2b c2 be 6c fd c1 3e 98 f7 06 3e 48 6f 4a 3e
       -0.37923628 0.37888658 0.13180387 0.19769013
0000c0 40 e0 1d 3e f3 8f 88 be 10 bc 91 be 76 31 98 be
       0.15417576 -0.26672325 -0.28463793 -0.29725236
0000d0 3f a9 96 be cc df 15 3e 47 37 06 bd 25 fe 94 be
       -0.29426 0.14636153 -0.03276756 -0.29100147
0000e0 6c 56 fc 3d 4c e6 0d 3f 34 16 b0 a9 f6 f4 29 3d
       0.12321171 0.5542953 -7.819822e-14 0.04149338
0000f0 77 35 da bd b2 d8 31 bd a0 0e ab 3e a7 a6 0d be
       -0.10654729 -0.043419547 0.33409595 -0.13833104
000100 91 b8 28 bd 1a b1 bd ba 35 aa 7f bf dc 9d 11 bd
       -0.04119164 -0.0014472336 -0.9986909 -0.035550937
000110 ce 07 4b 3e 5a 09 a1 3d 06 ac 36 3e fa e8 28 3d
       0.19827196 0.07863112 0.17839059 0.04123781
000120 12 8d 7c be 75 d2 d8 3d 6c ae 59 3e 84 8a 0a 3c
       -0.24663189 0.105870165 0.21257943 0.008455876
000130 40 99 b8 be 8c d5 bf 3d 5b e6 eb bd 79 63 7e 3c
       -0.3605442 0.09366903 -0.11518546 0.015526646
000140 f0 89 5e bc d3 14 89 be bc 5d a7 3e 77 46 09 2b
       -0.013582692 -0.267737 0.326887 4.8769967e-13
000150 6b 16 89 3e c3 0f ee bd 29 6d 31 3e e8 c9 fc 3d
       0.26774916 -0.116241 0.17326798 0.12343198
000160 12 93 02 3e 6f 76 e7 bc 7e ce 6f 3e 08 4d ce be
       0.12751415 -0.028254716 0.23418614 -0.40293145
000170 81 5f 35 bd 50 27 0b 3e 6a d8 ca 3e 21 cd d1 be
       -0.044280533 0.13589215 0.39618236 -0.40976813
000180 cf 49 c5 3d a9 c1 b5 3d 0c 64 94 be ff dd 22 bd
       0.096332185 0.08874828 -0.2898258 -0.039762493
000190 79 41 7f 3e 14 65 d7 bc 54 ae 09 3e ef b9 b1 3d
       0.2492732 -0.026293315 0.13445407 0.08678042
0001a0 21 e5 bb bd 0a 5f 74 3e fe 5a e7 3c 5a 8e f8 3d
       -0.09174562 0.2386438 0.02824163 0.121365264
0001b0 80 3d 10 2a e3 44 2d 3d d4 89 09 be d3 24 3a 3e
       1.2811106e-13 0.042302024 -0.13431484 0.1817811
0001c0 17 66 95 3e 0e 49 ea be b9 36 cb be 2b 75 72 3e
       0.2917945 -0.4575886 -0.39690188 0.23677509
0001d0 fc ea fd 3d e9 85 68 3e 47 c8 17 bd 3a 5d a8 3c
       0.12398335 0.22707333 -0.037056234 0.020552266
0001e0 57 5f 1d be 49 7f 69 3e 51 34 0f 3d 0f 82 e4 be
       -0.153684 0.22802462 0.034962002 -0.44630477
0001f0 a9 23 74 3e b0 22 4f bd 9c ad 63 bd 89 d3 20 be
       0.23841728 -0.05057019 -0.05558549 -0.15705694
000200 38 d1 a5 3e 6a bf 01 be d8 28 f6 3e 96 f7 a1 3a
       0.32386184 -0.12670675 0.48078036 0.0012357112
000210 ba 73 21 3e 30 a3 ba a8 62 7c 9b 3e 77 33 2e 3c
       0.15766802 -2.072092e-14 0.30368334 0.010632387
000220 04 d2 14 3e 90 a4 b0 be 44 db 0f be 6e e8 18 bc
       0.1453324 -0.3450055 -0.14048487 -0.009332759
000230 3a 11 d2 bd 70 69 8c bc 98 ed f8 bd fd 2a 8d 3e
       -0.10257192 -0.01714012 -0.121546924 0.2757186
000240 7d db 9d be 51 df 13 3c fe a4 de be a0 fc 59 be
       -0.3083152 0.009025411 -0.43485254 -0.21287775
000250 98 46 a9 be b4 a3 9e 3e 3e 2f 85 bd 3f 37 b2 3e
       -0.3306167 0.3098427 -0.06503151 0.34807774
000260 91 55 e4 bd c9 0c c5 be ec 12 9d 3d 30 5d a7 be
       -0.11149133 -0.38486317 0.07669625 -0.32688284
000270 cd 40 ed 3d a3 84 b6 be 8a 71 fd 29 02 7e ad bd
       0.115846254 -0.3564807 1.1255153e-13 -0.084713
000280 a5 f7 53 be ec 3b 0b bf d2 ba 93 3b ec f1 0d bf
       -0.20699938 -0.5438831 0.0045083547 -0.5544727
000290 77 ee 58 bd 4d d7 64 3e 3c 6b 04 3e 19 ac 92 be
       -0.052961793 0.22347756 0.12931532 -0.28646925
0002a0 07 e0 3e bd 58 fa 6e 3e a1 52 24 3e 87 75 0d 3d
       -0.046600368 0.23337686 0.16047145 0.03453591
0002b0 e2 1a 3c 3e 9f e6 5b be 85 f9 5b bf 51 64 43 3e
       0.1836963 -0.21474694 -0.8592761 0.19081236
0002c0 55 f3 11 bf 37 77 c8 bd ea a8 a2 bd f0 c6 2d 3d
       -0.5701192 -0.097883634 -0.07942374 0.04242605
0002d0 8a 45 90 bd f9 f3 22 be 2c 16 fd be 87 49 41 2b
       -0.070445135 -0.1591338 -0.49430978 6.8669414e-13
0002e0 72 7b 79 3b a0 13 b6 be f8 6d 6c 3d 27 e4 98 3e
       0.0038067964 -0.35561848 0.057722062 0.29861566
0002f0 ad 9a e6 be aa fc 59 bd 57 49 57 3c 9e 60 a9 3e
       -0.45039883 -0.053219475 0.013140044 0.33081526
000300 a9 0f 08 3e 81 60 59 3e 9b e9 08 bd b7 7b 6c be
       0.13287224 0.2122822 -0.03342591 -0.23094068
000310 0e e9 98 3e 0c c5 1e 3e 91 2a 2c be 48 98 a0 be
       0.29865307 0.15504855 -0.16813113 -0.3136618
000320 ae 09 d5 3e 74 64 c0 3d 7d c2 8a 3d 9e 69 38 be
       0.41608948 0.0939416 0.06775377 -0.1800904
000330 41 85 ae 3b 9a f4 98 3d 30 de 3d 3d f1 d1 31 bf
       0.0053259437 0.07468529 0.046354473 -0.6946097
000340 de 81 d6 aa fa 0b 89 bb cb 22 0d be 15 7e 8b 3e
       -3.810415e-13 -0.004182336 -0.13782804 0.2724463
000350 0c 5f 81 be 91 86 07 bd 7e 61 d7 bd e1 64 80 bf
       -0.25267828 -0.033087317 -0.10516642 -1.0030786
000360 e5 f1 65 bd 6f 5c 0a 3e a5 02 55 3e e4 11 62 be
       -0.05613889 0.13511823 0.2080179 -0.22077137
000370 ce a2 a3 be fe 4f d1 be be 32 4a 3e 8c 05 5b bc
       -0.31960148 -0.40881342 0.19745919 -0.013368022
000380 00 91 09 3e a6 03 fd bc 9a bf a3 3d b6 35 18 be
       0.1343422 -0.030885529 0.079955295 -0.14864239
000390 71 ef 18 3d d6 d2 a4 3d 31 61 83 be bf 89 97 3d
       0.037337724 0.08048026 -0.2566009 0.0739932
0003a0 72 e4 da be 66 4f 3a ab 20 d2 8c 3e 2a ca cb 3d
       -0.42752415 -6.619066e-13 0.27504063 0.09950669
0003b0 00 1d e7 bd c9 7a 60 bd 58 54 cf be 44 39 3e 3e
       -0.11284828 -0.054804597 -0.40494037 0.18576533
0003c0 2e 6f 53 3d ce ad 34 3d 64 5b 0a 3e 51 78 c6 3e
       0.0516197 0.044111066 0.13511425 0.3876367
0003d0 3e 3d f3 be 5c 83 3e be 78 b2 02 bd c4 a7 51 3e
       -0.47507662 -0.18604797 -0.031908482 0.20474154
0003e0 7a 0d 51 bd 5a ce 76 bd ad 7c e3 bd d9 76 8b be
       -0.051038243 -0.060255386 -0.111077644 -0.2723911
0003f0 c0 47 97 be 3a d8 30 be 9b 87 97 3d a3 9e fb 3d
       -0.29546928 -0.17269984 0.073989116 0.12286117

fc1.bias f4 [512]
000000 84 46 1f bb bd 66 74 bb 99 76 81 3a 17 7f b5 bb
       -0.0024303505 -0.0037292682 0.0009877264 -0.005538832
000010 ee 33 d7 3b 63 47 66 3c 5c 50 29 3c 44 82 4a bc
       0.00656747 0.014055106 0.010334101 -0.012360159
000020 1b 65 d4 3b 18 6e 1f 3c d0 0c ef bb 17 9a 28 3c
       0.0064817793 0.009730838 -0.0072952285 0.010290644
000030 cf 6c 51 bc dc 4d 1e bb ba 1b 84 3b ad 69 b2 3a
       -0.01278229 -0.0024155295 0.0040316256 0.0013611816
000040 ae ce 83 39 24 20 78 3c 72 88 ac bb 6f 6c f7 ba
       0.00025140255 0.015144382 -0.005265289 -0.001887692
000050 3a fc 74 3b 74 6a d6 b9 7c e1 f2 3b 09 0b 54 3b
       0.0037381784 -0.00040896575 0.0074121337 0.003235521
000060 e6 e2 c0 bc 69 9b ba bb 2d 10 3a 3b b8 f2 30 3b
       -0.023545694 -0.005694796 0.002839099 0.002700014
000070 6d ee 79 3b d5 40 27 3a f3 14 6b 3b c1 83 6e bb
       0.0038136498 0.0006380205 0.003587064 -0.003639445
000080 84 47 2a 3a 00 89 c9 38 86 ce 80 3b 98 c2 3f bb
       0.0006495642 9.609945e-05 0.0039308695 -0.0029260274
000090 3d 83 d5 bb 82 b1 2d 3a 8f 2e ea 3b a4 89 5b 3b
       -0.006515889 0.0006625877 0.0071466635 0.0033498788
0000a0 7a 62 f5 3b 88 50 5f 3c 10 db 0b b9 b4 6c 95 3b
       0.007488546 0.01363004 -0.0001333768 0.0045600776
0000b0 30 29 b4 39 66 45 2e bc c8 85 82 bb ca 52 08 3c
       0.00034362962 -0.010636663 -0.003983233 0.00832052
0000c0 f2 e2 68 ba 52 0f a1 bc 78 70 89 3b 44 6a 10 39
       -0.0008883915 -0.019660626 0.0041943155 0.00013772497
0000d0 20 20 13 bb de 23 07 3c f7 01 1d bb 5d ed 4c bb
       -0.0022449568 0.0082482975 -0.002395747 -0.003126941
0000e0 79 29 7e bc d7 b1 fa bb d6 a4 3b bb 14 47 91 bb
       -0.015512818 -0.0076505947 -0.0028632185 -0.004433522
0000f0 8b 66 69 3b 7f b2 45 3c 6e a8 45 ba 50 ae 90 3b
       0.00356141 0.012066483 -0.00075400516 0.004415311
000100 3c bf 7e bb f9 6f 47 3b c2 ac e0 bb 03 86 29 ba
       -0.0038871309 0.003043173 -0.006856532 -0.00064668077
000110 9a 47 cc bb 62 ed 8e bb 5e 27 61 bb 10 6e 9a 3c
       -0.0062341215 -0.0043617943 -0.003435574 0.01885131
000120 60 6d 43 bb d4 9c 11 bb c1 d3 c9 bb 79 8f ad 3b
       -0.0029819831 -0.002221872 -0.0061592762 0.0052966443
000130 a4 e4 ed 3b f8 f5 e5 bb 46 a9 5f ba 48 50 92 3b
       0.007259922 -0.007017847 -0.00085319986 0.0044651367
000140 ed 4f b2 bb 95 25 7e bb 30 5f a0 bb 3c 25 25 3c
       -0.005441657 -0.0038779725 -0.0048941597 0.010079678
000150 10 87 04 bc 30 f9 fe 3a a6 d0 61 3c a4 04 e3 3c
       -0.008088842 0.0019452926 0.013782656 0.027712174
000160 8c d2 5c 3b 8f ef 68 3b 57 1f 99 bb 1c e1 45 ba
       0.0033694832 0.0035543179 -0.0046729255 -0.00075484975
000170 2b 9d 94 3b 9e 4b f3 bc 16 ac 66 bb 24 1f d7 3c
       0.0045353374 -0.029699143 -0.0035197786 0.026259966
000180 eb 99 3a 3b 66 76 f1 3a ab 69 c1 3b 1e 43 d8 3b
       0.002847309 0.0018422126 0.005902489 0.006599798
000190 c4 e2 1e bc f9 bc c7 3a f6 5e 92 3b e2 6d 02 bb
       -0.00969762 0.0015238813 0.0044668866 -0.001990192
0001a0 f1 cd 8c 3b 24 40 90 3b 7a 60 4c 3c 99 13 3c bb
       0.004297011 0.0044021774 0.012474174 -0.0028698205
0001b0 73 5b 89 bb 70 27 f2 b9 8c 6a 51 3a 61 6a 0c bb
       -0.00419181 -0.0004618722 0.0007988594 -0.0021425711
0001c0 e0 ee 5e bb 4d 10 76 bc a7 1e b4 3c e5 e5 c0 ba
       -0.0034016892 -0.015018535 0.021987272 -0.0014716951
0001d0 78 9f 57 3c f9 df 10 3b 82 b2 5b bc 69 ec 9a bb
       0.013160579 0.0022106154 -0.013409259 -0.0047278893
0001e0 61 06 c3 3b 64 4a 39 ba d7 21 18 bc 0e 94 4c bb
       0.005951688 -0.0007068275 -0.009285412 -0.0031216177
0001f0 5b c0 11 3c 80 3d 44 ba 4c 11 0b bb 64 ed 41 ba
       0.008895959 -0.0007485971 -0.0021220027 -0.00073977397
000200 69 b7 1d 3c 1b 2a e7 3a 63 9f 97 bc 73 fb 91 bc
       0.009626248 0.001763645 -0.018508619 -0.017820096
000210 54 30 34 3b 56 29 af 3c e2 6d d4 3b b9 d3 e8 bb
       0.0027494626 0.021382015 0.0064828256 -0.0071053174
000220 75 29 5f 3b 3e 81 ba bc cd 9c bd 3a ea 74 4d 3c
       0.003405181 -0.022766706 0.0014466286 0.0125400815
000230 63 9e 06 3b 50 87 93 bc 43 9a 60 bb fa 2b 8a 3b
       0.0020541183 -0.018008858 -0.0034271635 0.004216668
000240 96 74 ae 3b f2 19 c8 bb 02 c6 93 3c 8b 22 86 3b
       0.0053239567 -0.0061066085 0.018038753 0.0040934733
000250 32 84 94 3b 66 fd f0 3b 21 28 d1 bb b6 89 6d bb
       0.0045323605 0.007354426 -0.0063829576 -0.0036245412
000260 90 66 0d bb 56 3a b8 bb 4c 7b 08 bc 94 a3 a6 3b
       -0.0021576025 -0.0056221886 -0.0083301775 0.005085418
000270 a6 45 00 3b 10 44 80 b8 ab 42 87 ba e3 3b 01 3c
       0.0019572764 -6.116193e-05 -0.0010319551 0.007887813
000280 d8 9a 9b ba 50 38 14 bc f9 12 5e bc c7 9e cb ba
       -0.0011871709 -0.009046629 -0.013554328 -0.001553499
000290 06 a0 31 3c c6 1c cd bb ae ae 40 3c c0 bc 1d bb
       0.010841375 -0.0062595336 0.011760397 -0.0024068803
0002a0 70 fc 22 bb df 12 ca ba 5f ac 87 bb 9c 41 06 3c
       -0.0024869703 -0.0015417001 -0.0041404213 0.008194353
0002b0 4a 9e a9 bb 30 07 8d ba 27 41 26 3b 01 33 2d 3c
       -0.00517634 -0.0010759588 0.0025368424 0.010571242
0002c0 25 fc 98 3a 35 29 14 3c bd 7a 26 bc 08 54 7b b9
       0.0011671825 0.009043028 -0.010161099 -0.0002396853
0002d0 8c fa 1f ba f5 6f 28 bc 9a 67 e6 3b 06 0f c4 bc
       -0.0006102703 -0.010280599 0.0070313932 -0.023932945
0002e0 55 6f 05 bb 45 b8 35 bc a2 e0 2c 3b 4c 64 1c bb
       -0.0020360549 -0.011091297 0.0026379009 -0.0023863493
0002f0 e1 55 8c bb c6 65 18 3c 58 60 29 bc 61 56 9a b9
       -0.0042826985 0.009301608 -0.010337912 -0.00029437526
000300 21 e7 a6 bb 9f 0f e9 bb 52 1b 8c bb c9 bc 80 3c
       -0.0050934707 -0.007112458 -0.004275718 0.01571502
000310 00 3d 72 3c 9d bd 9d 3c 1f c8 81 bc 4a 5a 66 bb
       0.014785051 0.019255454 -0.015842495 -0.0035149031
000320 7a ff 02 bc 07 66 b2 3c fb d9 b1 39 b8 a4 cd 3a
       -0.007995481 0.021777166 0.0003392248 0.0015689349
000330 04 5e d3 bb f0 bc 65 3a 26 ae 8d 3b c8 1a b8 39
       -0.0064504165 0.00087638106 0.0043237386 0.00035115168
000340 55 f8 f7 bb 62 6b f1 bb c2 22 10 bc 33 71 54 3b
       -0.0075674453 -0.0073675374 -0.008797349 0.0032416105
000350 02 54 5e bc b1 5c fc bb f2 f5 3f 3c a8 a4 dc ba
       -0.013569834 -0.0077014794 0.011716353 -0.0016833739
000360 2c ec 4f bb 86 48 76 3c a6 4b 99 3c f8 c5 48 3a
       -0.0031726463 0.015031939 0.01871283 0.0007658894
000370 58 b8 35 3c 7a b7 bf 3b be c1 ed 3b 20 44 e3 3a
       0.011091314 0.0058507295 0.007255762 0.0017339028
000380 64 8e 85 3c d7 b8 9b bb f8 44 0f bc 60 27 10 bb
       0.016303249 -0.0047522592 -0.008744471 -0.0021996126
000390 ad 95 c4 bb ca df 74 3b ac 7c f2 bb 08 18 b0 bb
       -0.005999288 0.0037364834 -0.007400116 -0.0053739585
0003a0 e9 52 6e bb a2 ad 46 3c 40 50 b5 bb 0c 82 b2 38
       -0.0036365336 0.012126358 -0.005533248 8.5119245e-05
0003b0 60 82 d3 3a 33 cf aa bb 42 ca 8c bb 28 fd fc 3b
       0.0016136877 -0.0052126884 -0.004296572 0.0077206083
0003c0 ea 38 8c bb 42 f2 88 bb 95 59 d9 3b fa b0 8f ba
       -0.0042792456 -0.00417927 0.0066329935 -0.0010962777
0003d0 15 75 90 ba 26 96 29 3b 2c 38 9a 3b 0f 8a fe 3b
       -0.0011021221 0.002587685 0.0047064032 0.0077679227
0003e0 90 7a 27 b9 b0 de b6 3a e6 ed 9c 3c 13 c0 07 bc
       -0.00015972019 0.0013951864 0.019156408 -0.00828554
0003f0 c5 6f 7a 3c 04 ca 9b 3c 0d 0f e9 bc 0b 23 60 3b
       0.015285437 0.019017227 -0.02844956 0.0034200575

bn1.weight f4 [512]
000000 8e f3 84 3f 57 bb 8c 3f aa 7f 6a 3f 7b 62 3e 3f
       1.0386827 1.0994672 0.9160105 0.7436902
000010 7a 83 36 3f 7c 3c 84 3f 93 4a 75 3f 81 5a 7f 3f
       0.7129437 1.0330958 0.95816916 0.99747473
000020 0f 25 99 3f 40 92 80 3f 9a 41 68 3f 6b 1f 6b 3f
       1.1964434 1.0044632 0.907251 0.91844815
000030 36 6c a7 3f c2 ca 17 3f 1e 06 31 3f 9e 8d 5b 3f
       1.3079898 0.5929376 0.6914996 0.85762966
000040 8b b6 6b 3e 5a 75 5e 3f 38 1a 47 3f 8c f5 3a 3f
       0.23018853 0.86897814 0.7777438 0.73030925
000050 79 7a 57 3f bc 46 72 3f 4c c8 4e 3f d4 bf 19 3f
       0.84171253 0.9463918 0.8077438 0.6005833
000060 29 84 4f 3f 7f b9 be 3f c4 e9 86 3f 49 0f 63 3f
       0.81061035 1.4900359 1.054009 0.886952
000070 1d 20 59 3f 3e 74 87 3f 47 65 88 3f cf 77 38 3f
       0.84814626 1.0582349 1.0655907 0.72057813
000080 00 e2 94 3f 99 ce 27 3f d4 9b 51 3f ff f4 99 3f
       1.163147 0.6554962 0.818784 1.2027892
000090 46 a9 94 3f 94 93 8a 3f 42 80 95 3f 23 25 12 3f
       1.1614158 1.0826287 1.1679766 0.57087916
0000a0 f6 02 70 3f 3c 53 5b 3f ea 8e 5e 3f c9 a4 94 3f
       0.9375452 0.8567388 0.8693682 1.1612788
0000b0 23 8d 58 3f 86 b3 5a 3f b8 2c 9b 3f ac cb 85 3f
       0.8459036 0.8543018 1.2123022 1.0452781
0000c0 db 21 7c 3f 1f 9e 7f 3f 42 6f 70 3f 7d 5e 2e 3f
       0.9848916 0.9985065 0.93919766 0.6811293
0000d0 d2 5f 80 3f 6c d4 81 3f c3 cd 9e 3f 0d b6 72 3f
       1.0029242 1.0142951 1.2406543 0.9480904
0000e0 35 50 a1 3f 72 ce 75 3f b9 f8 36 3f 7b 13 8b 3f
       1.2602602 0.96018136 0.7147327 1.086532
0000f0 92 cc 3e 3f a2 bc 4b 3f 46 57 5f 3f 6c 65 8c 3f
       0.745309 0.79584706 0.87242544 1.0968451
000100 7e f8 64 3f 8a 60 2a 3f 6d 8b 86 3f e9 45 86 3f
       0.8944167 0.66553557 1.0511299 1.0490085
000110 fd 75 89 3f bf d5 69 3f 3c a7 34 3f 11 3d 8d 3f
       1.0739132 0.91341776 0.7056768 1.1034261
000120 9f 32 6c 3f 32 db 1b 3f eb c5 9c 3f 75 2f 68 3f
       0.9226474 0.6088134 1.22479 0.90697414
000130 25 62 f6 3e 34 0a b1 3f 0f 70 64 3f 83 55 4c 3f
       0.48121753 1.3831239 0.8923349 0.7981798
000140 8f e6 4c 3f 8e 47 21 3f c9 09 31 3f f7 61 a3 3f
       0.80039304 0.6299981 0.69155556 1.2764271
000150 a8 06 88 3f cf 38 6c 3f c1 98 94 3f 8a b7 83 3f
       1.0627031 0.92274183 1.1609117 1.0290387
000160 cd 0b 5b 3f c7 b4 18 3f f6 00 92 3f 7c 8a 50 3f
       0.8556488 0.59650844 1.1406543 0.8146131
000170 fa 61 87 3f 3a 3b ae 3f 5e 5c 96 3f cb a0 7b 3f
       1.0576775 1.3611825 1.1746938 0.98292226
000180 d3 f8 88 3f 3b 83 3c 3f 5a 61 77 3f 29 a8 81 3f
       1.0700935 0.7363774 0.9663292 1.0129443
000190 77 06 68 3f d0 02 1c 3f e9 13 92 3f 37 cc 53 3f
       0.90634865 0.6094179 1.1412326 0.8273348
0001a0 fb 88 4d 3f 0e 30 6e 3f c2 65 8b 3f a7 48 8a 3f
       0.8028714 0.93042076 1.0890429 1.0803422
0001b0 fc a0 5f 3f aa de f6 3e 8f a4 46 3f f4 b1 85 3f
       0.8735502 0.48216754 0.77594846 1.0444932
0001c0 b5 2e 43 3f b6 80 a2 3f ec 9d a0 3f 5d 86 c5 3e
       0.76243144 1.269553 1.2548194 0.38579074
0001d0 8c f4 77 3f 05 9e 15 3f 61 90 76 3f 89 ea a4 3f
       0.96857524 0.58444244 0.96314055 1.2884074
0001e0 15 d1 7b 3f be fb 3b 3f 35 52 a5 3f fc bf 9c 3f
       0.9836591 0.73431003 1.2915713 1.2246089
0001f0 62 b4 8d 3f 27 92 8c 3f 7a ae 83 3f e0 84 6a 3f
       1.1070673 1.0982102 1.0287621 0.91609
000200 2e b3 a2 3f d9 4f 4d 3f 98 5b 80 3f 21 d5 6a 3f
       1.2710931 0.8019996 1.0027952 0.9173146
000210 d4 90 3d 3f a8 90 87 3f da 43 8b 3f 2c 91 2d 3f
       0.74049115 1.059102 1.0880082 0.6779964
000220 8a 37 56 3f 40 13 86 3f 6a 35 51 3f 1c ad 4a 3f
       0.83678496 1.0474625 0.8172213 0.79170394
000230 ed ff 35 3f 77 82 8a 3f 3a 3a 36 3f 22 c8 69 3f
       0.71093637 1.0821065 0.71182597 0.91321003
000240 35 04 38 3f f1 6d 5e 3f 85 58 96 3f 9c 92 49 3f
       0.7188142 0.8688651 1.1745764 0.78739333
000250 95 5f 31 3f 65 dc 88 3f dc 9a 37 3f b5 eb 6f 3f
       0.6928647 1.0692259 0.7172067 0.93719035
000260 96 3b 9a 3f 19 eb 4e 3f e9 50 86 3f 8e de 84 3f
       1.2049434 0.8082748 1.0493442 1.0380418
000270 b2 24 34 3f 94 f1 83 3f 75 77 45 3f 3f a9 38 3f
       0.7036849 1.0308099 0.771354 0.7213325
000280 8d ff 33 3f a1 ce 60 3f a3 83 86 3f 55 05 2c 3f
       0.70311815 0.8781529 1.0508922 0.67195636
000290 38 9d 81 3f 92 bf 65 3f 3f d5 62 3f 8e ef 84 3f
       1.0126104 0.8974544 0.8860664 1.0385606
0002a0 fd fe 28 3f fb bd 51 3f e4 2c 58 3f b6 34 75 3f
       0.6601408 0.8193051 0.844435 0.95783556
0002b0 04 12 84 3f 4d f5 80 3f fa e1 67 3f 54 da 35 3f
       1.0317998 1.007486 0.9057919 0.7103627
0002c0 56 7e 34 3f 26 0d 71 3f c2 d6 83 3f 2d 2f 58 3f
       0.70505273 0.9416069 1.0299914 0.84446985
0002d0 eb 1a 70 3f 68 8e 65 3f e6 3b 5c 3f 5f 17 84 3f
       0.93791074 0.8967042 0.860289 1.0319632
0002e0 77 51 01 3f 67 88 7e 3f 18 fe 73 3f 00 b3 89 3f
       0.5051493 0.99426883 0.9530959 1.0757751
0002f0 42 a2 82 3f 67 68 d5 3f 9a 0f 85 3f 9d c1 10 3f
       1.0205767 1.6672486 1.0395386 0.5654543
000300 2f 96 87 3f 9e 11 6e 3f 96 7c 5b 3f 19 a2 85 3f
       1.0592707 0.9299563 0.8573698 1.0440093
000310 3d 54 8a 3f f5 ea 4d 3f 0b 15 97 3f 4a 81 81 3f
       1.0806957 0.8043664 1.1803297 1.0117581
000320 e8 98 90 3f c2 9d 83 3f 2e 4a 80 3f 25 cf 91 3f
       1.1296663 1.0282519 1.0022638 1.139134
000330 61 73 75 3f f2 56 91 3f ae f5 84 3f 26 77 50 3f
       0.9587918 1.1354659 1.0387475 0.81431806
000340 a7 a4 88 3f c1 79 8b 3f dc 35 7c 3f 5f b8 1a 3f
       1.0675248 1.0896531 0.9851968 0.6043758
000350 c7 c2 a0 3f 35 17 89 3f f8 54 63 3f 6f a5 95 3f
       1.2559441 1.0710207 0.8880153 1.1691111
000360 30 df 45 3f 6e c2 8a 3f 1b 57 91 3f 95 27 50 3f
       0.7729368 1.0840585 1.1354707 0.813104
000370 74 fb 7f 3f ed 98 72 3f 23 6a 3b 3f 39 65 87 3f
       0.9999306 0.94764596 0.73208827 1.0577766
000380 d0 ac 83 3f 72 b7 8d 3f db 6a 94 3f ee b7 47 3f
       1.0287113 1.1071608 1.159511 0.7801503
000390 6d ba 7f 3f 38 ab 2f 3f d7 3f 82 3f 33 45 66 3f
       0.9989384 0.68620634 1.0175732 0.8994934
0003a0 a7 6a 58 3f 30 78 5a 3f 37 96 68 3f 0d b6 41 3f
       0.8453774 0.8533964 0.9085421 0.7566841
0003b0 7e 3c 18 3f 52 c2 23 3f 7e dd 45 3f 71 da 8c 3f
       0.59467304 0.63968384 0.77291095 1.1004163
0003c0 26 7a 81 3f f4 fc 8e 3f db 4f 80 3f 51 18 8c 3f
       1.0115402 1.1170945 1.002437 1.0944921
0003d0 94 d1 89 3f ad 0e 5d 3f bd 90 8f 3f 58 26 89 3f
       1.0767083 0.8635052 1.1216046 1.0714827
0003e0 da fb 8b 3f 86 39 6c 3f 6d 36 90 3f bc 2e 5a 3f
       1.0936234 0.92275274 1.126661 0.8522756
0003f0 b8 bf a3 3f 25 23 b7 3f 79 23 b4 3f 3e 31 73 3f
       1.2792883 1.43076 1.4073325 0.9499701

bn1.bias f4 [512]
000000 5e 4f 34 bf b4 fe 19 bf 4f b0 8a be 4a b3 22 be
       -0.70433605 -0.6015427 -0.27087638 -0.15888706
000010 ab 6d 14 3d 67 e9 d6 be e4 34 8b be 5e 61 fb be
       0.0362374 -0.41974947 -0.2718879 -0.49097723
000020 57 1d c6 be 92 4a 29 be 03 e8 86 be 17 f0 b1 be
       -0.3869426 -0.16532353 -0.26348886 -0.34753487
000030 a8 92 bd be e7 79 6e be dd 86 6a be 37 14 e4 be
       -0.37025952 -0.2328869 -0.22903009 -0.44546673
000040 62 19 6a 3d d0 60 c7 bd e7 00 e3 bd ba 9d d2 be
       0.057153113 -0.097352624 -0.110841565 -0.4113596
000050 1a d0 e2 bd 0b 8b 58 be 53 c7 26 be a0 2a 6e be
       -0.110748485 -0.2114679 -0.16286974 -0.23258448
000060 61 54 d1 be bc 45 17 bf 0d 10 49 be 54 a5 b3 be
       -0.40884688 -0.5909078 -0.19635029 -0.35087073
000070 f6 df f5 be 5a d4 b5 be 32 1d 6d be 4d c9 9e 3d
       -0.4802243 -0.35513574 -0.23155668 0.07753239
000080 77 31 f6 bd 69 5b d5 be 9a 02 c8 bd e3 c6 a4 be
       -0.120211534 -0.41671303 -0.09766121 -0.3218299
000090 ee 16 97 be 0f 03 0d bf 8f 70 2b bf e1 fa aa be
       -0.2950968 -0.5508279 -0.66968626 -0.3339453
0000a0 3a 92 bf be e9 0b 71 bd e7 de a3 be 11 f6 bf be
       -0.3741625 -0.05884925 -0.32005998 -0.3749242
0000b0 8f e0 53 be 5e e1 c4 be 01 73 42 be 05 0c e1 be
       -0.20691131 -0.38453192 -0.18989183 -0.43954483
0000c0 ce b1 ba be fc b8 96 be f9 70 81 bd 19 f6 b5 be
       -0.3646378 -0.29438007 -0.06320376 -0.3553932
0000d0 b7 d9 c1 bd 5d d9 bc be 35 cf 9d be a8 60 31 3d
       -0.09465354 -0.36884585 -0.3082215 0.04330507
0000e0 9a 17 b5 be 2e 1a bb bd c5 d2 60 be 2a 08 fa be
       -0.3536957 -0.09135853 -0.21955402 -0.48834354
0000f0 10 5a 10 bf ad 0b ac be 20 f0 4a bf f1 d1 d7 be
       -0.56387424 -0.33602658 -0.7927265 -0.4215236
000100 43 b3 9e be 22 82 a2 be 48 94 ca be 95 2f fc be
       -0.3099614 -0.31739908 -0.39566255 -0.49255052
000110 ed fc 95 be b4 0e df be a8 f3 06 bf 42 22 e0 be
       -0.2929453 -0.43565905 -0.5271554 -0.43776137
000120 42 b0 d7 be 3b fb 8e 3d 9f d0 81 bd 20 da 46 be
       -0.42126662 0.06981512 -0.063386194 -0.19419146
000130 b7 ea 14 be 62 a1 5e be 71 dd e0 be 64 8c 70 be
       -0.14542662 -0.2174125 -0.43918946 -0.23491055
000140 47 7d 85 be 7d 0d 95 be 5a 5f 98 be 50 a8 8b be
       -0.26072142 -0.29111853 -0.29760247 -0.2727685
000150 ef 96 18 bf c8 2e f7 be 38 e8 bf be 4c 45 5e be
       -0.59605306 -0.4827788 -0.37481856 -0.21706122
000160 f1 88 ca be 30 2d 62 bd 08 fa a0 bd 6b 61 5c be
       -0.39557603 -0.055218875 -0.0786019 -0.21521537
000170 06 89 83 be e7 f3 32 be 69 e0 9e be 8e b6 71 be
       -0.25690478 -0.17475854 -0.31030586 -0.23604795
000180 b5 2e c3 bd 1f 8b 86 be 09 de d9 be 63 d5 85 be
       -0.09530393 -0.26278016 -0.42552212 -0.26139364
000190 a6 e3 57 be b2 a5 c2 be fa 69 0f bf 2e 80 86 be
       -0.21082935 -0.3801704 -0.5602108 -0.26269668
0001a0 92 95 d7 be 75 23 64 be 65 c4 d3 be 89 73 85 be
       -0.421063 -0.22279151 -0.41360775 -0.2606471
0001b0 f1 b7 83 bd 29 16 50 be ac 1f dd be cc 25 5c bd
       -0.064315684 -0.20320953 -0.43188226 -0.053746983
0001c0 1d 25 51 be cc 38 7d be cc b5 9f be 5c 72 7c bd
       -0.20424314 -0.24728698 -0.31193388 -0.0616325
0001d0 80 a8 96 be 12 4f 43 bd ec 94 84 be f6 a2 69 be
       -0.2942543 -0.04768283 -0.25894868 -0.22816071
0001e0 d3 b1 ec bd 7c 22 86 be 14 c1 81 bd 60 6a d1 be
       -0.11557355 -0.26198184 -0.06335655 -0.4090147
0001f0 d8 11 da bc c8 45 cb be 1e 14 48 be 23 69 c6 bd
       -0.026619837 -0.39701676 -0.19538924 -0.09688022
000200 11 5a 9d be b4 f3 9f be 79 01 41 be c1 8b 7d bd
       -0.30732778 -0.31240618 -0.18848218 -0.061900858
000210 7a 57 56 be db e3 9e be be 4b 59 be 58 47 0a b9
       -0.20931807 -0.31033215 -0.212203 -0.00013187283
000220 f5 92 20 be 26 0c 6a be db 11 87 be ef a7 6e be
       -0.1568106 -0.22856197 -0.2638081 -0.23306249
000230 b5 40 5e bf 89 2f fe be aa cb 2f be ab ff 5d be
       -0.86817485 -0.4964564 -0.17167535 -0.21679561
000240 aa d2 dc 3d 29 4e 67 be 92 81 2a bf c9 b0 10 bf
       0.107823685 -0.2258841 -0.6660396 -0.5651975
000250 72 50 12 be 77 aa fb be 78 5b 9a be b1 cb a6 bd
       -0.142885 -0.49153492 -0.3014791 -0.0814432
000260 06 db e3 be 39 d9 0c 3d ea 12 02 bf 97 fd b6 3d
       -0.4450304 0.034386847 -0.5081011 0.08935087
000270 df 28 e4 be 34 3b da be e7 74 bf be 1f a3 cf be
       -0.44562432 -0.42623293 -0.37393877 -0.4055414
000280 83 fa bc be 93 b4 90 be 6a c2 0b 3e 1e ec 87 be
       -0.36909875 -0.28262767 0.13648382 -0.2654733
000290 a1 a7 82 be 5b 22 ac be 50 3e a3 be a1 3d c2 be
       -0.25518516 -0.3361996 -0.31883478 -0.37937644
0002a0 95 d1 d8 bd c5 ed 9d be 56 8f 96 be f8 92 36 3b
       -0.105868496 -0.30845466 -0.29406232 0.0027858596
0002b0 d3 b3 92 be 38 eb 5a be f6 64 ca be f1 38 81 be
       -0.2865282 -0.21378791 -0.39530152 -0.25238755
0002c0 dc 42 99 be 9a 65 e7 bd da b7 32 be a5 2c 72 be
       -0.29933822 -0.11298676 -0.17452946 -0.23649843
0002d0 a2 7e 3d be 44 83 c3 be 70 dd 2d be 22 71 93 be
       -0.18505338 -0.38186085 -0.16979003 -0.2879725
0002e0 6a 2a 5e be 34 95 22 bd c1 53 06 bf 33 ce 24 bf
       -0.21695867 -0.039693072 -0.5247155 -0.64377135
0002f0 85 ba 30 be 4c 80 02 bf e9 a2 da bd e9 58 8d be
       -0.17258652 -0.50977015 -0.10675604 -0.27606896
000300 f9 4f 78 be c9 01 8e be 70 49 49 be 6f 8d ee be
       -0.24249257 -0.27735737 -0.1965692 -0.4659228
000310 5b e4 e5 be 99 72 de bd 52 5a 77 be 57 38 a4 bd
       -0.44900784 -0.108617015 -0.24155548 -0.080185585
000320 e1 11 a6 be 0f 8e 19 bf 8a 31 64 bd ba 98 c9 be
       -0.32435516 -0.5998239 -0.055711307 -0.39374334
000330 0d ff 90 be 30 31 66 be 29 82 c5 bd ce d3 45 be
       -0.28319588 -0.22479701 -0.09643967 -0.19319078
000340 d7 5b 58 bf e4 65 a3 be 9d 09 cb 3a 47 d8 5c be
       -0.84515136 -0.31913674 0.0015490536 -0.21566878
000350 17 95 19 be 31 48 20 be c0 fd ba be 7d 0c 50 be
       -0.1499828 -0.15652539 -0.3652172 -0.20317264
000360 cd c6 f0 be 14 9d c7 be 59 d2 f6 be c7 b1 d8 bc
       -0.47026673 -0.3898703 -0.48207358 -0.026451958
000370 25 81 2e be 77 11 72 be ea 9d 01 bf 27 2a 5a bd
       -0.17041452 -0.23639475 -0.5063158 -0.053262856
000380 a3 46 99 be ad 57 36 be d4 1b cf be 5c a4 9a be
       -0.29936704 -0.17806883 -0.4045092 -0.3020352
000390 3f 50 90 be fa 6e c7 be c9 42 a2 be 28 72 e3 bd
       -0.28186223 -0.38951856 -0.31691578 -0.11105758
0003a0 c5 83 98 be e0 00 8e be 08 ec 0c bf 9d a6 cd be
       -0.29788032 -0.27735043 -0.55047655 -0.40166178
0003b0 74 5f 63 be 53 af 59 bd 42 b6 6d be bf 0d 96 be
       -0.22204381 -0.053145718 -0.23214057 -0.29307362
0003c0 17 91 d5 be 05 9a 6a be 45 d6 c1 be 69 5b b1 be
       -0.41712257 -0.22910316 -0.37858787 -0.34640053
0003d0 0b 0e c9 bd 70 0f 08 bf e5 b6 0f be 46 5a e8 be
       -0.098171316 -0.53148556 -0.14034612 -0.45381373
0003e0 3b 17 33 bf eb 5d 0c bf 9c 8b 76 be 94 f2 97 be
       -0.6995732 -0.5483081 -0.24076694 -0.2967726
0003f0 4e c4 c0 be 1d e5 19 be f6 dc f4 be 3d df 4e be
       -0.3764977 -0.15028806 -0.4782483 -0.20202346

bn1.running_mean f4 [512]
000000 f3 fd c4 3a d2 41 85 3b b2 00 0a bc 7e f3 a0 bb
       0.0015029296 0.0040666843 -0.008423017 -0.004911839
000010 43 bc 85 3b c0 bf 7c 3a 00 13 80 3b 7e aa 88 bb
       0.0040812804 0.000964161 0.003908515 -0.004170715
000020 74 65 d9 ba 07 4a 3f bb ae 7f 9b bb 98 bc 0a 3c
       -0.0016586022 -0.002918841 -0.004745445 0.008467816
000030 a0 39 17 bc f1 42 ff ba 60 bf 02 bb 94 c7 4b 3b
       -0.009230047 -0.0019474906 -0.0019950494 0.00310943
000040 de c7 4a bb e0 8f 5f 38 e2 35 44 3b 7b 3d 99 3b
       -0.0030941884 5.3301337e-05 0.0029939343 0.0046765185
000050 53 65 2d 3a 3b b4 6c 3b 1d 46 20 3b fa b5 11 3b
       0.0006614525 0.0036118168 0.0024455853 0.002223371
000060 38 2f 14 3a 1c 6f 23 bc 46 5f 59 3c b2 49 61 3a
       0.0005652788 -0.009975221 0.013267344 0.00085940503
000070 9c 8a c6 3a 0e 56 95 3a 9a 24 c5 3b df bc c3 3a
       0.001514751 0.0011393444 0.006016326 0.0014933607
000080 e5 13 8b bb a1 c7 70 ba 4a ae 9b 3a 27 4e 99 3b
       -0.004244315 -0.00091850205 0.0011877504 0.004678506
000090 56 48 f8 3b dd 90 88 3b 20 19 12 bc 23 24 64 bb
       0.0075769825 0.0041676597 -0.008917123 -0.0034811578
0000a0 3d 54 29 3a 31 a3 d2 ba 85 0e a5 3b 6d 52 85 3b
       0.0006459391 -0.0016070363 0.0050371313 0.004068664
0000b0 f6 f2 e9 b9 1f de 07 bc 40 29 3f ba 7a 5b bf 3b
       -0.00044622243 -0.008292704 -0.00072922185 0.0058397623
0000c0 ec 3c 41 ba 54 66 ab bb 29 72 4b bb 78 87 f2 b9
       -0.0007371444 -0.0052307043 -0.0031043387 -0.0004625877
0000d0 5f bc 4d bc df 31 6b 3b 43 1e 62 ba 82 82 00 3b
       -0.012557118 0.003588788 -0.0008625725 0.0019609039
0000e0 b7 95 87 3b 09 28 90 3b 48 5d 0c bb ca 4d ee 3b
       0.0041377204 0.004399304 -0.0021417905 0.007272457
0000f0 a8 60 af b7 93 aa 04 3c f2 b4 82 bb 47 fe 9b bb
       -2.0906635e-05 0.008097309 -0.0039888555 -0.004760537
000100 51 a4 d1 3b 09 19 2c bb 63 43 6f bb 47 60 01 bb
       0.006397762 -0.002626004 -0.0036508671 -0.0019741224
000110 92 37 b7 ba 90 bb 17 bb 6e 36 36 bb af cb 16 3c
       -0.0013978353 -0.0023152567 -0.0027803439 0.009203835
000120 3c 42 00 bb 40 15 63 3a e1 8e 07 bc 8d 65 fd 39
       -0.0019570729 0.0008662529 -0.008273811 0.00048331582
000130 86 bd 1d 3a 6c c0 1f bc c2 83 77 3b e2 80 ce ba
       0.0006017316 -0.009750467 0.0037767743 -0.0015754963
000140 68 cc 66 bb ff 00 3d 3b cb da 8c ba 46 22 5e bb
       -0.003521705 0.0028839705 -0.0010746358 -0.003389494
000150 ae fa 16 bc 9b 3e 71 3b 46 0e 1e 3c bf 41 4b 3b
       -0.00921504 0.0036810997 0.009646958 0.003101453
000160 86 a8 b3 3b 56 80 78 ba 47 17 55 3c 4c 52 a6 ba
       0.005482736 -0.0009479573 0.013006038 -0.0012689321
000170 32 00 11 b9 06 a8 84 bb 96 52 38 3b 9c 76 83 3c
       -0.0001382835 -0.0040483503 0.0028125397 0.016047768
000180 d2 a4 08 bb ec e6 98 39 db b3 f7 39 4b e5 8d bb
       -0.0020850194 0.0002916375 0.00047245514 -0.0043303124
000190 a9 47 a3 3b 8e 37 56 bb 32 cc 8a 3a e2 0a 1d 3b
       0.004982908 -0.0032686922 0.0010589419 0.0023962785
0001a0 1b 5e 36 3b a8 55 82 3b a8 74 3a 3b ac db 02 3a
       0.0027827087 0.003977496 0.002845088 0.000499184
0001b0 bc fc b7 3b 1a fb e9 3a 3f 02 9c bb 89 9b 31 bb
       0.005614845 0.0017851323 -0.00476101 -0.0027100763
0001c0 94 43 45 38 3e 32 dd bb c1 d9 22 3b 1e bf 06 bb
       4.7031397e-05 -0.006750374 0.002484903 -0.0020560692
0001d0 92 f6 d8 3b 89 21 94 3b 3e e1 0e bc 22 ae 0a bc
       0.0066211903 0.0045205993 -0.008720694 -0.008464368
0001e0 49 4f 5c bb e8 26 97 bb 29 d1 f6 3b 98 a2 4e 39
       -0.0033616594 -0.0046127923 0.007532258 0.00019706262
0001f0 fe e3 77 bb e0 8d 17 3c 9a 62 8d 3a a2 97 63 b8
       -0.0037825103 0.009250134 0.0010786832 -5.4262237e-05
000200 f5 f2 c6 3b 68 98 8b bb 74 27 c5 bb 96 29 a7 bb
       0.006071443 -0.0042601116 -0.006016666 -0.005101393
000210 d0 b8 1d 3c 58 c0 cc 3c ea e5 80 3c b7 70 5b bb
       0.009626582 0.02499406 0.015734632 -0.0033483931
000220 dc 3e 3a 3b 12 c9 20 bc e0 ac c9 ba d5 fe 87 3b
       0.0028418815 -0.009813564 -0.0015386604 0.0041502514
000230 df de 2c 3b be 67 82 ba 9c 75 3d bb b2 f1 60 ba
       0.0026377959 -0.000994913 -0.0028909212 -0.0008580937
000240 f8 82 4b 3b 40 d9 a3 36 ff a2 18 bb b5 c8 45 bb
       0.0031053405 4.88307e-06 -0.0023290513 -0.0030179445
000250 52 25 a8 ba 66 71 22 3c e8 fa 0e bb ef b3 0d 3b
       -0.0012828505 0.009914732 -0.0021817032 0.0021622141
000260 48 17 b9 b9 32 ff 87 3a 78 11 58 3c 92 a7 e1 3a
       -0.00035303296 0.0010375737 0.013187759 0.0017216078
000270 d5 9b bb bb 7b 4c 02 bb ac c9 1c bc c8 74 bf b9
       -0.0057253637 -0.0019882012 -0.009569567 -0.00036517368
000280 48 7e 5f 3b 3e 34 07 bc 21 d3 ff bb ca 09 59 bb
       0.003410237 -0.008252202 -0.007807151 -0.0033117407
000290 22 03 5c bb 87 3c c3 ba af 43 1d bb 2a 75 8d bb
       -0.0033571203 -0.0014895358 -0.0023996641 -0.0043169456
0002a0 f1 ab b1 3a f8 fd 87 3b 03 e4 91 3b a3 84 e5 bb
       0.0013555271 0.0041501485 0.00445223 -0.007004337
0002b0 7b 9a 68 bb 10 cf 3e bc 92 fc 7c 3a 14 3c 2f 3b
       -0.0035492468 -0.011646047 0.0009650673 0.002673869
0002c0 f9 21 4c bb 0e 83 98 b9 10 78 2a bc 89 49 d0 b9
       -0.003114818 -0.00029089343 -0.010404602 -0.0003972764
0002d0 bc a1 e6 b9 c7 b6 4e 3b 16 72 40 bb 1d d1 8f bb
       -0.0004398952 0.003154205 -0.0029364876 -0.004388942
0002e0 eb 92 9c b9 07 15 95 ba 42 6d b8 3b b0 7d fb 3b
       -0.000298641 -0.0011374064 0.005628259 0.007674895
0002f0 d7 15 fa 3a 86 95 a6 3a 5e b5 f2 ba d4 29 08 bb
       0.0019079995 0.0012709356 -0.0018517186 -0.0020776885
000300 d8 21 a4 3a c4 7d 14 3b ee f0 97 bb da 05 49 3b
       0.0012522293 0.002265797 -0.0046368754 0.0030673654
000310 18 87 c8 bb 48 6f 02 3b 05 2c 1a bb 69 43 3e 3b
       -0.00611962 0.0019902755 -0.0023524773 0.0029031879
000320 a3 ae 3d 3c 66 b1 33 3b 8a eb ef bb a9 6a aa bb
       0.011577281 0.002741897 -0.0073217796 -0.005200703
000330 16 51 e4 3a 19 ab 4f 3c 5a 9f c8 3b 93 a5 a6 b9
       0.0017419185 0.01267507 0.006122512 -0.0003178535
000340 44 93 2c ba d9 ca 11 bc 86 71 96 3b 6a f4 23 3b
       -0.00065832236 -0.00889846 0.0045911698 0.0025017508
000350 b0 b6 2b bc a4 78 a2 3b 9f 4c 9b bb 7b f9 64 bc
       -0.010480568 0.004958229 -0.0047393586 -0.013975496
000360 f5 a8 f7 ba 94 26 f1 39 4a 49 e3 3b 8e 62 42 bb
       -0.0018894958 0.00045995845 0.006936227 -0.0029660794
000370 d0 20 e2 ba f2 97 b7 bb bf 09 17 bc 2e e7 95 b9
       -0.001725221 -0.00560283 -0.009218632 -0.00028591737
000380 6e 2b b3 3b 41 83 db 39 76 7d 43 3c e0 e7 ac ba
       0.0054678237 0.00041868727 0.011931768 -0.0013191663
000390 68 34 2e 3c ec 55 b8 39 f3 2f d8 bb d0 9f ed ba
       0.010632612 0.00035159232 -0.006597513 -0.0018129293
0003a0 8b f7 41 3b ea 8a e1 bb e0 32 1a bb 08 ac 21 3b
       0.002959701 -0.006883015 -0.002352886 0.002466919
0003b0 01 40 45 bb 82 0a 18 bb 2c 2e 28 ba ac 56 16 ba
       -0.0030097964 -0.0023199623 -0.00064155716 -0.0005734961
0003c0 08 dd d3 ba 7a e5 4d bb 94 04 f6 b9 e1 a3 18 3c
       -0.0016163895 -0.0031417296 -0.00046924187 0.0093164155
0003d0 60 cf 38 ba 6c 4b db 39 82 90 8b 3b 6a 77 80 3b
       -0.0007049944 0.0004182713 0.00425917 0.0039204853
0003e0 44 7a 73 3a 5e c6 50 bb 07 64 28 3b a8 0c cc 3a
       0.00092879334 -0.0031856517 0.0025694387 0.0015567737
0003f0 00 15 6b b8 36 20 e8 3b 12 76 3d bc 01 73 9e bb
       -5.6047924e-05 0.007083918 -0.011563795 -0.004835487

bn1.running_var f4 [512]
000000 87 67 bc 3f bd 7d 83 3f 7a 32 d2 3f 67 2d 05 40
       1.4719094 1.0272747 1.6421654 2.0808961
000010 39 eb 4c 3f 8d 53 17 3f 59 7d ea 3f 8f 8e c6 3f
       0.8004642 0.59111863 1.8319503 1.5512255
000020 c2 52 b5 3f 4c 73 77 3f 1e 8e d8 3f 14 d1 0c 3f
       1.4165881 0.96660304 1.6918371 0.5500653
000030 c9 2a 99 3f 1c 2b 2a 40 ba d5 d3 3f ed 23 de 3f
       1.1966182 2.6588812 1.6549599 1.7354714
000040 6e 72 1e 40 5a f3 8b 3f a2 11 1c 40 f6 f4 24 40
       2.4757342 1.093364 2.4385762 2.5774512
000050 ba 78 97 3f d1 5f 34 3f 72 53 56 3f 91 57 07 40
       1.1833718 0.70458704 0.8372108 2.1147196
000060 c0 6c a0 3f 66 ae 99 3f 1d 0d e5 3f fd e6 af 3f
       1.2533188 1.2006347 1.7894627 1.3742367
000070 fa dc 87 3f 70 12 59 40 53 07 6c 3f 2b 11 f3 3f
       1.0614312 3.3917503 0.92198676 1.8989614
000080 9d 70 89 3f 60 85 82 40 1b dc 90 3f 5c d4 b2 3f
       1.0737492 4.078781 1.1317171 1.3971057
000090 fa fd 5b 3f 95 c5 ad 3f c9 54 3e 3f e0 0b 2b 40
       0.8593441 1.3575922 0.7434812 2.6725998
0000a0 98 26 ac 3f 3f 76 07 40 bc 0e 87 3f 77 b3 b0 3f
       1.3449278 2.1165922 1.0551372 1.3804768
0000b0 ed 5d 73 40 01 14 81 3f af 31 33 3f 11 6a 49 3f
       3.8026078 1.008423 0.69997686 0.7867747
0000c0 cf c4 7c 3f ad a9 9d 3f f4 8d 6a 3f 9e 39 1c 40
       0.98737806 1.2317406 0.91622853 2.4410167
0000d0 d8 73 d8 3f 51 b2 79 3f 4d f6 85 3f 89 4e 23 40
       1.6910353 0.97537714 1.046579 2.5516684
0000e0 46 f1 7f 3f df ad 7f 3f 8d 85 28 40 b1 da 78 3f
       0.9997753 0.9987468 2.6331513 0.97208697
0000f0 1c 6d 8b 3f 53 5d 4d 3f a3 5c 98 40 7e 3c 7c 3f
       1.0892673 0.80220526 4.761308 0.98529804
000100 6e 46 5c 3f b2 16 44 40 1f 9f b9 3f 19 df 8c 3f
       0.8604497 3.0638852 1.4501685 1.1005584
000110 c4 ca f3 3f ff ca 8d 3f fa f9 39 40 55 f6 da 3e
       1.9046254 1.1077574 2.9058824 0.4276606
000120 07 56 8d 3f 7c 52 96 3f 20 a7 cd 3f 45 fc b5 3f
       1.1041878 1.1743922 1.6066628 1.4217612
000130 33 6f c9 3f dd 36 92 3f 62 da 89 3f 30 1d e5 3f
       1.573706 1.1422993 1.076977 1.7899532
000140 b7 13 22 3f 42 b2 05 40 82 dd 2a 40 bf eb 67 3f
       0.6331133 2.089005 2.6697698 0.90594095
000150 2a f6 7e 3f 11 e4 99 3f 9e b5 14 3f 05 e2 e5 3e
       0.99594367 1.2022725 0.58089626 0.44899002
000160 1c b2 f9 3f 20 60 09 40 fa 8c 48 3f 93 73 32 40
       1.950748 2.146492 0.78340113 2.788304
000170 b7 50 9b 3f 5a 2f 9a 3f bd 19 ac 3f a2 66 18 3f
       1.2134007 1.20457 1.3445355 0.59531605
000180 97 37 2b 40 4d 04 8e 40 05 20 08 40 50 6d 29 3f
       2.675268 4.438025 2.1269543 0.6618242
000190 34 6c 5c 3f e3 03 37 40 68 3b 95 3f 86 a8 42 40
       0.86102605 2.8596122 1.1658754 3.0415359
0001a0 96 56 48 40 f0 16 86 3f 40 2f 9f 3f 3f f0 09 3f
       3.1302848 1.047575 1.2436295 0.5388221
0001b0 11 0e 05 40 ae 39 2f 40 15 1e e0 3f e1 69 62 3f
       2.0789835 2.7378955 1.750918 0.8844281
0001c0 10 03 d6 3f e1 81 aa 3f aa 19 13 3f e6 db 32 40
       1.6719685 1.3320886 0.57461035 2.7946715
0001d0 ec 58 bf 3f 2a 8a c2 3f 90 56 88 3f 8e 5a ad 3f
       1.4949012 1.5198414 1.0651417 1.354326
0001e0 71 0c 90 3f c3 3f f3 3f 5b ec 98 3f 84 10 5a 3f
       1.1253797 1.9003834 1.194713 0.8518145
0001f0 cd 84 45 3f a0 52 4c 3f 3e f6 8e 3f 56 7e e6 3f
       0.7715576 0.79813576 1.1168897 1.8007305
000200 5e c0 9e 3f 2f 70 12 40 e3 0c cc 3f 27 b2 cb 3f
       1.2402456 2.2880971 1.5941433 1.5913743
000210 58 2b 4e 3f 6d 34 7d 3f b3 61 21 3f 5b a7 a7 3f
       0.8053489 0.9890812 0.630397 1.3097948
000220 bb 9f 86 3f 32 a6 45 3f 3e 77 68 3f 4f ca 9e 3f
       1.0517496 0.7720672 0.9080695 1.240549
000230 40 5f 84 3f e4 a8 4e 3f 26 24 af 3f 6d 02 63 3f
       1.0341568 0.80726457 1.3682907 0.88675576
000240 6b 98 e7 3f 1c 20 62 3f 7c 91 78 3f f0 d9 5f 3f
       1.8093389 0.88330245 0.9709699 0.8744192
000250 8b f6 5b 40 5d ee 9f 3f 7e 1d 0a 40 3e d6 98 3f
       3.4369228 1.2494618 2.15805 1.1940382
000260 91 05 b1 3f 00 43 89 3f 3d 50 63 3f d2 7d 65 3f
       1.3829824 1.0723572 0.8879431 0.8964511
000270 aa 7c 53 40 0d a4 24 40 15 96 18 40 41 22 c3 3f
       3.304484 2.5725129 2.3841603 1.5244828
000280 9a f0 e8 3f 08 7e ba 3f b7 6e 08 3f 1e 8c a0 3f
       1.8198426 1.4569712 0.5329394 1.254276
000290 f4 dd 7f 3f b3 fb 2f 3f 5a 3c a0 3f 2b 9f c4 3f
       0.9994805 0.6874344 1.2518418 1.5361074
0002a0 b1 0b c7 3f 1d 19 e1 3f 45 21 11 40 c6 08 25 40
       1.5550443 1.7585789 2.2676556 2.5786605
0002b0 e1 2e 54 3f d5 56 c4 3f a9 b3 13 40 d2 45 12 40
       0.8288403 1.5338999 2.3078406 2.2855115
0002c0 a0 a9 2e 40 25 b9 ab 3f d3 2e 98 3f 09 29 8f 3f
       2.729103 1.3415877 1.188929 1.1184398
0002d0 f1 c1 7e 3f 64 3b 9b 3f 24 2b ed 3f 25 fc 82 3f
       0.9951468 1.21275 1.852879 1.0233198
0002e0 0d d6 5b 40 92 89 8e 3f 10 50 4c 40 20 66 8e 3f
       3.4349396 1.1135733 3.1923866 1.1124916
0002f0 95 a4 4d 3f c6 da a0 3f 05 33 6c 3f f3 da 8f 40
       0.8032926 1.2566764 0.9226535 4.495477
000300 11 bf b4 3f ae 15 0c 3f 74 79 20 40 c3 7e ff 3f
       1.4120809 0.5472058 2.507413 1.996056
000310 d8 2e 42 3f 3b 6b 9f 3f 63 57 6f 3f 90 9f 6d 3f
       0.7585273 1.2454599 0.93492717 0.928216
000320 ff 12 52 3f a2 5c b4 3f d9 11 7c 3f f0 91 ef 3e
       0.82060236 1.4090769 0.98464733 0.4679103
000330 33 9d 00 40 11 42 a1 3f e6 14 8a 3f 18 36 99 3f
       2.0095947 1.2598287 1.0787628 1.1969633
000340 45 4a 90 3f c2 e8 50 3f 03 f4 4f 3f 31 02 0f 40
       1.1272665 0.8160516 0.8123171 2.2345088
000350 39 e8 66 3f 3e e5 13 3f b4 80 ee 3f 64 04 58 3f
       0.90198094 0.5777167 1.8633027 0.843817
000360 b0 03 8f 40 df ca b3 3f c8 8e 3e 3f d9 7b 85 3f
       4.4692 1.4046286 0.74436617 1.042842
000370 77 cf 97 3f 40 63 10 3f b8 d3 9d 3f 7e 1e c3 3f
       1.1860188 0.56401443 1.2330236 1.524368
000380 8c 43 49 3f 02 15 5e 3f 99 ac 39 3f be 3c 07 40
       0.78618693 0.86750805 0.7252899 2.1130824
000390 78 1a 53 3f ec d6 6c 40 36 bc 61 3f 82 8c 09 40
       0.82462263 3.7006178 0.8817781 2.149201
0003a0 06 72 0f 40 01 d0 34 3f bc 22 7d 3f 99 9b 2c 40
       2.2413344 0.7062989 0.98881125 2.696997
0003b0 48 dd fd 3f f2 51 91 3f a8 c9 af 3f c8 56 d0 3e
       1.9833155 1.1353133 1.3733416 0.4069121
0003c0 c9 3b 22 3f 2d b1 29 3f 66 17 1a 40 62 c5 a4 3f
       0.63372475 0.66285974 2.4076781 1.2872736
0003d0 d8 c3 83 3f c1 c0 45 40 42 31 21 3f c8 a8 8c 3f
       1.0294142 3.0898898 0.62965786 1.0989008
0003e0 a7 7b 13 40 71 7a 49 3f 8b 7c 0e 40 80 5f bc 3f
       2.3044221 0.78702456 2.2263515 1.4716644
0003f0 fb 27 91 3f 83 48 2a 3f 13 7f 0d 3f b9 bc 87 3f
       1.1340326 0.66516894 0.55272025 1.0604469

fc2.weight f4 [256, 512]
000000 4c d6 cc be 94 e4 33 3c 97 b2 26 3e 19 b7 04 b9
       -0.40007246 0.01097979 0.16279064 -0.0001265671
000010 64 db 6c 3d 9f b8 39 be 16 15 01 3d 37 32 2d bf
       0.057826415 -0.18136834 0.03151425 -0.67654747
000020 59 18 f7 be 8e b2 22 3f 19 9d 3b be 60 7c 0d be
       -0.48260763 0.635537 -0.18321647 -0.13816977
000030 36 c5 06 bd a5 7c 24 be c8 47 36 3e 39 f8 82 be
       -0.03290292 -0.16063173 0.1780082 -0.25580004
000040 4c cd e4 bc 39 61 9c be 1f 73 e4 3d 83 be ea bc
       -0.027929924 -0.30542925 0.1115477 -0.028655296
000050 fe 52 b2 3d e6 41 1f be 60 4f 40 be 1d f0 c3 3d
       0.08707236 -0.15552482 -0.18780279 0.09567282
000060 94 15 da 3c 7b bd 9f 3d 4b 54 d8 3d a6 79 40 3e
       0.026621617 0.077998124 0.105629526 0.18796405
000070 e4 93 67 3d 06 a1 51 3d fa 13 02 bf ca e0 d2 bd
       0.056537524 0.051178955 -0.5081173 -0.10296781
000080 18 c6 77 b9 50 50 49 3d 88 a5 18 be 84 20 f5 3d
       -0.00023629551 0.049148858 -0.14906895 0.119690925
000090 48 48 91 be bc 9b 05 3e 8b 4c a9 3e 45 86 7e 3e
       -0.2837546 0.13047689 0.3306621 0.24855907
0000a0 42 a3 84 bd 7a 45 23 3d 78 e1 8b 3d a5 af 07 3e
       -0.064764515 0.03986118 0.06830114 0.13250597
0000b0 01 3d 92 3d 8d a2 b0 be e5 8e 04 be 15 7f f2 bb
       0.07140542 -0.34499016 -0.12945135 -0.0074004033
0000c0 cc 51 27 be 37 cf 04 bf e4 60 2f be 50 92 12 3e
       -0.16339797 -0.51878685 -0.17126805 0.14313626
0000d0 1c b8 1c bd f4 64 49 3e 3a d8 bf bd d3 97 f2 3c
       -0.038261518 0.19667417 -0.09367414 0.029613411
0000e0 64 bc 6b 3e e9 af 1e 3e b1 d1 cb bd 99 fe ed 3d
       0.23021084 0.15496792 -0.09952105 0.11620826
0000f0 36 f5 c3 3d dd 78 86 bc bc f7 5b bb 6d d5 36 bd
       0.09568255 -0.016415054 -0.003356441 -0.044637132
000100 48 0a 2c be 31 42 aa bd 6d bb b6 3b 88 ee 25 be
       -0.16800797 -0.08313406 0.005576542 -0.16204274
000110 10 a2 58 bd 16 9a 6e 3e 89 dc 25 3e b8 40 84 bd
       -0.05288893 0.23300967 0.16197409 -0.064576566
000120 9d e3 b2 3e 3f ae 82 bd c6 c5 a8 3c 1b 88 89 3e
       0.3493928 -0.06380891 0.020602118 0.26861653
000130 77 78 9e bd 52 3c 21 3d ec a3 ca bd 72 43 21 be
       -0.077378206 0.039364167 -0.09894547 -0.15748385
000140 86 9b e0 bd 35 dc c5 3d 05 0a c3 be 4b 17 87 be
       -0.10967164 0.09661142 -0.38093582 -0.2638496
000150 ee 29 a2 be e8 de a5 bd 9f 62 a0 3e d3 9a 89 3d
       -0.31672615 -0.080991566 0.31325242 0.067189835
000160 c5 56 d0 3d 34 ad 80 3e fc 88 7a 3c 3f 23 6d 3d
       0.101728 0.25132143 0.015291449 0.05789494
000170 6a e3 c8 be 71 51 4e 3d ed 21 76 be d5 0b 45 be
       -0.39236003 0.050370637 -0.24036379 -0.19242795
000180 e6 77 fe 3d 1b ef 6f bc 92 83 a1 3b 5a 30 49 be
       0.124252126 -0.0146444095 0.0049290145 -0.19647351
000190 22 11 9b be 85 f7 15 3e 42 2d b2 be d6 af 84 3c
       -0.3028651 0.14645202 -0.34800154 0.016197126
0001a0 ab 16 56 be 06 fa 44 3d ad c0 71 3e 4d 77 50 be
       -0.20907085 0.048090003 0.23608656 -0.2035801
0001b0 f1 72 3b 3e 52 da 18 be 5a 1d fe be 77 3b bd 3d
       0.18305565 -0.14927033 -0.49631768 0.09239858
0001c0 4f d4 06 be 1b 77 b1 3d 15 43 bb bd b7 f7 1c 3e
       -0.13166927 0.08665296 -0.09143654 0.1532887
0001d0 6e de 3d 3b f1 37 1e 3e 25 f6 8a 3e 89 fd c9 be
       0.002897169 0.15451027 0.27140918 -0.39451244
0001e0 e7 16 bd be d1 c7 35 3c c9 7e db 3d 30 04 15 3e
       -0.36931536 0.011095003 0.10717542 0.14552379
0001f0 7b b2 d0 be e5 c6 17 bd 8f 7d 88 bc 2e 54 4a bd
       -0.4076117 -0.037054915 -0.016661434 -0.049396686
000200 7c b2 82 be c3 de 93 bd 8b 32 55 bd 00 b9 14 be
       -0.25526798 -0.07220223 -0.052050155 -0.14523697
000210 4b 3e 3f 3d 72 a0 50 bd dd be 05 bf 8a e7 0a 3d
       0.046690267 -0.050934263 -0.5224436 0.03391222
000220 36 0b 02 bd a1 f3 0e bf e9 5e 98 3e ea 42 a3 be
       -0.031748973 -0.558405 0.2975991 -0.3188699
000230 41 60 00 bf 84 79 0d be 70 f2 90 bd 2e 9f f5 3b
       -0.5014687 -0.13815886 -0.07077491 0.0074957823
000240 7a d1 7c bc 5d 38 29 be a4 b5 23 bd 1e ac 88 3e
       -0.0154308025 -0.16525407 -0.039968148 0.26693815
000250 dc c4 45 3e ec f6 bd 3e e8 20 20 3d 16 db 25 3d
       0.19313377 0.3710245 0.03909388 0.04049214
000260 e0 15 7e 3d de b5 94 3d 4c 85 dd 3e 46 a5 3c bf
       0.06203258 0.07261251 0.4326576 -0.7368969
000270 0b f8 bf 3d c6 b0 67 bd 57 d8 82 bd 77 25 ad 3e
       0.09373482 -0.05656507 -0.0638892 0.33817646
000280 7d d4 36 3d 5b 3f 02 3e 78 9f 89 be 38 18 8b 3e
       0.04463624 0.1271948 -0.26879478 0.27166915
000290 30 5c b5 be 3b 3d d4 bd d1 3d 18 be 81 88 21 3d
       -0.35421896 -0.10363241 -0.14867331 0.03943682
0002a0 ad 70 07 3c d0 20 30 3e 1f 70 fd 3c ac 9c c1 3d
       0.00826661 0.17200017 0.030937253 0.09453711
0002b0 0a 7a f2 3d d3 5b b3 be ac f6 fe be 01 59 5f 3e
       0.11839683 -0.35030994 -0.4979757 0.21811296
0002c0 92 0a bf 39 b4 6b 10 be f6 c5 59 be ec 28 86 3e
       0.00036438234 -0.14103585 -0.21266922 0.26203096
0002d0 4a f2 38 bc 7e b1 11 bf 9b e5 0b bf 9c a8 bc be
       -0.011288235 -0.56911457 -0.54647225 -0.3684739
0002e0 ff 08 8e 3d a0 5e 79 bd 7b 57 17 3e 37 2d a3 be
       0.069353096 -0.060881257 0.14779465 -0.31870434
0002f0 38 6b da bc d9 7f f1 bc 5c 8c 09 3d c6 e0 c2 3d
       -0.026662454 -0.029479908 0.033581123 0.095155284
000300 e6 80 5a 3e 67 8c 08 3e 13 80 c4 bd bd e1 45 3e
       0.21338233 0.13334809 -0.09594741 0.19324394
000310 cf 3c ff bd fb 19 31 3e a2 6b 07 bf 08 b0 48 3d
       -0.1246277 0.17295067 -0.5289861 0.048996
000320 3b ea 87 be fb 2a 83 3f 7b c5 ef 3d f5 2c 82 3e
       -0.2654589 1.0247492 0.11707588 0.25424924
000330 a9 ac 9c bd f6 b5 bc 3d d3 20 b1 bd 28 f4 39 bd
       -0.0765012 0.09214394 -0.08648839 -0.04539886
000340 76 d8 14 bf dd 58 a4 3b ca b2 d0 bd 21 11 11 be
       -0.58142793 0.005015476 -0.10190351 -0.1416669
000350 92 76 66 be 78 76 74 be 83 df 26 3e a5 b8 f7 be
       -0.22506168 -0.23873317 0.162962 -0.4838306
000360 3b c6 7b 3d 93 2d 0c 3e 05 dc 0d bf c4 0f e0 3b
       0.061468344 0.1368926 -0.5541385 0.006837817
000370 83 b5 c5 3e 4c 11 ca 3e 81 c4 a7 3d d3 83 63 3d
       0.38615045 0.3946632 0.08191777 0.05554564
000380 4c 2c 71 3e f1 28 a7 be 02 22 90 bd d6 52 63 be
       0.23552054 -0.32648423 -0.070377365 -0.22199568
000390 a0 95 28 3d b1 6e c4 3c b5 ed 51 3d 26 b4 ec 3c
       0.04115832 0.023978563 0.051252086 0.028894495
0003a0 4d 04 db 3d 62 8b 4a bd be 92 5e be ab 55 66 3c
       0.1069418 -0.049449332 -0.21735665 0.014058511
0003b0 bf d2 7f 3d 06 32 f5 3d 18 7d 16 3e 6a 51 3e bd
       0.062456843 0.11972432 0.14696157 -0.04646436
0003c0 02 56 89 be b7 44 e7 3e 82 34 6f 3d e5 51 a6 3e
       -0.2682343 0.45169613 0.058399685 0.32484356
0003d0 ad 9f 2b be 73 1f 17 3b 6c 11 1e be bf 86 cf 3d
       -0.1676013 0.0023059517 -0.15436333 0.10133123
0003e0 b9 6d 91 bd 39 c5 93 3e d0 fd d9 bb 0b f1 a7 be
       -0.07101006 0.28861406 -0.0066525713 -0.3280109
0003f0 b4 fa e6 3e 23 06 1e 3d dc 04 9a be c2 03 5e bd
       0.45113146 0.03858007 -0.30081832 -0.054202802
