Dream11-Team-Predictor-main/src/model_artifacts/Model_UI_odi_2024-06-30.pth (torch, 779383 bytes, 31 tensors)

fc1.weight f4 [512, 25]
00000000: 3041 993e 907e 9ebe 50b3 ebbd 0701 d53c
00000010: 3066 74bc b8b9 cfbd 1373 673e aab0 f9bc
00000020: bbba 002b 811f 17bd 6b71 9ebe 1ada 90bd
00000030: 8b63 32be 8302 1ebc b320 5bbe 2706 d7bb
00000040: f732 6b3e b223 e53d 25aa 89be b4c1 af3e
00000050: 4b4b 80bf ef1a d03e 0611 3fbe 070f 01bf
00000060: 3375 91be 4cc6 c43e 6727 9f3d 682e 55be
00000070: d4b5 533e e137 bc3e d8d9 263e cf50 e33e
00000080: d2b6 2fbe a0bd 7d2b 9b55 92be 4de0 423e
00000090: 2c70 3d3d 87f2 2ebd 2509 3a3e fa03 933e
000000a0: fd22 1f3e 8460 b53d 5706 a4bd fabe a43d
000000b0: b2cf 07bd da0d 333e f816 f8bd 0d09 923e
000000c0: c7ea e2bd df1f 563d 26fe 283f 6f67 2ebc
000000d0: 781b 80bd b640 9d3e 2e1a 7e3e e477 1e3d
000000e0: d7e2 043e 8c7f 34bd f2b2 56ab 66fc 7a3a
000000f0: 359d 1e3c f42a ccbe df6a 573e 9db1 4d3e
00000100: 3187 0c3e 7cf8 983e 063d a23e 2e85 0c3e
00000110: 206f 353e 480c 3fbe ff35 503c 3955 d4bd
00000120: 1944 fbbd 1577 653e efc8 7a3b 27e7 e13d
00000130: 7995 9b3e 00ef ec3d afc4 46bc eb37 0cbf
00000140: 9184 a23d b213 cebe be5f e1bd 6400 58a9
00000150: 32f1 d1be 786c 2d3e daf2 94be 2005 db3c
00000160: 0cd1 20be 1869 553e 05cb e0bd 8926 5b3e
00000170: a068 323e 2770 343e d2fc fa3c 53e5 1cbf
00000180: 3133 123d 01bc 26be 6a17 423d aec3 6cbe
00000190: 6cd8 2a3e d4b1 c1be 22c3 8f3e 2edd 6b3d
000001a0: 5bfc 903d 0324 603e c70d 86be 41a2 743e
000001b0: 66a7 fd2a a4ae 603e a9cd 363e 3acc 26bf
000001c0: d3c7 1dbe b3ab 77be b294 ddbe 2614 d03c
000001d0: ddab 243c 81bc 0fbc 40ae 16bd 2a34 91be
000001e0: 0454 71bd 4846 6f3d d202 88be 8808 45be
000001f0: 59c3 513e e2c8 733e 1fff ed3c 40fa 29bd
00000200: 6dbd 493e 44f7 e3be 0cd5 313e 3669 a9bd
00000210: 7dfb 973d dbdc cca9 45fe 56bf 8ed2 19be
00000220: 6262 c33c 8a4f e0bd 5652 ec3e 5375 b8be
00000230: 24e0 cfba a573 ec3c e6bf 113e a627 6b3e
00000240: 40c5 143e a4aa ec3c 125f 79be c3cf 0dbf
00000250: 9294 09be cc48 6ebe 5d2d 4ebe 1149 77bd
00000260: 2c01 84be a1f3 20be bd31 68be 671c e6be
00000270: 2207 dabe 5456 2f3c da44 9aaa 58fa 09be
00000280: 76b4 95bd 25bf e53d 2b5b b7be ffb0 edbd
00000290: a17f 97bd 4452 bcbe 5fb3 a2bd 0d34 663e
000002a0: d3bc be3e ecdb 61bd d2f4 31be 704f 763e
000002b0: f770 013e bae3 873d df6b 3a3f a050 e0bd
000002c0: 9b39 fdbe 3a38 69bd 6834 a33e 43a5 19be
000002d0: 85ed 433e 0f21 4b3d b3f4 48be aa97 e428
000002e0: 1a70 bf3e 5d91 8cbd 76c8 f0bd 0027 353e
000002f0: 05b4 533e c90c bb3d 93cb babe 250c bcbe
00000300: 1a42 bbbd cddb 3abd 93ec 0ebf d11e ad3e
00000310: 6974 bfbd 5d02 853e 9cc2 7b3e f7e9 133e
00000320: 494f 24be 07c8 6f3e 2d60 8a3e 5ba9 513e
00000330: 3416 113e f7d7 ac3d aca3 19be 1913 403e
00000340: d497 9b29 2797 dbbd df2d f7bd 17d8 01bd
00000350: 388c 11be 2ad7 513e 7da0 563d 17b0 ee3c
00000360: bada 70be e2bd 983d a4d3 92bd 5917 893e
00000370: 5d31 1d3e 2bd5 08bf b5b3 963e 4c2f 08bf
00000380: 7c48 0fbe 888c ffbd 388a 7b3d b359 0d3d
00000390: 41f5 0dbe 3dab 573e 3d50 bfbd 0bd1 e63e
000003a0: a9dd 75be 8664 b5a9 fc1b 5c3e e776 f7be
000003b0: 27c9 103d 0ae9 d83e 2e06 e1bc 85c2 08be
000003c0: dfe9 cebe bd16 203e dc3b d3be e4be 23bc
000003d0: 41b5 1a3e 4da5 033e f51a d43d 3f42 1b3d
000003e0: 250e 503e e9cb 82bf bd27 6a3e 29de ad3e
000003f0: 4e17 abbd 6e0c 0a3b 8e5a 2b3d 260e a7be
0.29932547 -0.30955935 -0.115088105 0.026001466 -0.0149169415 -0.10142845 0.22602491 -0.030479748
4.5733876e-13 -0.03689528 -0.30945906 -0.070728496 -0.17420785 -0.0096441535 -0.21399193 -0.0065620127
0.2296866 0.11188449 -0.26887622 0.3432747 -1.0022978 0.4064555 -0.18658838 -0.50413555
-0.28409728 0.38432539 0.07771187 -0.20818484 0.2067483 0.36761382 0.16294038 0.4439759
-0.17159584 9.0146814e-13 -0.28580937 0.19030876 0.046249554 -0.04271176 0.18167551 0.2871397
0.1554069 0.088562995 -0.08009022 0.080442384 -0.033157058 0.17485753 -0.12113756 0.2852253
-0.110799365 0.05227649 0.660128 -0.010644778 -0.06255239 0.30713433 0.24814674 0.038688555
0.12977158 -0.04406695 -7.627641e-13 0.00095743535 0.009681036 -0.3987652 0.21036862 0.20087285
0.13723446 0.2987708 0.31687182 0.13722679 0.17718172 -0.18657029 0.012708186 -0.103678174
-0.12268848 0.22408707 0.0038266738 0.11030417 0.30387476 0.11569023 -0.012131854 -0.54772824
0.07935441 -0.402494 -0.110045895 -4.7961973e-14 -0.4100433 0.16935909 -0.2909153 0.026735842
-0.15704745 0.20840871 -0.10976223 0.21401419 0.17422724 0.17620908 0.030638132 -0.6128742
0.03569335 -0.16282655 0.04738561 -0.23121521 0.16684121 -0.37830985 0.28078562 0.05758398
0.07079383 0.21888737 -0.26182386 0.2389002 4.5057984e-13 0.2194162 0.1785189 -0.65155375
-0.15408258 -0.24186592 -0.43277508 0.025400233 0.010050741 -0.00877297 -0.03678727 -0.2836011
-0.058918014 0.058416635 -0.26564652 -0.19241536 0.20484675 0.238071 0.029052315 -0.041498423
0.19701166 -0.44524586 0.17366427 -0.082720205 0.074210145 -9.097732e-14 -0.83981735 -0.15021726
0.023850624 -0.10952671 0.46156567 -0.3602701 -0.0015859646 0.028863737 0.1423336 0.22964343
0.1452837 0.028889962 -0.24352673 -0.55395144 -0.13435581 -0.23269957 -0.20134492 -0.060372416
-0.25782144 -0.15717937 -0.22675224 -0.44943544 -0.42583567 0.010701735 -2.740367e-13 -0.13474405
-0.07309811 0.112180986 -0.35811743 -0.11606025 -0.0739739 -0.36781514 -0.079443686 0.22480793
0.37253436 -0.055141374 -0.17378548 0.2405374 0.12640749 0.06635232 0.7282085 -0.10952878
-0.49458012 -0.056938387 0.3187592 -0.15004449 0.19133575 0.049592074 -0.19624595 2.5378859e-14
0.37390214 -0.06863663 -0.11756985 0.17690659 0.20674141 0.09133298 -0.3648344 -0.36728016
-0.09143467 -0.045619775 -0.55829734 0.33812574 -0.09348375 0.25978366 0.24585956 0.1444472
-0.1604587 0.23416148 0.270265 0.2047476 0.14168626 0.084396295 -0.15003842 0.18757285
6.909721e-14 -0.107221894 -0.12069296 -0.03170022 -0.14213645 0.20492235 0.052399147 0.0291367
-0.23520938 0.07458092 -0.071692735 0.26775625 0.15350862 -0.5345027 0.2943398 -0.5319717
-0.13992494 -0.12477976 0.061411113 0.034509372 -0.13863088 0.21061416 -0.09341476 0.45081362
-0.24010338 -8.055453e-14 0.2149505 -0.48332903 0.035348084 0.42365295 -0.027468767 -0.13355453
-0.40412804 0.15633674 -0.41256607 -0.009994242 0.15108205 0.12856026 0.10356704 0.037904974
0.20317896 -1.0218478 0.22866721 0.33958557 -0.083540544 0.0021064538 0.041834407 -0.32627982

fc1.bias f4 [512]
00000000: 0692 25bc acb1 d83b f94f 47ba b236 af3b
00000010: 023f b43b 6077 b5ba 1cfe 0eba df37 963c
00000020: 5446 3e3c a3ff 843b cefd 7d3b 00ed a2b7
00000030: 0ac1 913b 367d 893b 3979 b4bc 5ea3 303c
00000040: 69a7 e13b e973 9f3c b6a1 243b 7e75 bebc
00000050: 7932 bd3b 2430 5bbc 8b87 573b f2f5 8b3a
00000060: d5d7 8abb 8a3a e93b e860 b3bb e1a5 f9bc
00000070: 6b17 22bc d0a7 c53b 9876 cabb 8286 d3bb
00000080: a8f4 033c b02b e8b8 64b0 263c 4037 b838
00000090: 2321 40ba 266a e33b a8fb 9abb de93 73bc
000000a0: b671 483a 96ba e5bb cc29 943c 7273 63bb
000000b0: 1c94 d03b 3ba2 0d3c 42ec 0cbc 4d36 063b
000000c0: 5984 cf3b f6f7 053c 0079 3d3b 1445 f0ba
000000d0: 1a7e 803b d272 0a3b c22d a1bb abad 8b3b
000000e0: 50b2 56bc 3658 dd3b c595 05bb d57e 7d3c
000000f0: 81c3 923a 888d 943a 5ae3 4b3c 85bb 80bc
00000100: 1453 f53b c583 8ebb f645 333c 0683 53ba
00000110: 5416 bbbc acf5 c33b d54b 0dbb 4e98 a23b
00000120: dc82 e73c 0e37 fcbb 7180 23bb a8be 34bc
00000130: 2a68 2abc a5d8 db3a 9a83 a23b 9197 a5bb
00000140: c275 e839 57f5 833c 70bb fbbb 2472 383a
00000150: e212 0b3b 16b1 093a 5ee3 733b dc76 65ba
00000160: a157 20bb e604 1a3c 4301 b53a e5d0 09bc
00000170: 1ed7 8dba 8444 ae3b 3f33 aabb eb1d 233b
00000180: 0066 cab9 d865 b2ba 388e e1bb 04d5 563c
00000190: 7680 2c3c 44a9 a03b c66d 7ebb 006b 23bb
000001a0: d0d3 ce3b 66bb 0b3a ec06 97ba d842 95bb
000001b0: 00cc 3f39 a6ee 703c 2d50 dc3b 398c b93c
000001c0: 5ac3 3ebc 5e18 e4bb 5e2f e53b c469 ca3b
000001d0: c27c d33b 29fc a9bb 9fab 653b 1bd5 063b
000001e0: 4b89 2c3c f364 80bb 88a2 2d3b 8ea8 29b9
000001f0: 827f 86bb 2c5d 9e3b a837 dd3b f04c 05bb
00000200: 0046 7239 5b35 15bc e0d8 1bbc 1c6b d0bb
00000210: ce20 1e3c 0351 e9bc 7766 77bb 147a 9a3b
00000220: 8c78 7bbb 6c8c f1bb e95a 9a3c ac3b 623c
00000230: 8aad d23b ee95 7bbb 4ae2 3d3c 7234 513a
00000240: bca0 723b 5814 8639 f0d7 623b 8442 aebc
00000250: f338 62bb 9813 24ba 765b 4bbc c668 ca3a
00000260: c8d1 0abb 7da5 d9ba 02ee 303c 2826 00bd
00000270: 8272 0e3b 5cc2 3b3b 2555 debb 426a 54bb
00000280: 5eb6 c03a 0951 c03b c212 debb 0c30 793c
00000290: 2500 833c 64ca 913a 0e9b 92bb 1642 843b
000002a0: cb44 9dbb 4908 823c 2891 a8bc 564d 60bc
000002b0: 7b40 33bc e01b c73c 2839 093c 12cd 3abc
000002c0: d370 abbb a0db 81ba b470 06bc 8739 1c3c
000002d0: a2e9 fd3a c8c0 023a 81a8 da3a b8b1 07bb
000002e0: 06d8 7fbb f828 eebb b6ac 95bb 2dad 463b
000002f0: 37f3 e53a dd24 f9bb 7d73 c6ba b916 383c
00000300: b242 c8bb 932b 5fbb d43f 473b b45c 22bb
00000310: 4e36 f03b ee94 6bbb c020 2cbc 068b a13c
00000320: 384e 7f3b db4f 3f3a aa70 a5bc 372a 913a
00000330: 4a67 403b 1038 63b9 8d0d 853c 1275 5a3b
00000340: 8365 29bc 2b55 323b b8db 96bb 5e8a f6bb
00000350: f48f 58bb a635 1c3b e015 52bb 8c60 b23b
00000360: 093c 213b 1a46 88bb 527c 723b 288d 7eba
00000370: fff5 c73b d86c 5d3c 7679 ec3b ae18 5a3c
00000380: 5f23 203c 7f77 5b3c bc0c 653b c01a 46bc
00000390: 8d54 1e3c cfc2 3f3b 9c86 3bba f4d3 2ebb
000003a0: 8083 2db8 ad3b 6abb a363 a23c f6b8 d73b
000003b0: 8b56 043b 2581 493c 65d1 55bb dbfe ecbc
000003c0: 5e21 433c dcee 15ba 1cdb d7bb cb13 8dbc
000003d0: 2e2c d43b a27e f63a 752d bdbb fdcc 9fbc
000003e0: 05f9 813b c8de 0bbc 630c 323c 2078 71b8
000003f0: 3849 1abb ea65 49bb c030 0f39 c745 94ba
-0.0101056155 0.006612977 -0.00076031644 0.0053470964 0.005500675 -0.0013844781 -0.00054547354 0.018337188
0.011613447 0.0040587946 0.0038756016 -1.9422267e-05 0.004448061 0.0041958345 -0.02203046 0.010781137
0.006886412 0.01946445 0.0025120801 -0.023249384 0.005773839 -0.013378177 0.0032887186 0.0010678156
-0.004237155 0.007117574 -0.0054741986 -0.030474605 -0.009893279 0.0060319677 -0.0061786883 -0.0064552436
0.008053936 -0.000110707595 0.010173891 8.784095e-05 -0.00073291565 0.006940144 -0.004729707 -0.014866797
0.0007646339 -0.007010768 0.018086337 -0.0034706262 0.0063653123 0.008644636 -0.00860125 0.0020479143
0.0063329157 0.008176794 0.0028911233 -0.0018331134 0.0039212825 0.0021125567 -0.004918785 0.004262646
-0.013104036 0.0067549003 -0.002038346 0.015472134 0.0011197181 0.0011333684 0.012444342 -0.015714416
0.0074867103 -0.0043492042 0.010941973 -0.0008068535 -0.022837795 0.005980214 -0.0021560092 0.004962004
0.02826064 -0.0076969927 -0.0024948383 -0.011031784 -0.010400811 0.0016772939 0.004959536 -0.0050534685
0.00044338225 0.016108198 -0.0076822564 0.0007036051 0.0021220972 0.0005252523 0.0037214379 -0.0008753368
-0.0024466293 0.009400582 0.001380958 -0.008411621 -0.0010821556 0.0053182263 -0.0051940973 0.0024889659
-0.00038604438 -0.0013610674 -0.006883409 0.01311231 0.010528674 0.0049029905 -0.0038822754 -0.0024935603
0.006311871 0.0005330354 -0.0011522449 -0.0045550875 0.00018291175 0.014705336 0.006723425 0.022649871
-0.011643255 -0.0069609126 0.006994172 0.006177159 0.0064540813 -0.0051875305 0.003504492 0.0020573798
0.01053078 -0.003918284 0.0026494581 -0.00016179887 -0.0041045556 0.0048328843 0.0067510195 -0.0020340048
0.00023104995 -0.009106959 -0.009512156 -0.0063604247 0.009651376 -0.028481012 -0.0037750283 0.00471426
-0.0038371412 -0.007371476 0.018842177 0.013808172 0.006429379 -0.0038388926 0.011589596 0.0007980532
0.0037022075 0.0002557363 0.0034613572 -0.021271951 -0.0034518808 -0.0006259023 -0.012411943 0.0015442602
-0.0021182168 -0.0016605105 0.010798933 -0.03128639 0.0021735732 0.0028649783 -0.0067850524 -0.0032411967
0.0014702787 0.005869035 -0.0067771384 0.015209209 0.01599128 0.0011122939 -0.0044740504 0.0040361984
-0.0047994605 0.015873091 -0.020577028 -0.013690313 -0.010940666 0.024305284 0.0083754435 -0.011401432
-0.0052319556 -0.0009907372 -0.008205581 0.0095352 0.0019371996 0.0004987833 0.0016682298 -0.0020705294
-0.0039038672 -0.0072680674 -0.004567708 0.0030315623 0.0017543797 -0.0076032714 -0.0015140619 0.011235886
-0.0061114663 -0.0034053072 0.0030403035 -0.0024774494 0.0073306924 -0.0035946923 -0.010505855 0.019719612
0.0038956534 0.0007297971 -0.020195324 0.0011075203 0.002935844 -0.00021669292 0.016241813 0.003333394
-0.010339144 0.0027211409 -0.0046038292 -0.007523819 -0.0033044787 0.0023835688 -0.0032056496 0.005443638
0.0024602434 -0.0041587474 0.003700037 -0.0009710365 0.006102323 0.01351472 0.0072166277 0.013311548
0.009774058 0.013395189 0.0034950217 -0.012091339 0.009663713 0.0029260402 -0.0007153542 -0.0026676627
-4.1368883e-05 -0.0035741136 0.019822901 0.0065833284 0.0020193185 0.012298857 -0.003262603 -0.028930118
0.011909811 -0.0005719492 -0.006587399 -0.017221352 0.006474993 0.001880605 -0.005773241 -0.019506926
0.003966453 -0.008537002 0.010867211 -5.7570753e-05 -0.0023542177 -0.0030730912 0.00013655704 -0.0011312299

bn1.weight f4 [512]
00000000: 574e 823f 70b5 6e3f 3933 dd3e bcff 823f
00000010: 1826 8c3f cec8 753f a54b 4b3f 02de 983f
00000020: 1c07 803f ff3a 4f3f 0c22 973f 8ab7 643f
00000030: 9179 9a3f 53f9 4f3f 9f8f 7c3f bfd9 613f
00000040: 8cb6 533f 5578 883f 7d64 893f 9d37 8a3f
00000050: c4c0 233f dd5a 813f dbdd 6f3f 4e07 863f
00000060: 8fc4 6e3f ddfd 893f 0242 2f3f 1925 7f3f
00000070: 5fae 553f 2d12 643f 717c 843f 98cf 723f
00000080: 1734 613f cec5 873f cf4c 4f3f 626c 4e3f
00000090: f0a4 833f ef68 683f c475 5e3f 92e9 5c3f
000000a0: d05e 813f 204a 823f 94a1 853f 61ed 723f
000000b0: 6cc8 883f d481 6b3f 1c60 823f 5ab6 293f
000000c0: fcec 8b3f 3350 243f 86c2 333f f9ec 4f3f
000000d0: ff1c 683f 55cb 873f e0e5 703f 34c2 863f
000000e0: bc8b 8d3f ec19 903f a371 823f 9263 4b3f
000000f0: 0031 543f 0fd2 763f 3806 943f 9831 5d3f
00000100: 1c3d 893f 21b9 513f 1c63 933f 2f51 6c3f
00000110: 1623 823f 823f 873f 2b32 8b3f b541 283f
00000120: b1c4 993f 3ab7 5b3f a6de 263f 4174 693f
00000130: 37f4 4b3f eaf7 423f 3a85 663f 1555 9c3f
00000140: 322f 303f 5594 7c3f 4bf1 5f3f ec2c 873f
00000150: c925 253f de41 4a3f 7e4b 143f 0dfb 693f
00000160: 8e85 7a3f 34e3 7c3f ff91 3e3f 412c 663f
00000170: 43b2 353f ae59 623f d920 333f 3cde 913f
00000180: 5983 ad3f 94af 983f 6aed 5c3f 02c6 5c3f
00000190: d5e6 543f 7835 7a3f b35e 603f 47c8 843f
000001a0: 5970 6b3f 8554 893f 3721 393f 41d4 4e3f
000001b0: 8b1f 7f3f e97d 843f fa60 853f 6416 6e3f
000001c0: b22c 7b3f a02d 823f e183 593f 31e0 9b3f
000001d0: 90af 743f 9e80 2f3f 8d2a 6c3f 2fab 6e3f
000001e0: 50ab 4e3f 500d a43f af69 803f a0fe 693f
000001f0: 2a10 193f 5357 933f 229e 713f 81ea 393f
00000200: f62b 6e3f 96b6 123f 09fc 5e3f 8453 6f3f
00000210: 11ec 853f b2b5 8b3f 3e76 843f c504 7a3f
00000220: 9bb6 423f 7619 6f3f e366 743f 1cd2 7b3f
00000230: bc34 823f dcbb 393f 4c55 9d3f 7d3e 313f
00000240: d47a 893f 1e8e 5f3f 7328 5d3f 473c 933f
00000250: 8467 703f e32c 283f 8bf5 8f3f 2cda 683f
00000260: 4494 253f 32ad 693f b298 433f e3a9 8b3f
00000270: 1543 943f fb5b 703f 56f3 3e3f 3187 8a3f
00000280: 8d09 803f 7ec6 723f 462d 873f 4cd1 9c3f
00000290: b734 863f 976a 703f dead 973f 70fb 383f
000002a0: 08a8 8a3f 4bcd a33f 4f75 803f 4c47 993f
000002b0: 65c1 853f 0567 8c3f 4c04 733f c828 923f
000002c0: 230a 513f e4d4 3e3f c788 9b3f 20f4 673f
000002d0: d7c6 823f db8b 7f3f 0376 8d3f af27 733f
000002e0: 07f9 ad3f 0dfb 743f 5c17 893f 4b9c 9a3f
000002f0: ce2a 6b3f 8935 613f 9e20 773f 278f 833f
00000300: 064d 6b3f 7f5b 193f 26d0 4b3f 32c6 6a3f
00000310: ac63 a13f acdb 313f 2937 7e3f d5a7 903f
00000320: 627c 953f 782a 4b3f bc22 b93f 6c7d 793f
00000330: 5255 483f c683 9b3f e224 9a3f 5f38 5f3f
00000340: 89d2 a63f 4bf0 743f 0dac 333f 7918 633f
00000350: d790 323f 8e3a 6c3f 0f6a 213f 2ba9 843f
00000360: 7686 683f 4c60 263f 5b04 293f 417d 803f
00000370: a146 943f 8501 913f df8c 5e3f 1f3e 5c3f
00000380: 2260 9a3f 0447 553f 3538 293f 0fe6 863f
00000390: fd9a 903f 66c8 563f 05f2 883f 5f9b 243f
000003a0: 8c2b 413f 8d3b 813f 1a83 9f3f 532d 903f
000003b0: bd97 783f 8f4e 5d3f 8835 9d3f 08f0 a93f
000003c0: 26b5 933f 8511 e83e 9f78 973f 1b6b 973f
000003d0: 70f3 763f 5f8d 893f 28d4 6c3f f4df ac3f
000003e0: a9b7 723f c64a 5f3f df17 643f a844 6b3e
000003f0: 4942 2c3f c975 263f 63c2 9d3f ecdc 253f
1.0180157 0.932456 0.43203142 1.0234294 1.0949125 0.9600953 0.794123 1.1942751
1.000217 0.80949396 1.1807265 0.8934256 1.2068349 0.81239814 0.9865665 0.8822288
0.8270042 1.0661722 1.0733792 1.0798222 0.6396601 1.0105854 0.936979 1.0470979
0.93268675 1.0780598 0.68460095 0.9966598 0.83469194 0.89090234 1.0350477 0.9484801
0.8797011 1.060724 0.80976576 0.8063413 1.028471 0.90785116 0.86898446 0.862939
1.010706 1.0178871 1.0439935 0.9489346 1.0686164 0.91994977 1.018558 0.6629387
1.0931697 0.64184874 0.70218694 0.81220967 0.90669245 1.0608927 0.9410076 1.0528016
1.1058269 1.1257911 1.0190929 0.7944881 0.8288727 0.96414274 1.1564398 0.864038
1.0721774 0.8192311 1.1514621 0.92311376 1.0166957 1.0566256 1.0874685 0.6572526
1.201315 0.85826457 0.65183485 0.91193014 0.7966952 0.76159537 0.9004704 1.2213465
0.68822014 0.98663837 0.8747756 1.0560584 0.6451078 0.79006755 0.5792769 0.913987
0.9786004 0.98784184 0.7444152 0.89911276 0.7097513 0.8841809 0.69971997 1.1395946
1.3555709 1.1928582 0.86299765 0.86239636 0.8316472 0.97737837 0.876445 1.037362
0.91968304 1.0728918 0.72316307 0.80792624 0.99657506 1.0350925 1.042022 0.93002915
0.98115075 1.0170174 0.84966856 1.2177793 0.9558039 0.6855563 0.9225243 0.93229955
0.8073015 1.2816563 1.0032252 0.9140415 0.5979029 1.1511024 0.94381917 0.7262345
0.9303583 0.57309854 0.87103325 0.9348681 1.0462667 1.0914824 1.0348585 0.9766353
0.76059884 0.93398225 0.9546949 0.98367476 1.0172343 0.72552276 1.2291656 0.69235975
1.0740609 0.8732623 0.86389846 1.150277 0.9390795 0.6569349 1.1246809 0.90957904
0.6467936 0.912799 0.7640487 1.091122 1.1582972 0.9389035 0.7459005 1.0822507
1.0002915 0.94834125 1.0560691 1.2251372 1.0484837 0.93912643 1.1849935 0.72258663
1.0832529 1.2797025 1.00358 1.1974883 1.0449644 1.0968939 0.9492843 1.1418695
0.8165609 0.74543595 1.2151116 0.9060688 1.0216931 0.9982278 1.1051639 0.9498243
1.3591622 0.95695573 1.0710254 1.2078947 0.9186219 0.87972313 0.96534145 1.0278062
0.91914403 0.59905237 0.79614484 0.9170867 1.2608542 0.6947582 0.9930292 1.1301218
1.1678584 0.7936168 1.4463725 0.97457004 0.7825519 1.2149589 1.2042506 0.8719539
1.3033 0.9567916 0.70184404 0.8870922 0.6975226 0.9227685 0.6305246 1.0364126
0.9083017 0.6499069 0.6602227 1.0038224 1.1584054 1.1328589 0.869337 0.8603229
1.2060587 0.83311486 0.6610139 1.0538958 1.1297299 0.83899534 1.0698858 0.6429958
0.7545707 1.0096298 1.2461884 1.1263832 0.97106534 0.86447996 1.2281961 1.3276377
1.1539657 0.45325866 1.1833686 1.1829561 0.96465206 1.0746268 0.92511225 1.3505845
0.94811493 0.8722347 0.89098924 0.22975409 0.67288643 0.65023476 1.2324947 0.64790225

bn1.bias f4 [512]
00000000: 7cdc cebe 1105 39be 718e 03be 2ae6 dcbc
00000010: c066 1cbf 6643 e1be 3be4 89be 0ec6 ccbe
00000020: f4a0 78be 29e3 15bf 6446 a2be db03 88be
00000030: 383c 66be fb48 adbe fa1d e5be 9ebc 0d3d
00000040: be68 d8be b0eb 0bbf 8cbb f0be 80e4 70be
00000050: 19ac c0be 1e84 dfbe a2a6 a5be 2f07 9cbe
00000060: 9154 efbe 5bab 92bb acfc 07be 9785 3fbe
00000070: 6904 c9bd af12 b03c 9045 d938 979b 33be
00000080: f885 03bf 1225 4dbe 262d b8bd 13e9 7eb9
00000090: 1c1b 14bf 42bf b4bd 696e 59be 6401 ebbd
000000a0: a24a b7be 8534 83be ebe8 04bf fe7c 93be
000000b0: 1df7 0ebf b283 41be ddfd 59be 455c f8bd
000000c0: 7e37 0bbf 8686 97bd dada 28bf fea3 6dbe
000000d0: e554 17be 490f dabe 50b7 90be 1b87 e9be
000000e0: a905 f5be 8ad8 8cbe 9921 95be ac10 4cbe
000000f0: eaa2 87be c1fb bebe e27f 1f3d 8b36 c7bd
00000100: e335 77be 0d99 9cbe de40 c0be e77b 11bf
00000110: 22b8 21be d9aa d4be f8f0 4dbc f8cd 7ebe
00000120: c38f 08bf 1800 f7bd a1e4 6bbe e6a6 dbbe
00000130: 7594 11bf d4bc cebe a0aa 8ebe 5bac ccbe
00000140: 0871 debe b66e 8fbe 9968 e8be 4a5b bebe
00000150: b6ca 5ebe 08a5 e4be 15cb 1dbe 384d 66be
00000160: 2a4a 0fbf 4162 89be c1fe e1be db10 4fbe
00000170: 7b8c 08be 86aa 83be 2959 e1be 54d6 b6be
00000180: 298b bdbe 454f aabe 0cda 97be 35b1 cfbe
00000190: f737 dcbe 4b08 c7be a9bd 23bf e238 d0be
000001a0: 7109 15be 4358 3dbf 235e 6bbe cb7f 87be
000001b0: f8f3 e1be 77d6 77be fd58 37be 28bc 48be
000001c0: c04a d0be e855 00bf a1b3 b7bd 5e2d 91be
000001d0: 2b63 b6be 4b1b e1be 893c c1be 0fe7 fabd
000001e0: 19cb b0be 4990 12bf a620 88be b5d1 9abe
000001f0: 5c51 603d 76dd 69be 3ced 4fbe 35fe 4ebe
00000200: f295 aebe 71bb c9bc 2e8a 48be 2c10 e8be
00000210: 2975 a23a 8e76 d23b 8acb 8ebe 3b8b b4be
00000220: 56ea 4cbe 2a29 a9be f2f6 4cbe ab16 42be
00000230: 3175 a9be fcdb e0be 8d0f 17be 69c7 08be
00000240: 5f13 cfbe 5fcc c0be e589 bcbe f8a1 6fbe
00000250: e66f 25bf 85b5 b7be df9f d2be a6c3 12bf
00000260: 1635 c1be de09 91be 24d1 25be 397a 46be
00000270: 329d 0bbf 7cf6 babe 2ac5 0fbf a440 03bf
00000280: 5eba 07bf 1de7 d6be 3dd5 95be cd57 ffbe
00000290: b99c e3be 9b3a 7fbe c657 27bf f5f5 1bbd
000002a0: 9075 f8be d380 08bf b14b 16bf 3800 20bf
000002b0: c684 31be dc83 08bf 6d18 77be b758 2bbe
000002c0: 1861 febd 3ac4 8ebe 8ef9 83be 9af5 82be
000002d0: 3193 26be 85cc 25be ef11 1ebf fc08 ecbe
000002e0: 23f7 d0be 5eae 09bf 5300 67bd a89d ccbe
000002f0: 6d76 10bf 8d64 d3be e4ae 45be 4dfa 34bc
00000300: c69f 59bf 1344 91be b862 d5be c4b7 d2be
00000310: 7d73 5ebe c717 ccbe 459b cfbe 98f0 94bd
00000320: b451 dabe 1ace 53be cb80 efbe af0b 75be
00000330: f9e0 1cbe 1387 abbd 8037 e9bd 5579 efbe
00000340: 5961 36be 86ef e7be fdbe b7be 98e6 a4be
00000350: 725a 12bf 2df1 abbe 64e1 d8be 57a4 cdbe
00000360: 33d1 dfbe 44da 55be 1c4b 88bd c3b3 97be
00000370: be92 9fbe 46b6 dbbd bc94 c8be 206e ecbe
00000380: 3887 e5be 48bf d1be 9a83 d1be bc6c 1dbf
00000390: c023 80be 682c 68be a6ca abbe feaf 35be
000003a0: 2247 94be 80d1 dfbe 7a1e 73bf 5c0e fabe
000003b0: 91da d6be 8730 f1bd e3aa b6be 3e9a 08bf
000003c0: 19e5 ffbe d8ce c5be 48e8 36bf 84a4 87be
000003d0: 8ab0 a4bd 9688 c7be 046d 0cbf 3584 c5be
000003e0: 3274 ddbe 68f4 aabe a94d a2be 609c 10be
000003f0: 9b77 9dbe a949 6fbe 485e 05bf 5b3f d5be
-0.4040259 -0.18068339 -0.12847306 -0.02696522 -0.61094284 -0.43996733 -0.2693194 -0.39994854
-0.24280149 -0.58549744 -0.3169433 -0.2656544 -0.22483909 -0.33844742 -0.44749433 0.034603707
-0.42267412 -0.54656506 -0.47018087 -0.23524666 -0.376313 -0.43655485 -0.32353693 -0.3047423
-0.46744207 -0.0044759936 -0.1327998 -0.18703304 -0.09815294 0.021493284 0.00010360323 -0.17539822
-0.51376295 -0.20033672 -0.089929864 -0.00024310155 -0.57853866 -0.08825542 -0.21233524 -0.114748746
-0.35799128 -0.25626007 -0.51917905 -0.288063 -0.55845815 -0.18897894 -0.21288247 -0.12126974
-0.5438155 -0.07398705 -0.6595894 -0.2320709 -0.14778478 -0.42589787 -0.28264856 -0.4561089
-0.4785588 -0.27508956 -0.29127195 -0.19928235 -0.2649148 -0.37301448 0.038940318 -0.097272
-0.2414165 -0.30585518 -0.3754949 -0.56829685 -0.15792897 -0.41536596 -0.012569658 -0.24883258
-0.5334436 -0.12060565 -0.23036434 -0.4290077 -0.5686715 -0.4037844 -0.27864552 -0.39975247
-0.4344561 -0.28014153 -0.45392302 -0.37179023 -0.21757016 -0.4465716 -0.15409501 -0.22490394
-0.5597254 -0.26832774 -0.44139674 -0.20221274 -0.13334839 -0.25716037 -0.44013336 -0.35710394
-0.37020233 -0.33263603 -0.29658544 -0.40564886 -0.43011448 -0.38873515 -0.63961273 -0.40668398
-0.14554383 -0.739628 -0.22985129 -0.26464686 -0.44131446 -0.24202906 -0.1790504 -0.19603026
-0.4068203 -0.5013108 -0.08969808 -0.28354925 -0.35622534 -0.43966135 -0.37741497 -0.12251102
-0.3452995 -0.5725141 -0.2658741 -0.3023812 0.05476509 -0.22838387 -0.20305341 -0.2021416
-0.34098774 -0.024625512 -0.19583961 -0.45324838 0.0012394536 0.006422824 -0.27889663 -0.35262474
-0.20011267 -0.33039218 -0.20016077 -0.1895396 -0.33097222 -0.43917835 -0.14752026 -0.13357319
-0.40444466 -0.37655923 -0.36823955 -0.2340163 -0.6462387 -0.35880676 -0.41137597 -0.57329786
-0.37735814 -0.2832784 -0.16193062 -0.19382562 -0.54536736 -0.36516178 -0.56160223 -0.5127051
-0.5301875 -0.419732 -0.2926425 -0.49871674 -0.44455507 -0.249247 -0.65368307 -0.03807636
-0.48527193 -0.5332157 -0.58709246 -0.62500334 -0.17335805 -0.533262 -0.24130411 -0.16733061
-0.12420863 -0.27884084 -0.25776333 -0.25578004 -0.16267087 -0.161913 -0.61746114 -0.46100605
-0.4081355 -0.5378169 -0.056396794 -0.39964032 -0.56430703 -0.41287652 -0.19304997 -0.0110460045
-0.8500942 -0.2837225 -0.4167688 -0.41155827 -0.21723743 -0.3986189 -0.4054815 -0.07272452
-0.4264046 -0.2068409 -0.4677795 -0.23930238 -0.15320195 -0.08375373 -0.11387539 -0.46772256
-0.17810573 -0.4529993 -0.358879 -0.3220718 -0.5716926 -0.3358244 -0.4235946 -0.40164444
-0.43714294 -0.20884043 -0.06654951 -0.29629335 -0.31166643 -0.10728125 -0.39175975 -0.4617777
-0.44829726 -0.4096625 -0.40920717 -0.6149404 -0.25027275 -0.2267319 -0.33553046 -0.17742917
-0.2896052 -0.43714523 -0.9496838 -0.4883908 -0.41963628 -0.11776834 -0.3567725 -0.53360355
-0.49979475 -0.38634372 -0.71448183 -0.26492703 -0.08041485 -0.38971394 -0.54853845 -0.38577428
-0.43252712 -0.33389592 -0.31699875 -0.14122152 -0.30755314 -0.23367943 -0.52096987 -0.416499

bn1.running_mean f4 [512]
00000000: ec43 b438 3620 0b3b af15 2d3b 1202 9fba
00000010: 0eef 353b 87a7 033a 41c6 4cbc 5ab9 72ba
00000020: 998d 3dbc 68a7 15bb b75d b83a e30a cf3a
00000030: fa3c 42bb 5705 b83b a4b7 51bb 17c9 813c
00000040: 4a74 2dbb 12c3 1e3b 0493 2d3b a12f 8bbb
00000050: 1813 0a3b 195c ba3b 9a79 3d3c 374d a2bb
00000060: 44e3 dabb 19fb 87bb a5d2 f03a d1cf 0ebb
00000070: 58ae 90bb b435 913b 12ff 6c3b a62f 47bb
00000080: 0a58 01bc 2711 c43a c8c7 57ba dc01 74bb
00000090: 8415 b53a de25 94bb b221 813a 7450 16bb
000000a0: 236a c3bb df67 b83b 0462 583c 82e0 543a
000000b0: a878 323b c69d b43b e4dc b53b 34d5 023b
000000c0: 4c2b 903b ab79 d93a 0c76 633a 6f7b 90bb
000000d0: fb03 c73b da99 a8ba e90c febb 93fe 973a
000000e0: d168 37bc 015b 6ebb a480 c2bb 469f b83a
000000f0: d3e6 b7bb 3b70 48bb 9867 bdbb 766e 1dbc
00000100: 25bf 0e3c fe04 cdba 86fb 9c3b 0517 503a
00000110: ed44 f1ba 596a 02bb 81d3 563a 9285 41ba
00000120: b8ac 803b 789b a538 ceb1 0ebb 9e8d 9dba
00000130: e490 e6b9 d5b7 caba a82c 883b c6ec 9d39
00000140: 7e11 96bb ff15 ab3b a075 ccbb 1198 153c
00000150: 30b5 3c3a 68c5 183b 8bb0 473a fcfb 79bb
00000160: f1e6 073b ac83 16bb e0e4 8139 9141 9ebb
00000170: 383b 8cbb 22aa c2b9 49d8 f6bb 8011 c73a
00000180: 9b43 c83b e8ab 603b 1ac0 13bb e84a a1bb
00000190: f3a3 f13a bc9d a1bb 2f76 21bb 90c6 16ba
000001a0: c2ed e0bb ce8f 82ba a205 b43b e450 703a
000001b0: 94ce 1ebc a96c 28bc 6c7e fa3b cd52 533b
000001c0: 1c62 2ebb 5032 abbb de58 e639 3b7d 293c
000001d0: 4e45 2dbb c94a 2d3b dcc4 9cbb 9706 e3ba
000001e0: 556a 993b 6aa0 5cb9 fae7 98ba 36f4 973b
000001f0: 7495 f23b 9e57 22ba aed6 8abb 202d 663b
00000200: 4610 23bb 7560 8dbb 2de7 cdbb c54c 1fbc
00000210: 386c 5ebc c666 c9bb 3eb2 f83a 124d 583b
00000220: 0312 afbb 4ab9 ed3b 5931 023b beb4 28bb
00000230: fe05 c83a 04a5 0f3a 5665 d33b 6409 48bb
00000240: a0a2 e038 ac9b 2b3b 30bb 74bb 0b67 80bc
00000250: 26e6 82bb aa32 1dbb 7e10 3abb 2021 c8bb
00000260: 348a 0339 6cd8 233b c4e7 0d3a 3d46 85bb
00000270: 44a8 13ba 22d2 863a bff9 8d3b 6844 bb3b
00000280: d8de 29bc 4e3c 7f3b 0c5c b1bb 540f 083c
00000290: 3446 923a f18a a83b 9489 3fbc 2ed5 443b
000002a0: 8490 65ba 7430 493c 5dcc 9bba 40b6 563b
000002b0: bf7c 0cbb f2ec 943b 22ff d5ba 428b 3dbc
000002c0: e457 233b 436a 29bb b259 38bb 6231 603a
000002d0: 3c6e 4fba 3ecb 8c3b 1019 763b 9a79 933a
000002e0: 7fd8 2a3b 60c1 2ebb 5be5 bdba fccc 8fbb
000002f0: b44d 723b 307c 79ba 3082 833b 18f0 e5bb
00000300: 1aa8 2e3c f5d0 37bb fe60 a2bb 9967 a93b
00000310: c603 cdba 0171 873b 1c65 cb39 a864 703a
00000320: 549e 2d39 535e 6e3b 1a69 98bb 2c1e 80ba
00000330: c9e7 ceba d520 913c 3944 023c 191b 0fbb
00000340: 5d99 2bbc 5c94 3abc b8e3 fdb8 5027 09bb
00000350: 4efc 9f39 98d2 67bb 0690 a83a 653a d9bb
00000360: 9658 90bb 9606 0bbb 3514 a9ba c595 0dbc
00000370: c730 7b3b b1b7 85bb b092 bd3a f028 e43b
00000380: 4593 6f3a 4819 b839 d1a3 433a 043f b93b
00000390: de11 4f3c e3cc 30bb dfd8 a93b 1892 6fbb
000003a0: 1020 e9b9 ad3e f6bb 6c60 3e3b 61eb 16bb
000003b0: 107a 1f3a f8b5 b0b8 3819 a13b 50bb c8bb
000003c0: 90a4 66ba bc6d 87bb 4ea3 173b 046a 60bb
000003d0: 2663 22bb 3ee7 9b39 c84d 193a f216 41bc
000003e0: da30 9fb9 b1af 97bb 001b 2a37 4268 7838
000003f0: 1513 21bb 0980 a1ba 9700 4bbc 7403 8fb8
8.59572e-05 0.0021228916 0.002641063 -0.0012131354 0.0027760896 0.0005022217 -0.012498439 -0.0009259187
-0.011569404 -0.0022835378 0.0014066015 0.0015796091 -0.0029638396 0.005615871 -0.0032000327 0.015842957
-0.0026467019 0.0024225158 0.0026485333 -0.004247621 0.002106851 0.0056872484 0.011564637 -0.0049530524
-0.006679924 -0.004149806 0.0018373324 -0.0021791349 -0.0044153146 0.0044314507 0.0036162776 -0.003039339
-0.007894525 0.0014958725 -0.0008231369 -0.0037232554 0.0013815616 -0.0045211157 0.0009851961 -0.0022936137
-0.00596358 0.005627617 0.0132069625 0.00081206125 0.0027232561 0.005511972 0.005550014 0.0019963505
0.0043996926 0.0016592046 0.0008676953 -0.0044092457 0.0060734726 -0.0012863234 -0.007753004 0.0011596255
-0.011194424 -0.003637016 -0.0059357453 0.0014085553 -0.005612233 -0.0030584473 -0.0057801716 -0.0096088555
0.008712565 -0.0015641747 0.004790726 0.00079380005 -0.0018407382 -0.0019899814 0.00081949687 -0.0007382269
0.0039268397 7.8967714e-05 -0.002177346 -0.0012020355 -0.0004397697 -0.0015466163 0.004155714 0.00030121783
-0.004579722 0.005221128 -0.006239608 0.009130494 0.000719863 0.0023311023 0.00076175545 -0.003814458
0.0020737017 -0.0022966666 0.00024775323 -0.0048295935 -0.0042795204 -0.00037129322 -0.0075331074 0.001518771
0.006111575 0.0034282152 -0.0022544921 -0.0049222596 0.0018435701 -0.0049321335 -0.0024637093 -0.0005751634
-0.0068642804 -0.000996107 0.0054938355 0.0009167327 -0.009692807 -0.010279813 0.007644465 0.0032245398
-0.002660877 -0.0052245036 0.0004393523 0.010344799 -0.0026439014 0.002644228 -0.0047842097 -0.001732069
0.004681865 -0.00021040594 -0.0011665814 0.0046372665 0.00740307 -0.00061928655 -0.0042370176 0.0035122111
-0.0024881526 -0.004314477 -0.006283662 -0.009722893 -0.013575606 -0.0061462848 0.0018974019 0.0033004922
-0.0053427233 0.007254754 0.001986584 -0.0025742496 0.0015260575 0.00054796063 0.006451289 -0.0030523175
0.000107114436 0.0026185317 -0.0037343018 -0.015674135 -0.003994721 -0.0023986497 -0.0028391178 -0.0061074644
0.00012544618 0.0025000824 0.0005413259 -0.004067211 -0.00056326785 0.0010286013 0.0043327506 0.005714942
-0.0103680715 0.0038945857 -0.005412584 0.008304436 0.0011159838 0.005143516 -0.011690516 0.0030034292
-0.0008757191 0.0122796185 -0.0011886467 0.0032762438 -0.002143666 0.0045448476 -0.0016326646 -0.011568846
0.0024924213 -0.002585069 -0.0028129634 0.00085522805 -0.00079128495 0.0042966893 0.003755156 0.001125145
0.0026068983 -0.0026665553 -0.0014487909 -0.0043884497 0.0036972584 -0.00095171016 0.0040133223 -0.007017147
0.010660196 -0.0028048132 -0.00495541 0.0051698205 -0.0015641383 0.004133344 0.0003879451 0.00091702724
0.00016557547 0.003637214 -0.004651201 -0.0009774617 -0.001578563 0.01771585 0.007950836 -0.002183622
-0.010473576 -0.011387911 -0.00012106396 -0.0020927973 0.00030514825 -0.0035373326 0.0012860305 -0.0066292756
-0.0044050915 -0.0021213642 -0.0012899699 -0.008641665 0.0038328634 -0.0040807356 0.0014463272 0.006962888
0.00091390713 0.0003511405 0.000746307 0.005653264 0.012638537 -0.002697759 0.0051833238 -0.0036555585
-0.00044465112 -0.0075147958 0.002904917 -0.002302848 0.00060835574 -8.426228e-05 0.0049163364 -0.006125845
-0.00087983254 -0.0041329544 0.0023138109 -0.0034242878 -0.0024778335 0.00029736193 0.0005848077 -0.011785256
-0.0003036324 -0.0046290983 1.0139076e-05 5.9224905e-05 -0.0024578024 -0.0012321483 -0.012390277 -6.8194146e-05

bn1.running_var f4 [512]
00000000: 6003 f63f c591 3f3f 00e7 b13f ecb5 d13f
00000010: 8ff1 813f 26f3 0b40 05b3 2d3f fc92 573f
00000020: be1c 883f 49a4 3840 fb61 723f 6324 0040
00000030: d558 613f 8f26 0240 4fb1 cc3f 6b07 9f3f
00000040: d374 6c40 24b0 353f cc7e 2a40 de44 f23e
00000050: 0669 3e40 d8fa 1b3f b71a 8f3f 4f9b 4a3f
00000060: b828 4340 f104 333f c3b4 1b40 1beb d33f
00000070: e25b b43f 018f 383f 818c 9b3f c166 be3f
00000080: bb11 3e3f 88f7 be3f dda4 683f d000 a53f
00000090: 9b0d af3f 5ba0 2740 453e 7c40 5c4f a73f
000000a0: 878e d43f 0e7a 4c3f 6786 9d3f 63a9 ca3e
000000b0: dfa4 843f 3bf9 1040 2628 913f 4a1b 3b40
000000c0: 522c bd3f 5869 0f40 4e1e fa3f 70a2 0740
000000d0: fd1c 693f b70e e43f 5e19 773f 0ec1 a53f
000000e0: 197b 523f 4bd3 113f 7f6d 1c40 ae64 9f3f
000000f0: f139 1c40 73e7 c83f 8a11 da3f f243 9d3f
00000100: 857b 253f 1016 f63f 9a8a c53f 4a2d 7a3f
00000110: 0960 973f 5a5c 963f 9322 813f 513a e53f
00000120: ad15 9a3f f659 7a3f 64e4 1240 4f1b 8b3f
00000130: c103 e840 eb4a ea3f 75b7 823f bc2f 0240
00000140: 070c 7d40 e3d7 e93f 4031 933f a6b9 123f
00000150: 0bd0 b140 8369 1840 d59e 1740 ac7e be3f
00000160: 4a2d 4440 fff1 f83f 8579 bb40 9dd8 da3f
00000170: 834d 0940 6920 a43f 6980 8b40 924b aa3f
00000180: 9299 8b3f 0b0f e23f 26b2 963f dc24 3440
00000190: 8963 8740 509a 0040 ca62 1840 9261 343f
000001a0: 3926 943f 45e3 8b3f 12d7 0840 c6cc df3f
000001b0: cf47 4d40 bcba d03f 50b4 883f cdcd b43f
000001c0: 85cc 923f 7143 973f e608 933f 7bb0 be3f
000001d0: 8a11 7b40 b10a 0c40 3a15 bc3f e420 4f3f
000001e0: a0aa 983f 4f57 b23f 8d25 0b40 6a09 0040
000001f0: e293 2c40 bee8 8e3f 8344 fc3f eec0 b63f
00000200: 3eb7 8e3f 00b2 3040 4b33 313f b6f7 693f
00000210: 961c e93f 1475 a13f 5467 723f 53da 0540
00000220: 20e7 433f 42e6 6540 add4 1940 88de 943f
00000230: 4dfd b43f 9b39 c63f eea2 903f 95b4 f43f
00000240: 403b 433f 9437 0640 a62f 1b40 28dd 893f
00000250: 912c 763f 34fe ed3f 5e60 3b3f b561 5d40
00000260: af1f ab3f 716d 0440 a4a0 6d3f d027 823f
00000270: 9395 4540 1d05 1540 882c 7b40 b80b 873f
00000280: 46ed 6840 251d 1c40 b84f 8f3f 8277 dd3f
00000290: 1245 913f 9b29 9a40 8de0 723f 2fa2 0340
000002a0: 9b44 403f ec53 ca3e 16aa c43f fea9 863f
000002b0: d3f7 2440 661b e73f 707c a540 a16e 993f
000002c0: d4cf 933f b1a0 9940 98c0 a43f a747 2740
000002d0: 4756 0b40 34e8 503f 0898 713f 74be 933f
000002e0: 3c83 8a3f 05e9 0140 ebf1 9c3e ffd2 943f
000002f0: 3fce 9e3f f529 833f 970b 893f 4736 ba3f
00000300: c180 473f e38d 7a40 aba5 e73f 8095 9c3f
00000310: eaf0 963f 8890 f13f b78c ea3f a171 5f3f
00000320: 0f24 973f 0d32 a240 e69a fe3e 052d 643f
00000330: 60f8 4b40 fce3 623f 60aa 1140 fa81 9940
00000340: 79aa df3f aa7b 1340 c724 903f fda7 e33f
00000350: 282b 4c40 d4e1 c33f f9f3 6240 cb2f 2d3f
00000360: aef1 c43f b5ef 0740 b988 df3f 9321 733f
00000370: 849a 1040 5707 0e40 0e17 0840 30d2 2940
00000380: 04fb 8d3f dd7d c83f e43d 6a3f a902 853f
00000390: 3b48 b23f 4962 853f f20f 5a3f 4fc0 ca3f
000003a0: 8ab9 ab40 0b77 f33f e291 4e3f a6e3 a33f
000003b0: bef4 db3f 6b3b 1a40 315c 3b3f d8f7 853f
000003c0: c545 663f 3fb2 1e40 fac6 b93f d8a9 423f
000003d0: 9156 a03f 3c07 0040 08ab 8c3f 617f 943f
000003e0: 9edf d23f 1ae9 3d40 f65a 3e40 030e 5540
000003f0: 851a e63f 0e25 f43f c2ce 353f 3e16 1f40
1.921978 0.748318 1.3898621 1.6383643 1.0151843 2.1867156 0.6785129 0.84208655
1.0633771 2.8850272 0.94680756 2.0022209 0.8802617 2.0336034 1.599161 1.2424139
3.6946304 0.70971894 2.663989 0.47318166 2.9751601 0.6092963 1.1180028 0.7914323
3.0493603 0.69929415 2.4329078 1.6556123 1.409054 0.72093207 1.2152253 1.4875108
0.74245805 1.491929 0.9087656 1.2890873 1.3676027 2.6191623 3.9413006 1.3071094
1.6605996 0.7987374 1.2306641 0.39582357 1.0362815 2.2652118 1.1340377 2.9235406
1.477915 2.2408047 1.9540498 2.1192894 0.9105986 1.7816991 0.9652308 1.2949541
0.8221908 0.5696303 2.444183 1.24526 2.4410365 1.5695633 1.7036602 1.228636
0.646416 1.9225483 1.5432923 0.97725356 1.1826183 1.1746933 1.0088676 1.7908422
1.2037865 0.9779352 2.2951899 1.0867709 7.2504582 1.8304113 1.0212237 2.0341635
3.953859 1.8269008 1.1499405 0.5731453 5.556646 2.38144 2.3690693 1.4882407
3.0652642 1.9448851 5.858584 1.7097355 2.145356 1.2822391 4.359425 1.3304312
1.0906241 1.7660841 1.1773117 2.8147497 4.2309003 2.0094185 2.3810296 0.7046138
1.1574165 1.0928732 2.1381269 1.7484367 3.2075078 1.6306987 1.0680027 1.4125305
1.1468664 1.1817456 1.148709 1.4897608 3.9229455 2.1881526 1.4693978 0.8090956
1.1927071 1.3932894 2.174167 2.0005746 2.696526 1.1164777 1.9708408 1.4277627
1.1149671 2.7608643 0.6921889 0.913936 1.8211849 1.2613854 0.94688916 2.0914505
0.76524544 3.5921788 2.4036057 1.1630411 1.4139801 1.548633 1.1299722 1.9117609
0.76262283 2.0971422 2.4247832 1.0770617 0.9616175 1.8593202 0.7319392 3.4590886
1.3369044 2.0691798 0.92823243 1.01684 3.0872543 2.328437 3.924593 1.0550451
3.639482 2.4392788 1.1196203 1.7302096 1.1349204 4.817579 0.9487389 2.056774
0.75104684 0.39517152 1.5364406 1.0520627 2.577626 1.8055236 5.17144 1.1986886
1.1547799 4.8008657 1.2871275 2.6137483 2.177141 0.81604314 0.94372606 1.1542497
1.08213 2.0298474 0.3065332 1.1626891 1.2406691 1.0247179 1.0706662 1.4547814
0.7793084 3.91491 1.8097433 1.2233124 1.1792271 1.8872232 1.8324193 0.8728276
1.1807879 5.0686097 0.49727553 0.89131194 3.1870346 0.88629127 2.2760239 4.7971163
1.7473899 2.3044229 1.1261224 1.7785641 3.190134 1.5303292 3.546141 0.6765105
1.5386255 2.1240056 1.74636 0.94973105 2.259431 2.219198 2.1264071 2.6534538
1.1092229 1.566341 0.9150069 1.0391437 1.3928293 1.0420619 0.8518058 1.5839938
5.366399 1.9020704 0.8069135 1.2803848 1.7184064 2.4098766 0.7318755 1.0466261
0.8995021 2.4796293 1.4513848 0.7604041 1.2526418 2.0004416 1.0989695 1.1601373
1.6474493 2.9673524 2.9743018 3.3289802 1.7976843 1.9073808 0.7101861 2.4857326

fc2.weight f4 [256, 512]
00000000: 9616 323d 2032 aa3d d1e9 3fbc 82b0 9b3c
00000010: bd90 99bd 1ea3 5f3d 37fb c4bd 889c b7be
00000020: bbe4 0fbe 1e73 03be 487f 82bd cd2d b1bc
00000030: 9f46 3d3e 2d15 103e 86a3 4ebe 8162 35be
00000040: 94bd 4e3e 96f7 a23d 1bac 303e 10b9 d2be
00000050: 116d 21be 7f2b 5d3e 6199 a63e 6bc3 bdbd
00000060: 628c 183e ca20 81be ae6f a73e dd75 18be
00000070: c168 cabe ba0a b7bd 8c65 f33e e56b ed3d
00000080: 1fe0 5ebd ac49 3abe 8ee7 58bd f0d9 803e
00000090: b062 2c3e b31b 38bd ca63 36be 12eb a23d
000000a0: 3c21 ab3e 4f5f 7cbe cd6a 88be 0c69 853d
000000b0: fd97 963e 02bc 76be bf8d 38be 634f b43c
000000c0: 5c4b 8b3d c886 acbe 540f e03e f38f 94bd
000000d0: 1985 afbe 92b5 023e af49 87be 2477 e73b
000000e0: 63a9 c5bc b2d9 4fbd f465 bd3e f8dd dcbd
000000f0: 9a2d 3e3e 7884 b1bd 222a 663e e2c9 18be
00000100: 6e05 45bd 1259 363e e272 c0bd fd20 fd3d
00000110: 71a4 173e b4cf 083e 1cca 89bc 8bb4 113d
00000120: 5002 2d3d 8ae5 98be b2cb b9be ec32 cebe
00000130: 5dba 013d 3245 36be 0210 233e f002 ab3e
00000140: d392 80bd c4d0 81bd e0e7 b93e d331 263c
00000150: 5f18 ccbb c0d7 7f3e 1386 0b3f c744 0cbe
00000160: 7b3b 903e 9c87 933d 94cf c13d bf35 6ebd
00000170: b1ca df3d 3f42 ac3d c98d 863e faac d13c
00000180: 0121 c43d b297 62be 7446 b1bd 7105 9ebc
00000190: b16d 7b3e 6e17 fa3e ef4a 183e 010a babd
000001a0: de6f 523e 85a3 0bbe 3ea9 853e 17ff a83e
000001b0: 0c31 20bd 17cb e53c fb64 993d bdde d0bd
000001c0: 8e69 70be bc4d dabe bfab 3abe 3a3c f53d
000001d0: ec5e 32be 498b a3bd e8a3 afbe f78b bebd
000001e0: 793f d0bd d191 79be 4b50 a13e 1f5a 5d3e
000001f0: f12a 663d 022a 2e3e 56b6 9c3e a413 61be
00000200: 19f2 27be ac84 38bf 6fcd 86bd b40e 423e
00000210: e9e8 c53e 6e17 3bbd 3072 00bb 6d79 c83e
00000220: f99d 09be c914 ae3e 8997 883e d0b0 253e
00000230: 6cb9 bc3d 62a8 8d3d 70f2 363e 8897 753e
00000240: d642 6ebe a6e4 523b 4d5f 2fbd 17ef 0c3e
00000250: adbd 953e e915 a9be b094 b43d 6977 7b3e
00000260: eba1 abbe 4bc7 1abe 4850 0fbe 71a7 89be
00000270: f9fe bb3e c536 933d 9898 2a3e 12e7 483e
00000280: 31d5 593e 61ff 98be 661c 7dbe 327c d63d
00000290: 3063 07be 44bd c4be a5f9 e73d 34a4 5b3e
000002a0: 5f99 2a3e 495f 4d3e 587e b73d 13c0 d2bd
000002b0: 6e46 a53e 129f 9bbe 7fce b4be bb9c 99be
000002c0: 14d3 9bba 910b 8fbe 2d19 abbd e365 f9bb
000002d0: 6600 763c 42ff 4dbd e19c 2ebf 7315 f6bc
000002e0: 12cf 1a3f 23f7 e6bd 5850 a2bd 2404 0c3e
000002f0: 3700 38be 3dad a4be a27e adbe d889 5f3e
00000300: c629 9d3d a5b5 093d 2a2c 2c3e fda9 7e3e
00000310: 3667 9a3e ddd6 d63d cbbd cd3d b513 0c3e
00000320: e639 e73d c4ec 6ebe 2764 69bd fec1 f9bc
00000330: 479c 4f3d 2096 7cbd 3967 a6bd b7a7 87be
00000340: 6d2d 06be cd80 163e ce73 2fbe ec81 3e3e
00000350: 3a5f 17bd 35f4 b33e e20f 0dbe 9e04 aebc
00000360: b001 ffbe e21d 18bd 19f4 4abe 5f29 2ebe
00000370: 601e acbe 214a dabd 1964 febc e041 363e
00000380: 701a 113e e7b5 63be e1c8 fcbe c78a eebd
00000390: 1575 633d 028e e4bc dac8 aa3d 3d22 e53d
000003a0: 8fc4 fabe 21a8 aabc 9f6e babe a265 853e
000003b0: d12f 92be 144e 953e 8255 c93e c232 cd3e
000003c0: a866 8e3e 20be 463a df38 7bbe cdb7 90be
000003d0: 1d5d 63be 9031 0bbe e502 5bbf 98d1 793e
000003e0: d3d7 8a3c 21d4 4b3e 3114 4abc 2aa6 7d3a
000003f0: 3906 c93d a32e f0be 92f3 f73e dc7d 7b3e
0.04347857 0.08310342 -0.011713461 0.019005064 -0.0749831 0.05459892 -0.09618228 -0.3586161
-0.14052097 -0.12836882 -0.06371933 -0.021628285 0.18483971 0.14070578 -0.20179567 -0.17713358
0.20189506 0.079573795 0.17253153 -0.41156816 -0.15764262 0.21598624 0.32538894 -0.09265789
0.14897302 -0.2522033 0.32702392 -0.14888711 -0.39533046 -0.08937593 0.47538412 0.11592845
-0.054412957 -0.18192166 -0.052955203 0.25166273 0.16834521 -0.04494829 -0.17811504 0.07954992
0.33423793 -0.24645732 -0.26643983 0.06514177 0.29412833 -0.24095157 -0.18022822 0.02201051
0.06801483 -0.3369658 0.43761694 -0.07254019 -0.34281233 0.12764576 -0.26423404 0.007063763
-0.024128621 -0.05074472 0.36991847 -0.10784525 0.18572083 -0.086678445 0.2247701 -0.14920762
-0.04810088 0.17807415 -0.09396912 0.12359808 0.14808823 0.13360482 -0.016820006 0.03557257
0.042238533 -0.29862624 -0.3628822 -0.40273225 0.03167187 -0.17799833 0.15924075 0.3340068
-0.062780045 -0.06338647 0.3630972 0.010143715 -0.006228491 0.24984646 0.54501456 -0.13698111
0.2817038 0.072036 0.094634205 -0.058156725 0.10927332 0.08411073 0.26280048 0.025595177
0.095766075 -0.2212818 -0.08656016 -0.019289704 0.24553563 0.48846 0.14872335 -0.09083939
0.20550486 -0.13636597 0.26105684 0.33007118 -0.039109275 0.028050942 0.074899636 -0.10198734
-0.23477766 -0.42637432 -0.18229578 0.11974378 -0.17419022 -0.07985551 -0.34304738 -0.0930404
-0.101683564 -0.24372031 0.3150657 0.2161641 0.056193296 0.17008212 0.3060786 -0.21980149
-0.16400947 -0.7207744 -0.06582152 0.18950921 0.3865426 -0.04567664 -0.001959931 0.3915514
-0.13439168 0.34000233 0.26678112 0.1618073 0.09215054 0.06916882 0.1786592 0.23983586
-0.23267683 0.0032179742 -0.042815495 0.1376308 0.29246274 -0.3302453 0.088174224 0.2455727
-0.3352197 -0.15115087 -0.13995469 -0.2688556 0.36717966 0.07188181 0.16659772 0.19619396
0.21272732 -0.2988234 -0.24717864 0.10472907 -0.13221431 -0.38425648 0.11326913 0.21449357
0.16660069 0.2005588 0.08959645 -0.102905415 0.32280296 -0.303948 -0.35313794 -0.30002388
-0.0011888468 -0.27938512 -0.08354411 -0.007611023 0.015014743 -0.05029226 -0.6820813 -0.030039525
0.60472214 -0.11277606 -0.079254806 0.13673455 -0.17968832 -0.3216342 -0.33885676 0.21829927
0.07673983 0.033620495 0.16813722 0.24869533 0.3015687 0.10490201 0.10045966 0.13679393
0.1129034 -0.23332506 -0.05698028 -0.03048801 0.050686147 -0.061666608 -0.08125157 -0.26495144
-0.13103266 0.14697571 -0.1713402 0.18604249 -0.03695605 0.35147253 -0.1377559 -0.021242436
-0.49805975 -0.037137873 -0.19819678 -0.1700797 -0.33616924 -0.1065867 -0.03105359 0.17798567
0.14170241 -0.22237359 -0.49372008 -0.116475634 0.05553158 -0.027899746 0.08339091 0.11188171
-0.48978087 -0.020832123 -0.36412522 0.26054102 -0.28552106 0.2916113 0.3932305 0.40077788
0.27812696 0.00075814314 -0.24533413 -0.2826523 -0.22203489 -0.13593125 -0.8555129 0.2439636
0.016948616 0.1990514 -0.012333916 0.00096759445 0.0981564 -0.4691058 0.48428017 0.2455973

fc2.bias f4 [256]
00000000: cf87 e83a 8aaa ad3b dfc8 1dbc f8b0 b8bb
00000010: 6514 a3bb ca5f b439 95f3 033b 0a74 6bbb
00000020: a3f0 58bc 9f2e 18bb 3c2c 003c c6d7 84ba
00000030: ed8a c93b badf c639 9cd5 9c3b 5cfe dc3b
00000040: 58f6 b73a cd1b 973c 6ee8 4e3c 3c95 c63b
00000050: 67a7 933a abac 55bc b0bc f63b 81ca 893c
00000060: 600a 6e3c f601 afbb 473d 373b 16cc 2bbb
00000070: 9845 aa38 cc56 3fbc b461 80b9 e216 d03b
00000080: 7cb2 16ba 11c6 c4bb de83 5bbb b574 dcbb
00000090: a2e2 07bc a4c5 bdb9 f480 f739 49bd d63b
000000a0: 80db 4d3c 28db ac3a 4806 01bb 7481 43bb
000000b0: e42a 083a f519 1f3b 3ab4 69ba 1075 40b9
000000c0: 963e 203b 1605 4d3b 70e3 c53b d6b5 51bb
000000d0: 00a6 d23a e13a 04bc 9c1d 973a 09aa 21bb
000000e0: 9649 2a3a d4cd d739 589f 93bc a833 26bb
000000f0: fa69 a53b f87e 1ebc 96f8 50bc 9f7c 18bb
00000100: f749 2e3b fc23 f73b 2829 4fba 8033 8338
00000110: d64c 79bb f278 02bb c845 613b a04e f338
00000120: e721 9f3c 1809 51bb 666f c73b 34fc 1fba
00000130: c203 c5bb 5250 cc3b 3de9 82bc 9adf 753c
00000140: 4fee 9b3b b12f 3abc 1cda e43b f61a e53a
00000150: 197e 5abc c068 933b 285d d8bb 8461 91bb
00000160: a4cc ea39 2432 8fbb a25d 033c 6e99 443b
00000170: d0af 413c a913 003b 2323 e4bb d865 51b9
00000180: cc6f 883b 2c14 fd38 6bd2 073b d011 b03b
00000190: 1bf1 d73b fc75 13bc b9b3 b93a 93a6 77bb
000001a0: 82f2 b7bb e922 abbb 80fe 603a 3453 d2b9
000001b0: c4ab eabb 181b 6f3b 5ec9 5ebb 7630 653b
000001c0: 7062 10b9 020c e23b 0626 de3b 5e67 c73b
000001d0: f0bf 083b 86de 943b 8037 a93b b125 2ebb
000001e0: d207 9e3c ef18 883b 8229 34bb 8e61 843b
000001f0: 5d01 d83b 65c8 1f3a de23 2c3b 90d8 783b
00000200: 146b e83b 0808 723a ee8c 84bb c817 403a
00000210: 4809 0e3c a03f 30bb 7e2d bdba 12e8 1dbd
00000220: 58e4 bc3a 427f 05bc 3e3e 9a3b 1296 243c
00000230: a166 09bd 0469 70bb 0b31 14bc 2e6c 553b
00000240: 57bc 7b3b 4766 3b3c b8e5 1bba b861 48b9
00000250: f722 8d3b 9458 aeba 3c54 383c b52f 59bb
00000260: 0858 76bb 0ef6 a93a bebe 313a f0a1 ee39
00000270: 1e37 0fba 79e0 9c3c 9dc5 b33b 916a 92ba
00000280: da85 a23c 0f21 6bbb 54d3 943b edb6 c93b
00000290: a006 86b8 3a23 85ba 67d3 ec3b 6e88 f23b
000002a0: fff7 1c3d c0d1 ed39 94e0 bb3b e131 a53c
000002b0: 64c0 a1ba 40c6 7ab8 8851 493a e88d d2ba
000002c0: f556 023c c645 e6bb cac7 d3bb 79da e53b
000002d0: 12b8 3dbc d34a 2bbc 74a8 303c 17f2 d93b
000002e0: 00ad 3ab7 6c2b 173c 88a7 773b 58a0 fb3b
000002f0: f229 86bb a402 9fbb c86f ec3b 20f1 0239
00000300: 8adb 19bb aedf d1ba fee8 94bc 090e 35bc
00000310: 9f81 553c 9461 04bc 27ae cc3a 7835 97b8
00000320: 26d2 02bc a667 87ba 5639 7fbc 138a cb3b
00000330: 7190 5bbc 91c9 68ba 3ad9 fc3b 2827 633a
00000340: 1e86 7f3b 43f1 0cbb 4957 d53b 93ed 363b
00000350: 820b 423c b5fa c8bb 9b47 d8bb abd2 17bc
00000360: f82e 88bb 88d4 c63b 3edb b63a 9e06 45bc
00000370: 0445 f33a 3559 0abc 987a 973b 9e00 b73b
00000380: 9a70 72bb 0f6d 163b 82b6 0e3a 625f fd3b
00000390: d14c 8dba 2a46 32bc c41a 30bc 819b 9cbc
000003a0: 2a0e 323c f87a 583c f867 83ba 118d 84ba
000003b0: a477 00ba 67d3 a3bb 1821 cc3b 10b0 513b
000003c0: f2a9 973b f0a3 233c ee11 403a 1eb7 603b
000003d0: 59c8 6cbb fa78 29bb 49eb 2dbc 75cb 1f3c
000003e0: a0ad 4fb8 4b29 eb3a c8de 503a ff01 4ebb
000003f0: 03b9 383b 4165 b3b8 bedf 85bc 5187 373c
0.001774067 0.005299871 -0.009630411 -0.0056363307 -0.0049767965 0.00034403644 0.00201342 -0.003592732
-0.013240966 -0.0023221148 0.007823046 -0.0010135106 0.0061505944 0.00037932192 0.0047862064 0.006744189
0.0014035208 0.018445874 0.012628658 0.0060602706 0.00112651 -0.0130416555 0.0075298175 0.016820194
0.014528841 -0.00534081 0.0027960108 -0.0026214174 8.1191945e-05 -0.011678409 -0.00024486857 0.006350384
-0.0005748642 -0.0060050567 -0.0033495347 -0.0067277797 -0.00829378 -0.00036196143 0.0004720759 0.0065533263
0.01256454 0.0013187872 -0.0019687582 -0.0029831799 0.00051943795 0.0024276946 -0.00089151005 -0.00018354156
0.0024451367 0.003128355 0.0060390756 -0.0031999252 0.00160712 -0.008070678 0.001152921 -0.0024668
0.00064959505 0.0004116135 -0.018020317 -0.002536038 0.005048034 -0.009673826 -0.01275458 -0.002326764
0.002659438 0.0075421315 -0.0007902556 6.2561594e-05 -0.0038040183 -0.0019908515 0.0034373868 0.00011601788
0.019425346 -0.003189629 0.006086278 -0.000610295 -0.006012411 0.006235161 -0.015980357 0.015006924
0.004758633 -0.01136391 0.0069840085 0.0017479348 -0.013335728 0.004498571 -0.006602902 -0.0044366736
0.00044784427 -0.004369991 0.008017929 0.0029998678 0.011821702 0.0019542968 -0.0069621964 -0.00019969733
0.004163718 0.000120677374 0.0020724784 0.005373217 0.0065900213 -0.009000298 0.0014167941 -0.0037788495
-0.005613626 -0.0052226675 0.00085828453 -0.00040116312 -0.0071615893 0.0036484655 -0.0033994536 0.0034971512
-0.00013769581 0.006898404 0.006779435 0.0060853204 0.0020866357 0.0045431284 0.005164087 -0.0026572759
0.019290838 0.004153363 -0.002749056 0.0040399497 0.0065919594 0.000609523 0.0026266496 0.0037970878
0.007092843 0.0009232764 -0.0040451204 0.00073277624 0.008669205 -0.0026893392 -0.0014433113 -0.038551398
0.0014411313 -0.008148016 0.004707127 0.010045545 -0.03354514 -0.0036683688 -0.009044896 0.00325657
0.003841182 0.011437959 -0.00059470115 -0.0001910989 0.0043071466 -0.0013301545 0.011250552 -0.0033140008
-0.0037589092 0.0012967007 0.0006780437 0.0004551555 -0.000546323 0.019150006 0.005486204 -0.0011170675
0.019839216 -0.0035877859 0.004541794 0.0061558397 -6.390852e-05 -0.0010157593 0.0072273496 0.0074015176
0.038322445 0.00045360439 0.005733559 0.020165386 -0.0012340662 -5.978928e-05 0.00076796906 -0.001606402
0.0079553025 -0.0070273606 -0.0064630257 0.0070145694 -0.01157953 -0.010454851 0.01078235 0.006651174
-1.1126744e-05 0.009226661 0.0037789065 0.0076790266 -0.0040943557 -0.0048526097 0.007215474 0.00012487592
-0.0023476803 -0.0016012096 -0.018177506 -0.0110507095 0.013031392 -0.008079905 0.0015615866 -7.2102004e-05
-0.007984674 -0.0010330572 -0.015577635 0.006211528 -0.013401137 -0.00088801334 0.007716325 0.00086651975
0.0038989852 -0.0021506108 0.0065106493 0.0027912601 0.011843564 -0.006133402 -0.006600333 -0.009266536
-0.0041559897 0.006067816 0.0013950837 -0.012025503 0.0018559997 -0.00844412 0.0046227686 0.0055847904
-0.0036993385 0.0022953188 0.0005444066 0.007732318 -0.0010780339 -0.010880986 -0.010748569 -0.019117119
0.010867635 0.013212912 -0.0010025492 -0.0010112842 -0.00049006403 -0.0049995664 0.006229531 0.003199581
0.0046284134 0.009987816 0.00073268905 0.0034288834 -0.0036130159 -0.0025859461 -0.010615178 0.009753098
-4.9514347e-05 0.0017941383 0.00079677673 -0.0031434295 0.0028186447 -8.554245e-05 -0.01634204 0.011201696
