Dream11-Team-Predictor-main/src/model_artifacts/Model_UI_odi_2024-05-31.pth (torch, 779383 bytes, 31 tensors)

fc1.weight f4 [512, 25]
00000000: f0ca 50be b586 413d 8a80 dc3d 82fc dabd
00000010: 8799 2ebe be33 84bc 61e2 893e 36e1 68be
00000020: 50b1 97aa 133b 1b3e 66ee 08bf dae0 543e
00000030: 6adf 833e c91c b5bc d83b a0bc b9f5 a73e
00000040: 9e08 9bbd d8bc 0ebc 6ae2 6eba f1b9 753e
00000050: 940c 173e 38a0 fc3d 84f4 883d d62c e8be
00000060: 630b 813d 5354 08be 70cf babe 88e0 d93d
00000070: 40c3 d2bd eb4c 3c3d 0a54 893d 1c32 7cbe
00000080: 2b22 f63d d3ae 20ab 94bc 233d a8a8 86be
00000090: 3242 4ebe 47e1 013e 7afd 9abe 353d 9ebe
000000a0: 2caf 42bf 2218 753e 3022 1a3e bd6a 84be
000000b0: d890 b13d 11e6 6fbe 9888 8e3e 2151 1f3d
000000c0: bb45 423c 390f 3a3e e532 b2be df5e ccbe
000000d0: b7b0 b7bd 218b 8c3e 077b dd3d 6531 debd
000000e0: c422 c33e 243b 483e b1c5 52aa eac5 3b3d
000000f0: ccfb 6d3e bb1b ff3c e649 dbbe a9b9 22be
00000100: a957 a23e 06bc 403e 5854 893e d295 8fbd
00000110: 5ce8 fbbd a294 82be ed1e 39bd 7e45 913d
00000120: d740 4e3e d52d 29be fd0c 7fbe d54d 53bd
00000130: 7cb6 843e 402e 05be 1f50 123c ab6f 793d
00000140: 9de4 9dbe 940a eabe cf4e 153e 3ec8 042b
00000150: 8198 79be 7074 0a3e 1e13 813e 0c3f 77be
00000160: 4627 183e e916 ebbd 4856 993e fb4f 8c3c
00000170: f3fa a8bc 3745 933e 0f71 8c3d 78fe 2e3e
00000180: 8cbd 29be d211 e73d 702a 13be afca b03e
00000190: e4c3 213e 45b7 703e 9d2f 5d3e 7fa5 243c
000001a0: 4d1c aebd 5626 563e dd8f 27bf ae8c 69be
000001b0: f2f0 2a29 5203 74bc 8180 5bbe f1ab d7be
000001c0: f70f a03e 35fa 16bc 998f b33d 96fd 933e
000001d0: 092c 7bbe e15c 9f3e bc5f d33d 7dcc 17be
000001e0: 5dde 8ebd bc7f 4bbe c28c 07be bd7d abbe
000001f0: e273 b7bd c40d ecbd 6992 c53e 8770 2ebe
00000200: eb8e c83d 278c e0bd 9538 503e 5de4 3d3e
00000210: 28ca 3f3e b771 14ab 747d cf3e 4dba 853d
00000220: f101 2f3e 6b4f a0bd 5cbf bf3c 06a4 f3bb
00000230: 67c3 8dbe 548a ecbc 3b7b f03c 6aeb 003c
00000240: 30e2 b33e e610 0c3e b3ab 8a3e a82b 27be
00000250: ab2f e5be f565 323e ad6d 9d3e 780e 60bc
00000260: 6d4a 83bc 1311 3e3d 92d8 493e 8ca0 9c3e
00000270: 183c 963e 16fc 6fbf 1970 fcaa 86f9 1ebd
00000280: 27bb 6d3e cc83 f83d 316e cf3d 16b6 79bb
00000290: ba82 483e d4a7 b5bd 3fda 12be 2cbf 61bd
000002a0: 21d2 663d 2780 1abe e3fe 82b9 d58e 303e
000002b0: bd31 2c3e f099 c93e f20e 95be a236 f23e
000002c0: 1dd8 513e 092b 183e 20a0 173b af74 89bd
000002d0: 05ac 12be b87b 10bd c785 45be 208f a127
000002e0: a618 bcbe 3021 afbd 8381 15be 0f23 133e
000002f0: 161c 2ebf b9c8 0e3e 5a15 023e 8c30 2dbe
00000300: 5024 803c 2434 623e 006c 3ebd ce4a 1d3e
00000310: 13b1 a6bd 456c efbe d6dc cfbd 88a9 333d
00000320: 14dc fe39 2375 5f3e 54c7 3a3e 6bbe 87bd
00000330: 14c3 eabe d586 f8bc 84dc 02bf e8d0 72bc
00000340: 52d8 78aa 2ae0 febd cf9a 8ebe b22a 85bc
00000350: c801 2d3e 9ea0 353e 211d d83d c09d 10be
00000360: a983 dcbc e417 18bd f986 07be 4b4a 43be
00000370: 8b7d 543e eda7 ddbd 5592 533d 7ab7 803e
00000380: 32c1 233d a3eb 20be 803c 063e 5f76 7b3e
00000390: fa0f afbe 4a8f e8bd 1c7f b7bd 75c2 40be
000003a0: 9853 15be 4ef3 a629 8abc 9c3d 5035 6ebe
000003b0: 765e 723e a297 a8bd c29f f5be c259 7dbe
000003c0: 5d53 46bf b08b 983e 956b 22be 8079 033e
000003d0: 5db9 73be 991c 60be e147 a13d 88a5 1d3e
000003e0: 3c9b 8cbe b50a 083e 4cca bcbd 635f 5a3e
000003f0: c8bf 02be bc7c c83c 253c aa3d d874 c9bc
-0.20389915 0.047247607 0.107667044 -0.10692693 -0.17050754 -0.016137954 0.26930526 -0.22742161
-2.6946024e-13 0.15159254 -0.5348877 0.20788899 0.2575639 -0.022108452 -0.019559786 0.3280466
-0.07570003 -0.008712016 -0.0009112718 0.23996712 0.14750892 0.12335247 0.06687263 -0.45346707
0.06301 -0.13313417 -0.36486387 0.10638529 -0.10291147 0.045971792 0.06705482 -0.2462849
0.12018236 -5.7086036e-13 0.039974764 -0.2630055 -0.20142439 0.12683593 -0.30271512 -0.30906072
-0.7604854 0.23934987 0.15052104 -0.25862685 0.08670205 -0.23427607 0.27838588 0.03889573
0.011857445 0.1816987 -0.34804454 -0.3991613 -0.089692526 0.27449897 0.10814481 -0.10849265
0.38112462 0.1955381 -1.8720335e-13 0.045843042 0.23240584 0.031141153 -0.42829818 -0.15891136
0.31707504 0.18821725 0.26822162 -0.07010998 -0.123001784 -0.25504023 -0.04519551 0.07093333
0.20141922 -0.1652139 -0.24907298 -0.0515879 0.25920475 -0.13005924 0.008930235 0.06089751
-0.3083848 -0.45711195 0.14580844 4.717371e-13 -0.24374582 0.1352098 0.25209898 -0.24145144
0.14858732 -0.11478979 0.2994864 0.017127981 -0.020627474 0.28763744 0.06857502 0.1708926
-0.16576213 0.11282696 -0.14371657 0.34529635 0.15797383 0.23507412 0.21600194 0.010049223
-0.08501492 0.20913061 -0.6545389 -0.22807571 3.795657e-14 -0.01489337 -0.21435739 -0.42123368
0.3126218 -0.009214927 0.087676235 0.28904408 -0.24528517 0.31125548 0.10320994 -0.148241
-0.06976006 -0.19872946 -0.13237289 -0.33494368 -0.0895765 -0.11526063 0.38588265 -0.17035113
0.097928844 -0.10964232 0.20334084 0.18544145 0.1872946 -5.2737973e-13 0.405254 0.06529675
0.17090584 -0.07827648 0.023406677 -0.0074353246 -0.27688143 -0.028874554 0.029355636 0.007868627
0.35133505 0.13678321 0.2708412 -0.16325247 -0.4476293 0.17421706 0.30747738 -0.013675325
-0.0160267 0.046403002 0.19711521 0.30591238 0.29342723 -0.9374403 -4.4841976e-13 -0.038812183
0.23215924 0.12134513 0.10128439 -0.0038102916 0.19581118 -0.08869901 -0.14341067 -0.055113956
0.05635274 -0.15087949 -0.00024985438 0.17241986 0.16815849 0.39375257 -0.29112965 0.47307307
0.20492597 0.14860167 0.0023136213 -0.06711709 -0.14323433 -0.035274237 -0.19289313 4.4841653e-15
-0.36737555 -0.08551252 -0.14600186 0.14368843 -0.68011606 0.13943757 0.12703457 -0.1691305
0.015642315 0.22090203 -0.046489716 0.15360567 -0.08139243 -0.4676229 -0.10149543 0.04386285
0.00048610626 0.21822028 0.182401 -0.06628116 -0.45851958 -0.03033773 -0.5111773 -0.014820315
-2.2101876e-13 -0.124451 -0.27852485 -0.01625571 0.1689521 0.17737052 0.10552431 -0.14122677
-0.02691825 -0.03713216 -0.13235082 -0.1907131 0.20751016 -0.10823045 0.051653225 0.25139982
0.039979167 -0.15714888 0.13109016 0.24556874 -0.34191877 -0.11355455 -0.08959791 -0.1882418
-0.1458267 7.4140875e-14 0.076531485 -0.23262525 0.23668846 -0.08232047 -0.47973448 -0.24741271
-0.7747095 0.29794073 -0.15861352 0.12839317 -0.23801179 -0.21885909 0.07875038 0.15395176
-0.27462184 0.13285334 -0.092182726 0.2132545 -0.12768471 0.02447354 0.08312253 -0.024591848

fc1.bias f4 [512]
00000000: 4281 1abc 6e4c fe3b 23d6 55bb 734b 19ba
00000010: e30a 113c 086a 2f3c 5eee 1d3c 26c5 323b
00000020: da58 ccbb 8308 12bc 725e 58bc 399e 44bc
00000030: d014 193b 30e0 8bbb 401d 153c 4424 0e3c
00000040: 9fc2 f8bb 2c91 5a3b 28ef 64bb 5944 87bb
00000050: 2cea 223b b277 50bb 6b95 23bb 18d6 bc3b
00000060: b80e ee3b a7fe c7bb b7d0 b83b e0b2 3bbb
00000070: a8d8 403c b294 30bb 8a85 903b e0bc 4db9
00000080: ece0 34bc bdd8 7f3b e1b9 723c ccb1 f33b
00000090: e2c7 66ba 1245 56bc 1f43 2abc fbff a43b
000000a0: 935c cfbb 332a 563c f827 92bb 2840 45ba
000000b0: aade 8dbc 4c18 3c3c c9d4 9bbc 4347 1d3b
000000c0: 2c59 e9ba fc8d 9a39 9621 bb3c 9574 42bb
000000d0: d220 29bb ff61 033a 9365 123c 3644 b8bb
000000e0: cdde aebb 59f5 ddbb f03e febb 5d80 7dbb
000000f0: 6ab7 39bb 2f1c 48bc bf74 873b 2e26 2fbc
00000100: a0c6 8fb8 48b9 003b ee19 bd39 9c7b 543b
00000110: eea3 8e3c 3226 923c 7644 613c c113 083c
00000120: 1696 d03b 40f4 bfbb 18e4 b13b 53f2 11bc
00000130: b62b a53a d682 cb3b ef16 2a3b 5caa a43b
00000140: 4440 783b a4a8 9d3b 04a9 1a3b fe66 25bc
00000150: b78e c93b 80c1 613c d4e9 e53b b1cf f93b
00000160: b86d fbbb ba05 03ba c0b7 e93b 0c3b 3dbc
00000170: 3ca8 25bc 7fcc 243c 8996 60bc 45d5 ac3c
00000180: d643 91bc 5412 273c a744 b8bb 4494 1bbb
00000190: 79df 8ebb 1045 023a 34c7 033a 86bc 0e3c
000001a0: 5bd7 d23a 905e 063b bf20 50bc afab 213c
000001b0: 50ce 4aba 14bc eebb 009b fab8 f61c e4bb
000001c0: b0ce ff3a 26cf 893c 240e 9f3a 6ca2 1e3c
000001d0: 9634 36bc 39f3 5cbb 4059 20bb 1ef8 f73b
000001e0: c66a 7b3c 2d2b 33bc 7d22 ae3b eaa8 603a
000001f0: 364d f5bb 84a2 943b 59c9 53bb 894b 773c
00000200: 2c67 04bc 1927 823b 71aa b53b b6ea 0b3c
00000210: ac23 02bc e92d 893b 1b16 ad3b 8cee 3bba
00000220: 25ce cb3b cbc9 363c 4897 a6ba f6c4 5f3c
00000230: 8cbb 043b 73cb f5bb e8af 5cba 5886 0fbc
00000240: e27e 873c 99d7 c03c 5904 fa3b f4d4 8d3a
00000250: 360f 113c 5594 11bc a654 2c3c ee6a 403c
00000260: a081 3dbc fc0b adbb 1532 2dbc d0ed 6f3c
00000270: 619b 343c 6a32 d23b 8a15 d0ba eac8 933a
00000280: 96ed 113c baf0 bd3c 7de9 90bb cd86 2a3b
00000290: a324 d03b 232d 01bc 1abc 23bd 26f6 e83b
000002a0: 287a 1e3c 1b47 293c 152c 31bc 6233 1abb
000002b0: f1de 9a3c 7fb1 f83a 7703 8f3b b097 6b3a
000002c0: 4ce0 05bc fa3a 1abb 1db9 523c 912b 8fbb
000002d0: 5cc3 51bb d0d6 feb9 fddd 2d3c 5711 1bbc
000002e0: fce9 8f3c 1cf9 58bb 9a0f 573b 7431 f63b
000002f0: 80f8 5c39 7c8f 9a3b 9683 de3a f81b 15bb
00000300: e800 30ba 418a 7eba 86ec b6bb 09fe fe3b
00000310: 6243 d0bb cac8 17ba ed95 bb3b abf0 483c
00000320: 80c8 ef39 ce43 733c d014 563a a198 9ebb
00000330: 8a87 ba3c f821 7abc 342b 8a3a b6b1 c23b
00000340: dd76 ce3b 14d0 b2bb b6fc b7bc 8c3d acbb
00000350: 849c 9a3a 276b 1e3c b0b1 1cba d667 863c
00000360: 5f12 b9bb d6a0 a5ba e1d8 b7bb fa9f b6bb
00000370: c9ec 5a3b 4dbd 9b3c 61d5 943a 63e2 00bb
00000380: 58a3 81bb e6d4 82bc 768e 533c 5357 94bb
00000390: 4637 79ba 501a 7ebc 0063 1f37 5a93 e73c
000003a0: 3f6b 1fbc 3247 f6ba 4951 bd3c bfc9 9d3c
000003b0: f78e 073c 6ab1 82bc 07e3 0d3c 3e9a 3cbc
000003c0: e706 8aba f0ed 403c 8a3c b0bb 1bb7 10bc
000003d0: 8654 bc3b 8578 c9bc 3ee5 8bba 8394 83ba
000003e0: 0ac7 f9bb 3abb c1ba 82ad 39bb 8f2c b63b
000003f0: cad0 e83b a052 b73b 269f a4bb 9ee2 10bc
-0.0094302315 0.007760576 -0.0032628856 -0.00058477296 0.008852693 0.010706432 0.009639351 0.0027278154
-0.006236178 -0.008913162 -0.013206111 -0.012000614 0.0023358352 -0.0042686686 0.009101212 0.008675639
-0.00759156 0.003335069 -0.0034932587 -0.0041280207 0.0024858816 -0.0031809625 -0.0024960886 0.0057628267
0.007264938 -0.006103355 0.005640115 -0.0028640553 0.011770405 -0.0026944098 0.0044104503 -0.00019620685
-0.011039954 0.0039039098 0.014814825 0.0074369665 -0.00088035886 -0.013077991 -0.0103919795 0.005035398
-0.0063281744 0.0130715845 -0.004460331 -0.00075245136 -0.017318089 0.011480402 -0.019022362 0.0023998774
-0.0017803065 0.00029478956 0.022843163 -0.002967154 -0.0025806916 0.0005011856 0.00893535 -0.0056233658
-0.0053366185 -0.0067736325 -0.0077589676 -0.0038681247 -0.0028338083 -0.012213751 0.0041337903 -0.010690255
-6.855768e-05 0.0019641686 0.00036068208 0.003242231 0.017412152 0.017840479 0.0137492325 0.008305491
0.006365548 -0.0058579743 0.005428802 -0.008907872 0.0012601528 0.006210665 0.002595361 0.005025191
0.0037880102 0.0048113633 0.0023599276 -0.010095356 0.006151046 0.013779044 0.0070164 0.0076236357
-0.0076729916 -0.0004998107 0.0071325004 -0.011549722 -0.010110911 0.010058521 -0.013707765 0.021097789
-0.017732542 0.010197241 -0.0056234184 -0.0023739496 -0.004360136 0.00049693976 0.0005026937 0.00871194
0.001608591 0.002050314 -0.01270312 0.009867593 -0.00077364314 -0.0072856043 -0.000119498 -0.00696146
0.0019516554 0.016822409 0.0012134952 0.009682279 -0.011120936 -0.0033714308 -0.002446726 0.0075674197
0.015345281 -0.010935587 0.00531417 0.0008570092 -0.007486011 0.004535975 -0.0032316057 0.015093693
-0.008081239 0.003971946 0.005544 0.008539846 -0.007943075 0.004186381 0.005282176 -0.000716903
0.0062196427 0.01115651 -0.001270988 0.013657799 0.0020253388 -0.0075010597 -0.0008418546 -0.008760057
0.016539995 0.023540305 0.007629913 0.0010820911 0.008853724 -0.008885463 0.010518229 0.011744244
-0.01156655 -0.0052809697 -0.0105710225 0.014644101 0.011023373 0.006414701 -0.001587556 0.0011275087
0.008906743 0.023186076 -0.004422365 0.002602029 0.0063520237 -0.007884297 -0.03997431 0.0071094213
0.009672679 0.010331894 -0.010813733 -0.0023529162 0.018905135 0.0018973796 0.0043644267 0.0008987142
-0.008171152 -0.0023533688 0.012861517 -0.004369207 -0.0032007312 -0.00048606703 0.010612008 -0.009464583
0.017567627 -0.0033107465 0.0032815696 0.0075132195 0.00021073408 0.0047168117 0.0016976472 -0.0022752266
-0.0006714002 -0.00097099325 -0.005582395 0.007781748 -0.006355689 -0.0005790113 0.0057246597 0.012264411
0.00045735016 0.014847709 0.00081665535 -0.004839972 0.022769708 -0.015266888 0.001054144 0.005941595
0.0063007907 -0.0054569338 -0.02245937 -0.0052563604 0.0011795913 0.009669102 -0.0005977405 0.016406935
-0.005647942 -0.0012636434 -0.005610571 -0.00557327 0.0033405295 0.019011164 0.0011355096 -0.0019666187
-0.0039562397 -0.015970659 0.012912383 -0.0045270114 -0.00095068326 -0.015509203 9.500189e-06 0.028268505
-0.009730159 -0.0018789528 0.023110049 0.01926124 0.008273832 -0.015953738 0.008660085 -0.011511384
-0.0010530622 0.011775479 -0.0053783106 -0.008832718 0.0057473807 -0.024593601 -0.0010673178 -0.0010038767
-0.0076226043 -0.0014780529 -0.0028332178 0.005559511 0.0071049677 0.0055945665 -0.005023855 -0.008843092

bn1.weight f4 [512]
00000000: bc75 903f f080 883f 6306 9d3f d752 843f
00000010: f280 8a3f bb40 353f bc19 6c3f 07af 593f
00000020: 6f82 313f e2fc 653f 3623 a13f b25a 7e3f
00000030: ea12 8c3f b337 393f 312a 5c3f 0094 7f3f
00000040: a482 763f 581b 933f 6ebe 593f e742 3f3f
00000050: 1c8e 1c3f 20b9 7a3f 14c1 713f 23b9 7d3f
00000060: 43ae 813f 33c8 883f e3f2 4e3f b9c0 543f
00000070: 8496 843f cbb8 ca3e 42ff 703f 8cc7 763f
00000080: 00b1 683f b0f6 833f e55f 663f d93a 4a3f
00000090: 1f55 963f 9ba8 273f 1829 963f a6db 933f
000000a0: b1e1 313f 0fa5 8e3f 17d2 6d3f 1292 863f
000000b0: cbe8 b03f 4ca3 483f 6970 883f 5149 823f
000000c0: 9970 723f 5435 833f 2c10 8e3f 4248 783f
000000d0: ed69 853f c3c9 913f d0d1 753f beec 613f
000000e0: e302 6e3f 1b1d 4d3f 5cbb 673f 7d20 723f
000000f0: b2aa 5b3f ad31 903f dde1 723f 9d56 563f
00000100: 002b 933f 39fe 6c3f 0871 5b3f 55eb 523f
00000110: 76c4 983f e7e1 9e3f 872b 893f 1726 6c3f
00000120: c22f 593f dcfc 993f 9f39 153f 918b 4e3f
00000130: 31b4 2b3f 60bf 683f 58af 5b3f 90db 463f
00000140: bebf 823f 22f3 823f 0ffb 213f a1a1 3d3f
00000150: ad41 643f e9d4 753f 57bd 623f 677d 623f
00000160: 686f 333f 66d2 5e3f f34a 623f 2eae 893f
00000170: 600d 663f 2e87 643f 6d43 833f c39a 813f
00000180: b44b 3f3f d4f8 283f 252b 633f 0b1d a33f
00000190: d7f5 433f 70d5 793f 84f0 343f 329e 7e3f
000001a0: aa2a 173f 5d3c 4b3f f0ce 6e3f 591d 523f
000001b0: 860e 863f a748 553f 7ddf 083f 729f 4e3f
000001c0: 7a46 463f 7a92 8d3f ba3a 633f 116a 8c3f
000001d0: 883c 833f 80c0 1e3f ac60 603f 5f89 573f
000001e0: 7b33 883f 0121 963f 8491 843f fd86 583f
000001f0: ff6f 8b3f ff56 553f 96c6 333f 3d47 a13f
00000200: 5fc2 443f 73db 703f 4800 8b3f 3c68 3c3f
00000210: d0d9 7d3f bd1d 3b3f f426 853f 5be1 953f
00000220: 410d 9d3f 3030 4f3f 998d 7d3f 54e4 893f
00000230: 6fa8 8e3f ffba 7d3f 8e25 913f cd8a 643f
00000240: 534c ae3f ad61 713f 5654 4f3f eed4 493f
00000250: 77f3 593f 9ad4 8c3f 6463 713f 0273 853f
00000260: b6d7 7b3f 7273 e73e 29d3 523f 0f34 943f
00000270: eeb2 943f f661 783f ebe6 813f fb0f 483f
00000280: 2938 5c3f fc6f 8f3f cdb0 5c3f 57d6 5e3f
00000290: b7e5 473f 763b 743f 6c68 6f3f 1ac8 3e3f
000002a0: 2111 933f 3df8 693f d100 713f 7d65 6f3f
000002b0: 32ca 833f 978e 553f 6f2a 913f 3ee8 733f
000002c0: 8ea8 643f 228c 8b3f 975e 723f 61c0 833f
000002d0: fd78 6c3f 6d5b 8b3f d836 353f b99f 573f
000002e0: a7e5 813f 2af7 843f 800a 6c3f adb9 743f
000002f0: 755e 4a3f 2887 3c3f 2619 503f 6748 a63f
00000300: b796 933f 300f 503f 2dd0 8d3f 53f5 683f
00000310: 428e 803f 19f1 8c3e 7333 0b3f b7bf 853f
00000320: 75a2 693f 0051 873f 57c5 a43f d3e8 553f
00000330: db4f 7f3f 5b5b 563f e0f1 433f 52c7 6b3f
00000340: a830 463f b775 6b3f 9640 873f 19c0 323f
00000350: 7250 7f3f 4821 853f 38a6 8f3f dec8 703f
00000360: 0c32 443f 707e 6e3f fedb a23f c3ae 673f
00000370: 2aa8 213f 5f5a a23f d216 9e3f b268 7f3f
00000380: 25bf 383f 67bd 793f e758 953f 9ac2 583f
00000390: 4886 473f e095 883f dd3c 793f 035e 833f
000003a0: 4a09 303f 776e 903f bcb6 743f 3057 823f
000003b0: 4f6f 7c3f 3158 943f 8ac2 813f 53c6 803f
000003c0: 0d18 7e3f 30e1 5c3f c084 373f 2d4b 613f
000003d0: 4a11 a33f 5d29 b03f eed9 613f f557 883f
000003e0: be2f 3a3f 41e4 693f a15b 7c3f 287f 883f
000003f0: f4a8 443f 846c 613f 2d65 8c3f 1cde 833f
1.128593 1.0664349 1.2267574 1.0337781 1.0820601 0.70801896 0.9222677 0.85032696
0.6933965 0.89838994 1.258887 0.9935714 1.0943272 0.72350615 0.8600188 0.99835205
0.9629309 1.149272 0.850562 0.7471146 0.6115434 0.9793873 0.9443524 0.9911062
1.0131305 1.0686096 0.80839366 0.8310657 1.0358434 0.3959411 0.9413949 0.96398234
0.9089508 1.0309658 0.89990073 0.78996044 1.1744727 0.65491647 1.1731291 1.1551406
0.69485 1.1144122 0.92898697 1.0513327 1.3821043 0.7837417 1.0659305 1.0178624
0.9470306 1.025065 1.1098685 0.96985257 1.0422951 1.1389698 0.96023273 0.88251865
0.92973155 0.80122536 0.9052026 0.94580823 0.85807335 1.126516 0.9487589 0.8372591
1.1497498 0.92575413 0.85719347 0.8239034 1.1934955 1.241269 1.0716408 0.9224562
0.848385 1.2030292 0.5829105 0.8068171 0.67071825 0.90917015 0.8581443 0.77678776
1.0214765 1.0230448 0.6327371 0.7407475 0.89162713 0.96028 0.8857016 0.884726
0.7009187 0.8703979 0.88395613 1.075628 0.8986416 0.8926877 1.0254952 1.0125355
0.7472489 0.6600468 0.8873771 1.2743238 0.76546997 0.97591305 0.706795 0.99460137
0.59049475 0.7938898 0.9328451 0.8207603 1.0473182 0.83313984 0.53466016 0.80712044
0.7745129 1.1060326 0.88761485 1.0969869 1.0252848 0.6201248 0.8764751 0.84193987
1.064071 1.1728822 1.0356908 0.84580976 1.0893553 0.8333587 0.70224893 1.2599865
0.76859087 0.9408485 1.0859461 0.7359655 0.9916048 0.7309225 1.0402513 1.1709398
1.226967 0.80932903 0.99044186 1.0772805 1.1145152 0.9911346 1.1339586 0.89274293
1.3617042 0.94289666 0.8098806 0.7884053 0.8513712 1.1002381 0.94292283 1.0425723
0.98376024 0.45205265 0.82353455 1.1578387 1.1617105 0.97024477 1.0148596 0.78149384
0.86023194 1.120605 0.86207277 0.87045807 0.7808489 0.9540323 0.9351871 0.7452408
1.1489602 0.91394407 0.9414187 0.93514234 1.029608 0.834207 1.1341075 0.9527625
0.89319694 1.090214 0.9467558 1.0293084 0.92372113 1.0887276 0.7078681 0.8422809
1.0148209 1.0387928 0.9220352 0.9559582 0.7905038 0.7364373 0.81288373 1.2990845
1.153037 0.81273174 1.1079155 0.90999335 1.0043414 0.27527693 0.5437538 1.0449132
0.91263515 1.0571594 1.2872723 0.83558387 0.99731225 0.8373315 0.76540947 0.92101014
0.77417994 0.91976494 1.0566585 0.6982437 0.99732125 1.0400782 1.1222601 0.940565
0.76638865 0.9316168 1.2723386 0.9050104 0.63147223 1.2683829 1.2350714 0.9976913
0.72166663 0.9755463 1.1667756 0.8467194 0.7793927 1.0670738 0.97358495 1.0263065
0.68764174 1.1283711 0.9559133 1.0182858 0.98607343 1.1589414 1.0137494 1.0060524
0.9925545 0.8628111 0.71686935 0.88005334 1.2739651 1.3762623 0.8822316 1.0651842
0.727291 0.9136391 0.98577315 1.0663805 0.768203 0.88056207 1.0968376 1.0302157

bn1.bias f4 [512]
00000000: cf82 91be 9bc3 efbe 21b5 edbe 673f 79be
00000010: be0d a7be c619 25be 58cf a2be 2bf9 09bf
00000020: 59bf 07be f2ef 7fbe 3187 98bd e3bc aebe
00000030: 933d d5be 7945 f6be f216 b9be 018c 06bf
00000040: e011 bebe 2f96 87be afe4 33bd 9f5a bdbe
00000050: 7e11 f53d 446f fabe e76e 04be bf25 9abe
00000060: 9df7 e3be 5339 13be 0685 75bd 9836 bebe
00000070: f728 3abe c3bc 11bd 022c b9be d3f2 a0be
00000080: 311e a8be 8e5a bbbe 0a2d e5be 5255 0ebf
00000090: b6ef 56be 5710 39be a457 cdbe 5d3e fabd
000000a0: 5c51 70be e084 1cbe 0d67 95be 19e5 f9be
000000b0: 06f3 86bd 1216 4bbe 9669 33be 3f9f 6dbe
000000c0: d363 94be 10a3 b1be 9988 02bf 6948 6abe
000000d0: ca1c f3be af66 f9be f52b dfbe e9a1 c4bd
000000e0: cddd 80be bd9b 88be 2fda 8cbe 67db 98be
000000f0: efff 06bf 9c23 19bf 7489 6ebe c5d6 69be
00000100: 67f2 a8be 85ce 5bbe 0f15 8dbe e379 a0be
00000110: bb27 03bf 2052 b9be 2d65 19be 3fc6 d0be
00000120: e193 2dbe b688 ddbe 81cb 20be 617b adbe
00000130: 352e 63be 6ca5 0dbf 7d07 53be 3f54 28bf
00000140: 8096 dcbe ce73 abbc 194d cabe 9cf6 15be
00000150: 6ffd ccbe 7e36 d5be 4abe b4bd 8dbd c0be
00000160: 8556 90be 0890 a1be 6f57 f7bd 68c9 89be
00000170: 7e2f 9cbe 970c c3be 3755 dabe c015 6abe
00000180: cd96 85be 649f 31be 1947 0ebf 3b9d b1be
00000190: c17f 86be 86d3 aebe a973 b23c 86ba 6dbe
000001a0: cb08 4bbe 3e6f f4be 1d05 b4be 8300 adbe
000001b0: 62d9 23be 61e1 8cbe 3e52 2fbe 708b cdbe
000001c0: 5a34 3fbe b0ae 0ebf 7ba1 d0be e5d6 cebe
000001d0: 0cff 8ebe 7440 9dbe ff23 e4be 3b44 2cbe
000001e0: dca2 16bf 59f3 4cbf f1ee 08bf f75d aebe
000001f0: ae93 ddbe 52f2 17bf 1459 debe d66a 12bf
00000200: c0eb bbbe 1bf1 59bc e1fb 48be 374f bbbe
00000210: e7b5 52bf e538 42be b813 f0be e09e 60be
00000220: 9999 81bd 7d73 0cbe ac28 edbd ba94 ccbe
00000230: edfe 9abe 8767 13bf 6346 98bd f70a 47be
00000240: e26a 193e a11f 8bbe d25c 07be 45ea c6be
00000250: f10f 78be e867 f3be 6498 a2bd 7c7c dabe
00000260: 1141 c6be 7994 2cbe 0854 05bf 2c92 80be
00000270: 1230 03bf 055b 05bf 25b9 d0bd 8f7f c4be
00000280: 17ee 54be 1a3d e6be 1a9b dcbe c64f 65be
00000290: 9774 88be 2da6 20bf 9bb0 94be 3ff9 a7be
000002a0: d0c5 65be a363 a1be 0575 cdbe fe73 e9be
000002b0: 5ad0 aabe 9046 9bbe 36e0 c73d 67bc 36bf
000002c0: 7a4a 23bf 32a0 e3be a4f6 cfbe 87e6 ccbe
000002d0: cb9c e7be 2da9 0bbd cc66 fabe 4a73 8cbb
000002e0: d3ea 81be 9c7d 06bf dc32 b1bd ecc6 96be
000002f0: 1660 5ebd 87e1 a0be f713 b5be 8f67 88be
00000300: a980 963d 6120 e8bd ab75 14bf 4399 05be
00000310: 6004 e9be 7881 b6bc f42f 58be 7eee e5be
00000320: d0f8 413d 8c41 afbe 9efd 29bf cb81 f6be
00000330: 4b8b afbe 4d07 09be 986b a3bd a440 ecbd
00000340: 4220 c3be 60da e7be f54f f9be 09d9 80be
00000350: 6f2b f8be e819 bcbe 1fd4 48be 225a f4bd
00000360: 7524 45be ef85 abbe ae74 21bf 37aa a5be
00000370: 0968 8ebe 3d64 3b3d b6ba e3be 7e0b 61be
00000380: 9f82 96be a344 a1be 3e81 a8be 1f96 5bbe
00000390: 796a 91be da85 94be 06be cabe b0c3 7fbe
000003a0: 35a5 a9be 35f0 2bbf feb1 82be d513 c6be
000003b0: cd49 30bf 90f0 a4be 0f0f a4be 90db 6bbe
000003c0: 983a aebe 871b 25be 4181 8ebe 7b77 40be
000003d0: e5c6 2ebf 5850 b4be 7749 05be 3aec 29bd
000003e0: 5165 0abf a51d 1cbe 1053 abbe 6461 0fbe
000003f0: a73c 94be ab51 a5be d56c 9cbe f62e 45be
-0.28420112 -0.46828923 -0.46427253 -0.24340592 -0.32627672 -0.16123113 -0.31798816 -0.53895825
-0.13256587 -0.24993876 -0.07447661 -0.34128484 -0.4164854 -0.48099878 -0.36150318 -0.5255738
-0.37123013 -0.26481768 -0.04391926 -0.369832 0.11966227 -0.48913014 -0.12932931 -0.30106923
-0.4452485 -0.14377336 -0.059941314 -0.37151027 -0.1817969 -0.035580408 -0.36166388 -0.3143526
-0.32835534 -0.36592525 -0.44760925 -0.5559894 -0.2098988 -0.1807264 -0.40105927 -0.12218926
-0.23468536 -0.15285063 -0.29180184 -0.488076 -0.06589322 -0.19832638 -0.17520747 -0.23205279
-0.2898241 -0.3469472 -0.5098968 -0.22879185 -0.47482902 -0.48711154 -0.43588224 -0.096011944
-0.2516922 -0.2668132 -0.2751021 -0.2985489 -0.52734274 -0.5981996 -0.23294622 -0.22835834
-0.32997438 -0.214655 -0.2755513 -0.31342992 -0.512325 -0.3619547 -0.14980002 -0.4077625
-0.16950943 -0.43268365 -0.1570263 -0.33883193 -0.22185595 -0.5533054 -0.20608325 -0.6575355
-0.43083572 -0.020929243 -0.39511946 -0.14644855 -0.40037104 -0.41643137 -0.08825357 -0.37644616
-0.2819101 -0.315552 -0.120772235 -0.26911473 -0.30504984 -0.38095543 -0.4264314 -0.2285986
-0.26091614 -0.17345959 -0.55577236 -0.3469027 -0.26269343 -0.34145755 0.021783667 -0.23215684
-0.19827573 -0.4774112 -0.3516015 -0.33789453 -0.16000894 -0.275157 -0.17121217 -0.40145445
-0.18672314 -0.557353 -0.407482 -0.40398327 -0.2792896 -0.30713236 -0.44558713 -0.16822903
-0.58842254 -0.8005882 -0.53489596 -0.34056064 -0.43276733 -0.59354126 -0.43427336 -0.5719427
-0.367033 -0.013302113 -0.19627334 -0.36583874 -0.8230881 -0.18967016 -0.46890044 -0.21935606
-0.063281246 -0.1371593 -0.11580023 -0.3995722 -0.30272618 -0.57579845 -0.074353 -0.19437777
0.14982179 -0.27172568 -0.13219002 -0.38850608 -0.24224831 -0.47540212 -0.079392225 -0.426731
-0.38721517 -0.16853513 -0.52081347 -0.2511152 -0.51245224 -0.5209201 -0.101915635 -0.3837857
-0.20793949 -0.44968492 -0.43087083 -0.22393712 -0.2665145 -0.62753564 -0.2904099 -0.32807347
-0.2243874 -0.3152133 -0.4012834 -0.45596308 -0.33362085 -0.30327272 0.09759562 -0.7138123
-0.6378552 -0.44458157 -0.4061786 -0.40019628 -0.4523681 -0.034096885 -0.48906553 -0.0042862045
-0.2537447 -0.52535415 -0.08652279 -0.2944864 -0.054290853 -0.31422064 -0.35366794 -0.2664151
0.07348759 -0.11334301 -0.5799205 -0.13046746 -0.4551115 -0.022278532 -0.21112043 -0.44908518
0.047356427 -0.34229696 -0.66402614 -0.481459 -0.3428596 -0.13381691 -0.07979506 -0.11535767
-0.38110548 -0.45283794 -0.48693815 -0.25165585 -0.48470637 -0.36738515 -0.19612168 -0.11931254
-0.19252189 -0.3350062 -0.63068664 -0.32356426 -0.27813748 0.04574989 -0.44478387 -0.2197704
-0.2939653 -0.31497678 -0.32911104 -0.21443985 -0.28401545 -0.2900837 -0.395981 -0.24976993
-0.33133855 -0.671634 -0.25526422 -0.38687006 -0.6886261 -0.32214785 -0.3204274 -0.23032975
-0.34029078 -0.16123782 -0.27832988 -0.18795578 -0.6827224 -0.35217547 -0.13016306 -0.04148505
-0.54060847 -0.15245683 -0.3346181 -0.14001995 -0.28952524 -0.3228887 -0.30551782 -0.19256195

bn1.running_mean f4 [512]
00000000: 6a4a e9bb 9bad 02bb c663 833c 03de 0c3c
00000010: 8ff3 3e3c c4ca ee3b 38f0 cd3b 4576 ccbb
00000020: d00d a0b9 8b59 06bb 50ad 6fbc 9409 493b
00000030: ac31 9bbb 4376 c33a 6cde 903b b98d 463a
00000040: 4084 39bb 4e93 0a3b b9f9 64bb 00dc 743b
00000050: 7f5f edbb f0db 90bb e5fe e53b 838e c339
00000060: 01cd 9d3b 30d1 2539 e18e 053c 4d0d 923b
00000070: c18f 803c c9be 9bbb 488d 9eba e2f0 12bc
00000080: 59a0 efbb a255 3cb9 db6e 083c 7c58 e43a
00000090: e4a9 b33b 3c6e 11bb 9d1f 10bc 78f7 143c
000000a0: 8ea9 463b 7ac7 013c c8fa 2cbc 1ee8 d33b
000000b0: 8d8f b6bb 76f7 783c 3eb2 ddbb b3d4 a03b
000000c0: dca0 90bb 572d 94bb a8d4 c4bb d579 1f3b
000000d0: 6967 38bb f8bb 8ebb a01e 8e3b 5d64 92bb
000000e0: f875 bdbb bbd2 823b 6e7b c1bb 2010 123c
000000f0: 2b19 5cba 6293 e13a caa3 ecba 223c eabb
00000100: 4ed4 193a 7803 9abb 5a11 05ba bd16 5abb
00000110: de35 a13b da37 07ba 380d 413c 6c8c 153b
00000120: 50aa 40bb ce77 eebb c6eb b5bb a051 d6ba
00000130: b768 75ba eedb 2b3b d950 ae3a d274 24bb
00000140: 85b0 f53b 222d 07bb 9f49 15bb 7f53 573a
00000150: 665e 48bb ec04 523b 19ae 54bb 33a3 0d3c
00000160: 5eb2 a5bb 964c d9ba 6226 a8bb 4637 453b
00000170: e979 dbba 3e33 ef3a 8435 2bbc a428 873a
00000180: 0099 6fbc 42de 2e3c e328 a4bb fd43 d83b
00000190: 78d9 00bb 2759 2f3b e0f5 733b 6dc9 55bb
000001a0: 7519 81bb d513 68bb dda0 19bc 11c7 b23b
000001b0: 1ea9 413c 0d11 1e3b a08c 01bb 083f e83a
000001c0: 53eb 043b fa64 313b 9a36 a1bb ac6c f03a
000001d0: c4ed 2dbc 56cf 0ebb e06f 00bb 057f 533a
000001e0: 4ace f73b c089 e2ba b30d 763b 64ea b03a
000001f0: e034 80bb 3201 a33b bccb 7f3a 28ae 463c
00000200: 4281 1ebb fec4 303c 1c5f 183c 4aa7 ec3b
00000210: 5bda aeb9 0cf2 feba a595 80bb ae4c a5bb
00000220: 7188 d43b 0c79 7fbb 331a e5b8 9aee 0c3c
00000230: 2471 d0bb da6e e1bb 3533 1fbc 8c93 c0ba
00000240: fb97 073c 6f82 793b 6a5e 90bb 2df3 b0ba
00000250: 9750 acbb 0d2d b53b 14b3 f53a 3f96 383c
00000260: becd 1b3a 7adc 3ebb 5400 9cb9 b8f0 d03b
00000270: 2f43 1f3a 7d6e ab3b 1cd6 c3ba 640f 2eba
00000280: 1636 d33a 94df 353c 7f76 17bb 15af 8039
00000290: 278f ebba f0c1 e3ba 1d48 8ebc bc39 323a
000002a0: 2739 bc3b 79ff 85bb f427 c93b 3a54 bb3a
000002b0: 2e28 aa3b d40e 83bb f6ce 2fbc 15a8 793a
000002c0: b4b2 adba e62b 03bc 489d fd3b 9feb 0cbc
000002d0: 40e7 5f3a d1ae 1f3c 3510 573b 2406 863a
000002e0: f770 57ba 3922 fdbb 0061 8c3a 8cfd c8bb
000002f0: 739d d23a ed27 0d3b 9c9a 22bb 6a61 00bc
00000300: 5018 c6bb ebba 18bb ca91 01bb 861a 37bb
00000310: b866 51bb 2414 6fbb 2876 4fba b830 323b
00000320: 40df cd3b a640 493b 4ec1 833c 39b7 97bb
00000330: 4c9e a93b f2bf 5fbc 107f 84b9 00b9 95bb
00000340: 5a95 f53b ba90 943a 17a7 47bc 1e0a 0c3b
00000350: ca62 9a3b 3264 aa3b 1d21 d439 c88c ff3b
00000360: a6e1 7cbb b9a6 cbbb 98e7 8dbb 940f 9b39
00000370: 5154 a0bb 9e62 473c 3df4 c6bb ea0a 2b3c
00000380: 3d5c 95bb f23d 5cbc 71a2 313c 381b c23b
00000390: 0739 2abb f0a5 893a 7c22 e33b cd3f d1ba
000003a0: 762a 49bb 1457 6dbb c746 123c 4ecc 043b
000003b0: fc46 83bb 7872 79bb 188a 913a ca6b 593b
000003c0: 30b8 6cbb 7872 123b af28 fbba 927c 03bc
000003d0: 5a24 7cbb 1026 f9bb 9d58 f6ba d998 f33b
000003e0: fe86 63bb addd 40bb 770c e43b dbe4 34bb
000003f0: 5570 a0ba 3ec0 cbb9 f9b8 0fbb 735c 81bc
-0.0071194666 -0.0019939903 0.016038787 0.008597854 0.011654749 0.007287355 0.00628474 -0.0062396848
-0.0003052787 -0.002050015 -0.014628723 0.0030675875 -0.004736146 0.0014912564 0.004421046 0.0007574219
-0.0028307587 0.002114493 -0.0034938885 0.0037362576 -0.00724405 -0.00442075 0.007018911 0.00037299478
0.004815698 0.00015813555 0.008151741 0.004457152 0.015693547 -0.004752968 -0.0012096548 -0.008968564
-0.007312816 -0.00017960978 0.008327211 0.001742139 0.005482899 -0.002219095 -0.0087966 0.009092204
0.0030313465 0.007921094 -0.010557838 0.0064668795 -0.005571312 0.015195718 -0.006765633 0.004908168
-0.004413707 -0.0045220065 -0.006006796 0.0024334092 -0.002813781 -0.0043559037 0.004337147 -0.0044675306
-0.0057818852 0.003992406 -0.0059046065 0.008914977 -0.00083960843 0.0017210061 -0.0018054184 -0.0071482817
0.00058681227 -0.0047001205 -0.0005076133 -0.0033277713 0.0049197515 -0.0005158164 0.011782937 0.0022819294
-0.002939839 -0.0072774654 -0.005551788 -0.001635123 -0.0009361612 0.0026223618 0.0013299241 -0.0025094044
0.0074978494 -0.0020626266 -0.0022779477 0.0008214041 -0.0030573844 0.003204639 -0.0032452403 0.008644867
-0.0050566634 -0.001657861 -0.0051315287 0.003009276 -0.0016744706 0.0018249524 -0.010449771 0.0010311794
-0.01462388 0.010673108 -0.005009757 0.0065999017 -0.0019660871 0.002675602 0.003722541 -0.003262128
-0.0039398023 -0.0035412211 -0.009376732 0.0054558595 0.011820106 0.002411905 -0.0019767657 0.001771898
0.0020281866 0.0027068243 -0.004919839 0.0018342934 -0.01061577 -0.0021791062 -0.0019597933 0.00080679386
0.0075624334 -0.0017283484 0.0037544786 0.0013497588 -0.003912553 0.0049745077 0.0009757837 0.012126483
-0.002418593 0.010789154 0.00930002 0.007222091 -0.00033350554 -0.0019450798 -0.003924089 -0.0050445413
0.0064859916 -0.0038982062 -0.00010924451 0.008601809 -0.0063611437 -0.0068796696 -0.009716799 -0.001469241
0.008275981 0.003807213 -0.0044057863 -0.0013500206 -0.0052586305 0.005529052 0.0018745386 0.01126629
0.0005943439 -0.0029123113 -0.00029754883 0.006376352 0.000607538 0.005231677 -0.0014941129 -0.00066398666
0.0016114141 0.011100668 -0.00231114 0.0002454451 -0.001797174 -0.0017376523 -0.01736837 0.0006798764
0.005744118 -0.0040892926 0.006138796 0.0014292069 0.005192778 -0.0039995704 -0.010730496 0.00095236424
-0.001325211 -0.008006072 0.0077396967 -0.008601098 0.0008541234 0.009746269 0.0032816057 0.0010225219
-0.0008218432 -0.007725027 0.0010710061 -0.006133741 0.0016068652 0.002153869 -0.0024811393 -0.007835725
-0.0060453787 -0.0023304771 -0.0019770735 -0.0027939393 -0.0031952094 -0.003648051 -0.000791403 0.0027189683
0.006282717 0.00307087 0.016083386 -0.004629996 0.005176341 -0.013656603 -0.0002527167 -0.004569173
0.0074946107 0.0011334636 -0.012185833 0.0021368335 0.0047114836 0.0051999325 0.00040460462 0.007798765
-0.0038586645 -0.0062149432 -0.0043305866 0.0002957551 -0.004892864 0.012169508 -0.006071596 0.010439614
-0.004558115 -0.013442503 0.010841952 0.005923655 -0.0025973932 0.0010501724 0.006931601 -0.0015964449
-0.0030695475 -0.0036215233 0.008928007 0.0020263377 -0.0040062647 -0.0038062613 0.0011103777 0.003317582
-0.0036120526 0.002234606 -0.0019161905 -0.008025305 -0.0038473816 -0.0076034144 -0.0018794719 0.0074339923
-0.0034717913 -0.0029429004 0.0069594937 -0.0027602229 -0.0012240509 -0.0003886241 -0.002193032 -0.015791154

bn1.running_var f4 [512]
00000000: 8ff7 f33e dba8 b43f f31d 373f 4fbd 343f
00000010: 59d7 303f e568 543f 20b8 903f 3ee6 1640
00000020: 084b 373f 2c7d eb3f 343d 883f dd00 833f
00000030: 0021 3d40 ef45 b53f 99cd 1740 9135 3c3f
00000040: cf2c 963f aed2 e43e 038b d23f b746 f63f
00000050: 28d6 5a40 97e4 fa3f a892 fb3f d9c1 733f
00000060: 0280 1340 a15a 5f3f 3d0c c83f fa15 b43f
00000070: 3328 123f 2990 1040 cf8c 8f3f 7561 103f
00000080: dbf0 963f 7f69 393f 9d61 383f b2e6 a33f
00000090: 9215 813f 9e77 7c3f adeb 453f e419 b33f
000000a0: 8630 b63f af93 933f f4fd ce3f 8a91 8e3f
000000b0: 8696 903f 586f f03f c3df 3b3f 5578 b43f
000000c0: b30d 5f3f 1df0 df3f 92a7 c73f bf38 9f3f
000000d0: f790 c13f 5684 3d3f aea5 1e3f d29a 823f
000000e0: 109b 563f 66d0 bf3f 55ea a13f 8fd6 173f
000000f0: a01e e43f 8727 553f f1f1 b83f f367 393f
00000100: 001c 1c40 6cbf 6d3f dc22 bc3f 1d42 823f
00000110: 81c8 a93f c730 333f 8e1a 093f 1a1c 6840
00000120: 1a14 943f 1475 c33f d1eb 883f 231c a13f
00000130: 8f6e c63f 48f3 6e3f 3995 8940 a680 cf3f
00000140: c9cb 113f c44f 323f 0fa0 3e40 be23 943f
00000150: d9ae 2640 fd0f 833f 29f6 a93f 4c68 a53f
00000160: eb74 8b40 8a44 4140 019a aa3f cf52 1c3f
00000170: acd9 d63e 07b6 843f 253b ef3e 10f3 9e3f
00000180: cd80 cd3f 4c6f db3f 0759 ef3f a06d 693f
00000190: c2f2 0640 a72b ac3f 240e e03f 4fb4 b43f
000001a0: e648 1040 90f7 d73f 028d 273f 12a2 8f3f
000001b0: 8522 543f 797a c33f dc79 0940 3486 383f
000001c0: 1177 4240 cdb9 4a3f b488 e93f 9b1f ae3f
000001d0: 781a 1c3f 75e6 db3f aa25 0340 ef33 3a3f
000001e0: ab52 e63f d299 603f 4e4a 603f e8f1 0e40
000001f0: 5b72 f53f 2b17 783f 50bd 843f 17e9 873f
00000200: 9bca 1140 b966 c63f 06af 143f c564 583f
00000210: 2649 903f 5ba6 873f b047 ee3f 10e5 3c3f
00000220: ff7a 7a3f 20c3 9c3f 5d2f 443f ded1 7a3f
00000230: 6349 a03f 621a ab3f 824d e93e 935b 6a3f
00000240: 6dd6 fa3e 8e37 963f bcd2 7e40 fdea 0f40
00000250: 6cfb 1c3f 38f3 493f 01bb 363f e9f0 563f
00000260: 3b50 cb3f f9ed fe3f d0fb 743f 80c7 a73f
00000270: c8b8 033f 37ff 423f 50e8 963f 7069 943f
00000280: ce10 903f 4fb9 8a3f 3e55 a23f 5202 a840
00000290: c2a4 673f 8fbc 2d3f d66c f53e ebf4 aa3f
000002a0: 8f8b 063f 5bec a93f b4a4 883f 72cd cc3f
000002b0: 4167 e33e b4d2 0440 3b0f 0d3f ae79 b93f
000002c0: 8e47 6f3f f1ef c53f febf 883f 5314 0040
000002d0: 4aaa 233f cd76 493f 0c37 883f 7102 883f
000002e0: a0d2 d43f 9772 1b40 9ae7 1a3f d7c7 8a3f
000002f0: 6337 db3f 8f81 703f d8a0 c33f 08e2 693f
00000300: 484d 443f 7e1a 4f3f 6a6c 333f 0c99 ce3f
00000310: ce4d 3f3f c5c0 3c40 5176 ff3f f23d 013f
00000320: 70f0 633f 05e5 2f3f 4f68 d93f 255a 3d40
00000330: bdbe 363f 7d2c 9a3f 88af cf3f b83e 7b3f
00000340: a764 ff3f 1a5e be3f 95bb 5c3f eb76 3c40
00000350: 52ee 683f fd4c d53f 53ea 233f 8bd3 c73f
00000360: f7d2 8c3f bce1 623f 4fb7 3d3f f19d ef3f
00000370: 2a13 7740 4243 833f d0a8 963f 53c8 853f
00000380: 3b7c 1240 8821 6b3f 2e06 4c3f 3ff2 1a40
00000390: a1a2 823f 84d7 9e3f 0a27 5e3f 9f5b 9a3f
000003a0: 1755 6c3f b29b 823f 8692 933f 86e2 2c3f
000003b0: 3dbc 613f 13ab 8b3f 7505 5d3f b0aa 0340
000003c0: 9498 0540 e89b ee3e 3a99 6b3f 87f5 493f
000003d0: c567 e93f db36 0a3f a31e d73f 7abb 9b3f
000003e0: d509 6c3f 4f28 583f 96f6 543f 6958 923f
000003f0: e9a7 9a3f e01f db3f 0b53 513f 76fa c33f
0.4764981 1.4114031 0.71530074 0.7060136 0.69078594 0.82972556 1.130619 2.3578029
0.71598864 1.8397574 1.0643678 1.0234638 2.9551392 1.4161967 2.3719237 0.73519236
1.1732424 0.44691986 1.6448673 1.924033 3.419321 1.960101 1.9654131 0.95217663
2.304688 0.87247664 1.5628735 1.4069207 0.5709259 2.2587988 1.1214846 0.5639871
1.1792253 0.724266 0.72023946 1.2804778 1.0084708 0.9862002 0.7731274 1.3992276
1.4233558 1.1529444 1.617125 1.1138165 1.1295936 1.878398 0.7338831 1.4099222
0.8713028 1.7495152 1.5598013 1.2439193 1.5122365 0.74030054 0.6197156 1.0203497
0.83830357 1.4985473 1.2649637 0.59311765 1.7821846 0.8326344 1.4448835 0.7242424
2.439209 0.9287021 1.4698138 1.0176426 1.3264314 0.69996303 0.53556144 3.6267152
1.1568635 1.5270104 1.0696965 1.2586712 1.550249 0.9333997 4.2994657 1.6211135
0.56951576 0.6965296 2.9785192 1.1573408 2.6044219 1.0239254 1.3278247 1.2922454
4.358022 3.0198083 1.3328248 0.61063856 0.41962945 1.036805 0.4672481 1.2417927
1.6054932 1.714334 1.8699044 0.911829 2.1085668 1.3450822 1.7504315 1.4117526
2.2544494 1.6872425 0.65449536 1.1221335 0.8286517 1.5271751 2.1480627 0.7207978
3.0385172 0.7918976 1.8244843 1.3603395 0.6097789 1.7179705 2.0491738 0.72735494
1.7993978 0.8773471 0.8761338 2.2335148 1.9175524 0.9691035 1.0370274 1.0618008
2.277991 1.5500098 0.58079565 0.8452876 1.1272323 1.0597643 1.8615627 0.7378702
0.9784393 1.2247047 0.7663477 0.9797648 1.2522396 1.3367426 0.45566946 0.9154598
0.4899172 1.1735704 3.9816122 2.2487175 0.6132114 0.7888675 0.71379095 0.8396135
1.5883859 1.9916373 0.95696735 1.3107758 0.5145383 0.76170677 1.1789646 1.1594677
1.1255128 1.0837802 1.2682264 5.2502832 0.90485775 0.6786584 0.47934598 1.3355993
0.525567 1.3275255 1.0675263 1.6000197 0.44414714 2.0753603 0.55101365 1.4490259
0.9346856 1.5463849 1.0683591 2.0012405 0.63931715 0.786969 1.0641799 1.0625745
1.6626778 2.428869 0.60509646 1.0842236 1.7126278 0.9394769 1.5283461 0.9136052
0.7668042 0.808998 0.700873 1.6140456 0.74728096 2.9492657 1.9957982 0.50485146
0.89038754 0.6870883 1.6984957 2.958627 0.71384794 1.2044827 1.6225443 0.98142576
1.9952592 1.4872468 0.8622373 2.9447582 0.9098865 1.666412 0.64029425 1.5611433
1.1001881 0.88625693 0.7410783 1.8720075 3.8605447 1.02549 1.1770267 1.0451759
2.2888324 0.9184804 0.7969693 2.4210355 1.020588 1.240952 0.8677832 1.205921
0.92317337 1.0203764 1.152909 0.6753315 0.88177854 1.0911583 0.8633645 2.057293
2.0874376 0.46603322 0.9203068 0.7889027 1.8234793 0.5398995 1.6806225 1.2166588
0.922025 0.84436506 0.8318876 1.1433231 1.2082492 1.7119102 0.8176734 1.531081

fc2.weight f4 [256, 512]
00000000: 6ce1 54be bd37 10bf e267 82bd 462d b83d
00000010: a2be 2e3e 2d59 593e eb23 3cbe 3bc0 603d
00000020: b9b7 d53d 0535 883e 4bc9 4e3d 268b 9e3c
00000030: 4b5e b93d a1e5 f43d 6a59 deba 7db9 6b3e
00000040: 48b6 e53d bab8 9b3e 79d2 363e 09ba 943d
00000050: dd77 bfbd c1fa f13e cc55 553e 56af 013e
00000060: 3781 003d c9fc a3be c0be a13c cc4e 5f3e
00000070: af65 473d 2fd2 2ebc ec01 1e3e bbb0 383d
00000080: fada 2cbc fd3c 7e3c b492 2b3e df79 b23d
00000090: 58ad d93e d8e9 123e 6f5b 03bd 86de aa3d
000000a0: 0f7d b0be 0a2e 01bf 1431 2b3d 3e20 d13d
000000b0: 066e 06bd 15a9 b33d be4c 443c 667a 8cbe
000000c0: af66 5c3e 459d 6cbd 2664 a0bd ccb7 a73d
000000d0: 2c09 e83d 34cd c7bc 5faa 3a3e c88f 9b3a
000000e0: 7245 44be 7435 fdbd 2c9a 703e 8c70 ccbd
000000f0: 5041 fdbd 7329 9cbd bb2f dcbd 5883 f1bd
00000100: 6923 c93d 7d57 2b3d 1f45 873e 902f 73bd
00000110: 5abe acbe 2147 d6be e4ff f73c 2511 d4bd
00000120: 5936 993d eacd 333e ca64 1cbe b161 203d
00000130: dd75 30bd 0950 843d bf11 b33e 0c81 d9be
00000140: abcd 4a3d e66c 8c3d a59d 8c3d 7e87 33be
00000150: 8876 5f3d 3ba5 22bf 78db d83d c498 8abd
00000160: 9e49 263e f23b 6bbc e27c b3bb f130 a63d
00000170: 3ad7 cdbd 0fd2 a4bd 28a3 d2bb fdfd d53d
00000180: 68f0 7fba ee84 fe3d 4a94 e03d 29c5 d8be
00000190: 59cf 7c3e e471 0fbe 949b 083e 6d2d 5cbe
000001a0: cb37 cdbd da94 85bc affe 9a3c 2f0e 47bd
000001b0: 7080 b6bd ab30 a93e 9cf6 4cbd cb07 743e
000001c0: d443 41bd 365a e7bd 6f26 a73d e0db ea3d
000001d0: 665f c93d be69 b03d 7776 ea3c 8fc4 ffbd
000001e0: 15e9 633d b93c 3dbe dd06 2bbd 4afc 5d3d
000001f0: cfdd d9be 0415 03be 6075 d93d 2b22 52be
00000200: 70be 4abe 5819 9c3d 93ad 2abf 9204 ffbd
00000210: 4679 0c3f 4bca 34be 1a5f 813b d26e 24bf
00000220: 81e3 20bf 14a1 033d 779f c7bd 3678 a23c
00000230: 662a cdbe 7336 cebb c16b 3c3e 3066 083d
00000240: bc38 573b 7c28 0cbd faf1 b63c 33b0 c6bc
00000250: 5921 57be 0743 353d 6bcd 943d d3ba 203e
00000260: 05f8 2d3e bb22 a1be a9f0 98bd 150d fc3c
00000270: 1320 823d de29 8abe 0166 a63d 377d 9c3d
00000280: 2ccf 063e db1e 1e3f de3e dc3d 4afd 983e
00000290: a500 d73d 57f7 36be 8a8d f53c 9351 a0bd
000002a0: 043a 8abd 0874 0ebe 76d7 8a3d a693 f43d
000002b0: 97ec 583c b06a 86bc f8e5 bd3c 9623 ba3e
000002c0: 48f3 acbc f681 0c3f 9679 813e 9e87 b73d
000002d0: 9797 013f ba7d cf3d 5673 493d 1458 883d
000002e0: b9fb dfbc 2b3a ca3e 0c33 263e 13fb ac3d
000002f0: dda2 9a3d 9006 253e 8f25 9abd 0350 a9be
00000300: 8495 69bd c80c 37be 0a72 363e 71cf 26be
00000310: f9fc 293d d3b4 53bd 9225 0fbd 4df9 813c
00000320: f2a7 453b ba47 bcbd 2f55 cbbd 96fb 813e
00000330: 6717 443e 3a37 1c3e 8f54 01be 42bd 7a3c
00000340: 9e07 d0be f1ad 973e e065 2abe 6b26 88bd
00000350: d48c 52be e50b a03e 97c7 a2be fa6c a13e
00000360: b667 1f3e 7981 9c3d 8da9 29bf 7739 e1bd
00000370: 4301 943e b53d 8b3e babd 02bf f806 03be
00000380: 586b 29bd 4ab5 e73e 1a9c acbc 6970 29be
00000390: 9f2e 773d 741e be3d e9de 5d3c 0d15 0ebe
000003a0: 1781 eb3d 54b6 ce3c e83d a53e 24bc 8c3d
000003b0: c3eb 84bc 6b53 2c3d 12df 8e3d 6b16 823e
000003c0: 0b9a 413e eda6 d6bc 10da 13be f11b d8bd
000003d0: 2aef 5c3e 0e92 97be 2e5e a93e 55eb 60be
000003e0: 1217 923e b722 69bd 3a6d e7bb 83bb 15be
000003f0: d04a 1abd c7a7 92bc 6589 0abe 6958 62bd
-0.20789117 -0.5633505 -0.0636747 0.0899301 0.17064908 0.21225424 -0.18373077 0.054870825
0.10435433 0.2660295 0.050484937 0.01935346 0.09051188 0.11957861 -0.0016963903 0.23019977
0.11216408 0.30414373 0.17853726 0.07262046 -0.09349034 0.47261623 0.2083351 0.12664542
0.03137323 -0.32028797 0.019744277 0.21807402 0.048680957 -0.010670229 0.1543042 0.04509042
-0.010550255 0.01551747 0.16755182 0.08714651 0.42515063 0.14347017 -0.03206962 0.08343224
-0.34470412 -0.50460875 0.04179485 0.10211228 -0.03281977 0.08772484 0.011981187 -0.27437133
0.21523546 -0.05776717 -0.07831602 0.08189353 0.113298744 -0.02438984 0.18229054 0.0011868412
-0.19167116 -0.12363711 0.23496312 -0.09982404 -0.12365973 -0.07625093 -0.10751291 -0.1179263
0.09821207 0.041831482 0.26419923 -0.05937153 -0.33738977 -0.41851142 0.030273385 -0.103548326
0.07481069 0.17559019 -0.15272823 0.039155666 -0.043081153 0.06460578 0.34974477 -0.42481267
0.049512547 0.06856708 0.06866006 -0.17532155 0.0545564 -0.6353337 0.10588735 -0.06767419
0.1623902 -0.014357554 -0.0054775337 0.081148036 -0.10050817 -0.08047878 -0.006428141 0.10448835
-0.00097633014 0.12427698 0.10965784 -0.4233792 0.24688472 -0.1400829 0.13340598 -0.21501704
-0.10020407 -0.01630633 0.01892027 -0.04859751 -0.08911216 0.33044943 -0.050039873 0.23831098
-0.047183827 -0.11296503 0.081616275 0.11467719 0.09832649 0.08613919 0.028620942 -0.124886625
0.055642206 -0.18480195 -0.041754592 0.05419568 -0.4255204 -0.12800986 0.10618091 -0.20520847
-0.19799209 0.076220214 -0.66671103 -0.124520436 0.5487255 -0.17655294 0.0039481046 -0.642316
-0.62847143 0.032136038 -0.097472124 0.019832712 -0.4007141 -0.006293112 0.1840048 0.03330058
0.0032840213 -0.034218296 0.02233218 -0.02425394 -0.21008815 0.044253375 0.07265743 0.15696268
0.16989143 -0.3147181 -0.07467777 0.030767957 0.06353774 -0.26985067 0.081249245 0.0764107
0.13164967 0.6176583 0.107541785 0.29880744 0.1049817 -0.1786779 0.029974718 -0.07828059
-0.06749347 -0.1391145 0.06779377 0.11942224 0.013240001 -0.016408294 0.023180947 0.36355275
-0.0211121 0.54885805 0.25288075 0.08961414 0.5062193 0.10131402 0.04918226 0.066574246
-0.02734171 0.39497504 0.1623041 0.08446326 0.07550595 0.16115785 -0.07526695 -0.33068857
-0.057027355 -0.1787597 0.1781694 -0.1629007 0.04150102 -0.05168612 -0.03494794 0.015865946
0.0030159918 -0.09193368 -0.09928357 0.25387257 0.19149552 0.15255442 -0.12629913 0.015303912
-0.4063081 0.29624894 -0.16640425 -0.06647953 -0.20561534 0.31259075 -0.317929 0.31528455
0.15566906 0.076418824 -0.6627434 -0.10997289 0.28907213 0.27195516 -0.5107075 -0.12795627
-0.041362137 0.452555 -0.021070529 -0.16546787 0.060347196 0.09283152 0.013541915 -0.13875218
0.11499231 0.025233425 0.32273793 0.068718225 -0.016225701 0.04207174 0.06976141 0.2540773
0.18906419 -0.026202643 -0.14438653 -0.105522044 0.21575609 -0.29603618 0.33079666 -0.21964772
0.28533226 -0.056917872 -0.0070625814 -0.14622311 -0.037669003 -0.017902268 -0.13528974 -0.055260096

fc2.bias f4 [256]
00000000: 30ce 97bc 9897 81bb 025b cbba 8ba1 1abc
00000010: faf7 acbb b6be 2a3b ee42 f1bb a6c0 94bb
00000020: 9a41 b1bb d05c 1abc d8c5 62bc 0073 163b
00000030: f01a 9c39 2ea6 a8bb 04a5 3c3c d4cb 133b
00000040: 8538 bf3b fff8 2fbc b26d ac3a c277 a0bc
00000050: d25c 933b ee08 45bc dd86 023c 6eac 673b
00000060: 0212 79bb 8e97 9739 827b 4a3c 8aad 3e3c
00000070: 349a a9b9 9273 3dbc 12b9 6abb 2c53 c33b
00000080: 3450 053a 43a2 943b 8e07 2b3b 1044 3c3c
00000090: f888 b4b9 5340 14bc 6a1c b8bc 7c23 3b3c
000000a0: 9f1d b6bc 00df 183c 2e01 5cbb 2013 73ba
000000b0: 882f 933b ba14 73bb cbd0 c13b 745b 5aba
000000c0: d49d d4ba 346e 4fbb 346d 663a 42df 473b
000000d0: b5ae 503a be20 8e3b 9b32 0a3c 8583 b6bb
000000e0: 5477 9f3c 68d8 d139 8565 923b eb7a 8cbb
000000f0: e07d 473b 66b2 55bc c956 233c 535c 37bb
00000100: 1e6b 8fbb 7e20 2abb 5ffd 04bc ee3f 4a3c
00000110: d984 26bc 2115 2a3c e446 e0bb 19e8 75bb
00000120: 1b1a 8fbc f971 80bb 987e b2ba 9b30 12bc
00000130: 5e64 a3ba b923 5d3c 3042 41ba d6ea d9bc
00000140: b59b e1bb 7072 3dbb b21e 59ba 3e2f 50bc
00000150: 5122 dcbb 75c5 6dbb ff0d bebb 1a51 4fbc
00000160: 53df 843c 9875 9d3b 39ed 903b 8db3 90bc
00000170: 2100 b03b fe82 523b 2914 78bc 8ad2 d13b
00000180: 7008 af3a b8b9 aebb c42d 873a 350c 44bc
00000190: 7933 463c 620a 8dba 86f5 98b9 c8e3 103b
000001a0: ebd3 fd3a 561c c4bb dddc 8fbb 10f7 a4bc
000001b0: 2184 233b 6ed1 1b3c 6a7d caba 6fc2 6cbb
000001c0: eab3 c6ba b24c ba3b c0bd 8939 12e5 b8bb
000001d0: ef42 423b 1042 b0b9 dc92 443b 18e0 15bd
000001e0: 9924 bcbb 5e3a 3c3b 7a8b 923c 50d6 c63a
000001f0: 83b4 173a b402 803b acfc 833c 01c0 8fba
00000200: 4517 ecba e75c a73b 9335 053c 584d e03b
00000210: 2890 6aba e83b 7c3b 2f33 4b3b d7d9 2cbb
00000220: 6636 e3ba 6cd3 133c 159b cdb9 dbdd f8bb
00000230: a8a5 21b8 0121 1dbc af4a 04bb 7d5d 523c
00000240: dc65 1fbc e3ed a93b c155 423c cb16 1d3d
00000250: 263c a5bc 0646 b33b 0a3e 9cbb 0020 b535
00000260: e471 5abb 4b53 0c3c 2281 ccba f7bf c03b
00000270: 6ca9 28bc 892a dabb 07b5 583c 50b0 b039
00000280: 1cef 02bc 9330 41bc aaec ef3a 8cad e3bb
00000290: ea92 c83b 03f3 103c 93a7 443c 8907 f43b
000002a0: d3a6 f23c 6b22 963c e83a 823c e0db 36bb
000002b0: cd0f 86bb 3090 91b9 834b d13c b418 8a3a
000002c0: 5b23 e3bb 5259 18bc 11a3 1f3c 7674 613b
000002d0: 4718 203c caf3 15bc 0681 6d3a 60b6 223b
000002e0: f6f3 9dbb 8aec d9bc b290 a83b 4a47 533c
000002f0: 66ae 8ebb d852 043c ec7a 24bb f738 5f3c
00000300: 0bc1 693c ebc7 f6bb 83ce 0d3b dc54 2b3b
00000310: c398 0f3b c331 793b eef9 b13c a044 67b9
00000320: de01 53ba 5c8e eabb 8cb0 0bbb 8f00 d23a
00000330: 54d7 e9ba 4e3c 4b3c 00e5 4b3a 7305 74bc
00000340: 7672 f33b 942b e1ba def9 df3a 2cd3 e13a
00000350: 274f 04bc 0c81 b3ba 7129 0dbc 18c0 e0bb
00000360: 6b98 e03b f863 96bb c93a 8f3b 30bb a43b
00000370: 64f8 573b e4bb 123a 237f acbb 2a82 173b
00000380: e875 673c 87dc 1b3c 32b4 9cba 2798 653b
00000390: 803c 5cbb 20b5 d239 d74f 54bc 8f77 1ebb
000003a0: 9290 96ba a291 15bc 00ad d9b8 064e 0c3c
000003b0: 3840 ae3b 67d2 263c 803b 093c 2736 c8bb
000003c0: 4efc 48bc e6de 553c cb37 e53b b9ea e53b
000003d0: d7f5 87bb e454 253c bb7a 2fbc 7730 5aba
000003e0: ae11 6dbc 6410 c8bb ec10 09bc 30b4 b339
000003f0: 4245 123b e29e 5b3b c854 04ba d47f 05bb
-0.018530935 -0.003954839 -0.0015514793 -0.009437929 -0.0052785845 0.0026053614 -0.007362715 -0.004539567
-0.0054094316 -0.009421542 -0.013841115 0.002295673 0.0002977471 -0.0051467633 0.011513952 0.002255191
0.005835595 -0.010740518 0.001315525 -0.019588355 0.004497149 -0.012026055 0.007966724 0.003535058
-0.0038005118 0.0002891388 0.012358548 0.011638055 -0.00032349082 -0.011563199 -0.0035815877 0.0059608426
0.00050854986 0.0045359447 0.0026097032 0.011490837 -0.00034434325 -0.009048539 -0.022474486 0.011422034
-0.022230921 0.009330511 -0.003357004 -0.0009272564 0.00449175 -0.0037091211 0.0059147826 -0.00083296676
-0.0016221353 -0.003165138 0.0008790076 0.0030498062 0.00079606037 0.0043373993 0.008434917 -0.0055698776
0.01946608 0.00040024822 0.0044676685 -0.004287114 0.0030440018 -0.013043022 0.009969422 -0.0027978614
-0.004376783 -0.0025959308 -0.008117049 0.012344344 -0.010163509 0.010381014 -0.0068443883 -0.0037522374
-0.017468503 -0.0039198366 -0.001361805 -0.008922721 -0.0012465825 0.0134972865 -0.00073722284 -0.026601236
-0.006885017 -0.0028907321 -0.0008282467 -0.012706576 -0.006717958 -0.0036281024 -0.0058000083 -0.012653613
0.01621977 0.004805278 0.0044228104 -0.017663741 0.005371109 0.0032121534 -0.015141525 0.006403272
0.0013353955 -0.005332198 0.0010313322 -0.011965801 0.012097233 -0.0010760541 -0.00029174628 0.0022108424
0.0019365525 -0.005984823 -0.0043903426 -0.02013734 0.002495058 0.009510381 -0.0015448753 -0.0036126634
-0.001515982 0.0056854123 0.0002627205 -0.0056425417 0.0029641946 -0.00033618556 0.0029994762 -0.036590666
-0.0057416675 0.0028721313 0.017888773 0.0015170071 0.0005787091 0.0039065722 0.016111694 -0.0010967256
-0.0018012306 0.0051075104 0.008130449 0.0068451576 -0.00089478726 0.0038487855 0.003100585 -0.002637496
-0.0017334938 0.009022575 -0.00039216192 -0.0075948066 -3.853967e-05 -0.009590388 -0.0020186116 0.012839672
-0.009728875 0.005185829 0.011861266 0.038351815 -0.020170283 0.005470994 -0.004768138 1.3494864e-06
-0.0033332044 0.0085647805 -0.001560245 0.005882259 -0.0102943 -0.0066579026 0.013226754 0.000337007
-0.007991578 -0.011791366 0.0018304784 -0.0069481786 0.006121029 0.008847001 0.012002843 0.0074471873
0.029620564 0.018326959 0.01589723 -0.0027902052 -0.004091239 -0.00027763983 0.025548702 0.0010535927
-0.006931705 -0.009298639 0.009743468 0.0034401692 0.009771413 -0.009152362 0.00090600585 0.0024827942
-0.004820342 -0.026602048 0.005144202 0.012895415 -0.004354286 0.008076392 -0.0025097681 0.013624421
0.014267216 -0.0075311563 0.0021637983 0.002614311 0.0021911121 0.0038024045 0.021725621 -0.00022055442
-0.00080492895 -0.007158084 -0.0021314947 0.0016021895 -0.0017840662 0.0124045145 0.0007777959 -0.014893877
0.0074294163 -0.0017179125 0.0017088016 0.0017229072 -0.008075512 -0.0013695075 -0.008615837 -0.006858837
0.006854107 -0.004589554 0.0043710214 0.0050271973 0.0032954449 0.0005597456 -0.0052641793 0.0023118355
0.014127232 0.009513027 -0.0011955558 0.0035033317 -0.0033605397 0.0004018927 -0.012958488 -0.002418015
-0.0011487177 -0.00912896 -0.0001037959 0.008563524 0.005317714 0.010182 0.008376002 -0.006109971
-0.012267185 0.013053631 0.0069951764 0.0070165065 -0.0041491794 0.01009104 -0.010710414 -0.0008323262
-0.014469547 -0.0061054695 -0.008365851 0.0003427579 0.0022319113 0.003351145 -0.0005048034 -0.002037038
