Dream11-Team-Predictor-main/src/model_artifacts/Model_UI_test_2024-05-31.pth (torch, 779424 bytes, 31 tensors)

fc1.weight f4 [512, 25]
0	0x3e29d541	0.16585256
1	0x3ea67bab	0.32516226
2	0x3e0880f2	0.13330439
3	0xbe44bbba	-0.19212237
4	0xbe4efaa4	-0.202128
5	0x3e9d92be	0.30776018
6	0xbe2a1824	-0.16610771
7	0x3e169759	0.14706172
8	0x2abe7f21	3.3838993e-13
9	0xbd6e3e72	-0.05816502
10	0x3e0d806c	0.1381852
11	0x3e5b7cad	0.21434279
12	0x3e09359c	0.13399357
13	0xbe86a741	-0.2629948
14	0xbd71b602	-0.059011467
15	0x3e5dc682	0.21657756
16	0xbe1d699f	-0.15372322
17	0xbd23a8bb	-0.039955836
18	0x3e53cdb2	0.20683935
19	0xbcec26fb	-0.028827181
20	0x3e92de33	0.2868515
21	0x3ea868d7	0.32892486
22	0xbea03ac7	-0.31294844
23	0x3d2131e7	0.03935423
24	0x3de7b17f	0.113131516
25	0xbe93032e	-0.28713363
26	0xbee077fc	-0.4384154
27	0xbda567b7	-0.08076423
28	0x3ee9632e	0.4558348
29	0x3bce6b53	0.006299415
30	0x3e1fe3eb	0.15614288
31	0xbe593cf0	-0.21214652
32	0x3ed78f3b	0.42101464
33	0xa8a0eae4	-1.7865436e-14
34	0x3cc73713	0.024318254
35	0x3e234964	0.15945965
36	0x3df7b998	0.12095946
37	0xbea550d3	-0.32288226
38	0xbec5cacd	-0.38631287
39	0xbca29c10	-0.019849807
40	0xbe1e0069	-0.15429844
41	0x3db7ae8d	0.0896884
42	0x3f1b91a0	0.6076908
43	0xbec50f54	-0.38488257
44	0xbc722f0f	-0.014781727
45	0x3d59cba1	0.05317271
46	0x3c3e6c7c	0.011622544
47	0xbdbb42b4	-0.09143582
48	0x3e960b60	0.29305553
49	0xbef39cb6	-0.47580498
50	0xbd86a514	-0.06574455
51	0x3ea1d8cf	0.31610724
52	0x3e51b4a8	0.20479071
53	0x3d8769c3	0.06611969
54	0x3e7f84e6	0.2495304
55	0x3e8e4ade	0.27791494
56	0x3e66bcf6	0.2253302
57	0xbe827a2c	-0.25483835
58	0x2a99d324	2.7324768e-13
59	0x3e265f14	0.16247207
60	0x3e6d21bb	0.23157398
61	0x3cf30941	0.029667499
62	0x3f19ec86	0.6012653
63	0x3da94d84	0.08266738
64	0x3d991fa5	0.07476739
65	0x3e0f1b38	0.13975227
66	0xbe054826	-0.13015804
67	0x3eb62c2b	0.35580572
68	0x3ec2c52c	0.38041055
69	0xbe13cdcf	-0.14433978
70	0xbf5e2a55	-0.86783344
71	0xbdfa07ab	-0.12208494
72	0x3e723826	0.23654231
73	0xbdd817ef	-0.1055144
74	0xbca59328	-0.020211771
75	0xbdf795c0	-0.120891094
76	0x3ee9d483	0.45669946
77	0xbf0ad889	-0.54236656
78	0x3e8f839d	0.280301
79	0x3d0e7c03	0.034786236
80	0x3e5b8238	0.21436393
81	0x3e0dcbde	0.138473
82	0x3ed76090	0.4206586
83	0xaaa1468a	-2.8648291e-13
84	0x3bc0bd73	0.005881959
85	0x3e955965	0.29169765
86	0x3e3ca938	0.18423927
87	0xbedb08f7	-0.42780277
88	0x3cb832aa	0.022485096
89	0xbcd49bbd	-0.025953168
90	0x3e83ccd7	0.25742218
91	0xbedea22c	-0.43483102
92	0xbdaa1253	-0.08304276
93	0x3eeef47f	0.4667091
94	0x3db528e6	0.088456914
95	0x3e58f075	0.21185477
96	0xbd5868ac	-0.052834198
97	0xbd614031	-0.05499286
98	0xbde023c6	-0.10944323
99	0xbde02325	-0.10944203
100	0x3e54c5b9	0.2077855
101	0xbcceedfa	-0.02525996
102	0x3d9f4031	0.077759154
103	0xbdc03583	-0.093852066
104	0xbea3dbf3	-0.32003745
105	0x3e8d152b	0.27555212
106	0xbe34354b	-0.17598455
107	0x3decaeed	0.11556802
108	0x2a178cf6	1.34604e-13
109	0xbe46f64f	-0.19429897
110	0x3dac813e	0.084230885
111	0x3e38c698	0.18044508
112	0xbe232ee1	-0.15935852
113	0x3e2cc308	0.16871274
114	0xbeae41e2	-0.3403464
115	0x3c35b788	0.011091121
116	0xbe99c1fd	-0.30030814
117	0xbe5ae358	-0.21375787
118	0xbf12d92f	-0.57362646
119	0x3e30f379	0.17280377
120	0xbf025d90	-0.50924015
121	0xbef02a81	-0.46907428
122	0xbdc8ab6a	-0.0979832
123	0x3ea5f556	0.3241374
124	0xbe49972c	-0.19686574
125	0xbc860157	-0.01635806
126	0x3eb309ef	0.34968516
127	0xbd0829cb	-0.033242982
128	0xbe116ebb	-0.14202397
129	0xbda89b05	-0.08232693
130	0xbe0c7b5f	-0.13718937
131	0xbe70602f	-0.23474191
132	0xbe480415	-0.19532807
133	0xaa41d929	-1.7217186e-13
134	0x3dd4b104	0.103853256
135	0xbda115ba	-0.07865472
136	0xbd3c9a78	-0.04604575
137	0xbe6ac7b7	-0.22927748
138	0xbe57bc73	-0.21067981
139	0xbc12ad1f	-0.008952408
140	0xbd89b9d7	-0.06724899
141	0xbe9d7e3a	-0.30760366
142	0x3dc97acc	0.09837875
143	0x3ee316ed	0.44353428
144	0x3d7117fa	0.058860756
145	0xbf17c0d8	-0.5927863
146	0x3dce8edc	0.10085842
147	0xbdd820f3	-0.105531596
148	0x3e29e078	0.16589534
149	0x3eadd173	0.3394886
150	0x3da955c9	0.08268315
151	0x3e2aedcc	0.16692275
152	0xbee97f68	-0.45605016
153	0xbe1bea39	-0.15226068
154	0x3e0d3ea0	0.13793421
155	0xbecc3f07	-0.39891836
156	0xbd5c34bb	-0.053761225
157	0xbea569e8	-0.32307363
158	0x29128b37	3.2539262e-14
159	0xbd211139	-0.039323065
160	0x3d1fe8e3	0.039040457
161	0xbebe4650	-0.3716302
162	0xbdbc705c	-0.09201118
163	0x3ebb38a7	0.3656666
164	0xbd81664b	-0.06318339
165	0xbf06dc93	-0.5268032
166	0xbe5b5451	-0.21418883
167	0xbe4ed104	-0.2019692
168	0xbe1d4e25	-0.15361841
169	0xbcef17b3	-0.029186105
170	0xbe19f85e	-0.15036151
171	0xbe7b0938	-0.24515235
172	0xbef0f3fc	-0.47061145
173	0x3e17e738	0.14834297
174	0xbe98f0ca	-0.29871207
175	0xbea4d116	-0.3219077
176	0x3cd7c3c9	0.026338475
177	0xbdb6cbc0	-0.08925581
178	0xbeba435a	-0.3637951
179	0xbe97f76f	-0.29680964
180	0xbbaa3045	-0.0051937425
181	0xbec9c3fd	-0.3940734
182	0x3e5ab81b	0.21359293
183	0x2a6b97b0	2.092482e-13
184	0xbef99bc4	-0.48751652
185	0xbe0517ab	-0.1299731
186	0xbdde751d	-0.10862181
187	0x3e8a18ce	0.2697205
188	0xbe41bfcf	-0.18920825
189	0x3da17ed2	0.07885517
190	0x3db17643	0.08665135
191	0x3e844de2	0.2584067
192	0x3e6b0f9a	0.2295517
193	0x3debaec0	0.1150794
194	0xbe40af26	-0.18816814
195	0xbe8e56c0	-0.2780056
196	0xbe88d035	-0.2672135
197	0xbeccdf39	-0.40014055
198	0x3dbbec6b	0.091759525
199	0xbda4bcaf	-0.08043801
200	0x3e5a80fd	0.21338268
201	0x3e839675	0.25700727
202	0xbe590b28	-0.21195662
203	0x3ebc9f36	0.36840218
204	0x3e12fb39	0.14353646
205	0x3e1d8504	0.15382773
206	0xbdeec354	-0.1165835
207	0x3f0d63c8	0.5523038
208	0x2a3fbc7e	1.7029604e-13
209	0x3dd5d9ce	0.104419336
210	0x3d5bb030	0.053634822
211	0x3da48e28	0.08034927
212	0x3e83b485	0.25723663
213	0xbdd2004a	-0.102539614
214	0x3e1b1fe3	0.15148883
215	0x3e58f978	0.21188915
216	0x3e9c980e	0.3058476
217	0xbcce465c	-0.025180034
218	0xbe3751b0	-0.17902255
219	0xbb9d7074	-0.004804665
220	0x3cdca041	0.026931884
221	0xbe651c6a	-0.2237412
222	0x3e75ac9a	0.23991624
223	0xbdf4b448	-0.119484484
224	0x3ead07e4	0.33795083
225	0x3e6cea6a	0.23136297
226	0x3e031faa	0.12805048
227	0xbe56aba0	-0.20963907
228	0x3e6c7534	0.23091584
229	0x3a336978	0.0006844024
230	0x3d474059	0.04864535
231	0x3e37c10a	0.17944732
232	0x3eab9644	0.3351308
233	0x2b0eb57c	5.0700394e-13
234	0xbd650d71	-0.05592102
235	0x3e84d5c3	0.25944337
236	0xbf5f8e7d	-0.87326795
237	0x3e17772f	0.14791559
238	0xbdf502f2	-0.119634524
239	0x3dcff349	0.10153825
240	0x3dd16b08	0.10225493
241	0xbced571f	-0.028972207
242	0x3e1051f1	0.14093758
243	0x3eacc23e	0.33741945
244	0x3d0a74c7	0.033802774
245	0xbe9a896c	-0.3018297
246	0xbe4e9117	-0.20172535
247	0x3e0c42c1	0.1369734
248	0xbee7349c	-0.45157325
249	0xbe09b9b0	-0.1344974
250	0xbe059478	-0.13044918
251	0xbe518b8a	-0.20463386
252	0xbf09f5a1	-0.53890425
253	0xbdf2777d	-0.11839197
254	0x3e66fe3e	0.22557923
255	0xbd01fe46	-0.031736635

fc1.bias f4 [512]
0	0x3c7b6c54	0.015345652
1	0xbd1da8e6	-0.038491152
2	0xbb1a2d9c	-0.002352572
3	0x3b9be408	0.004757408
4	0xbc4bb0db	-0.012432302
5	0x3ce79bf5	0.028272608
6	0xba416058	-0.0007376722
7	0xbc3565b8	-0.011071615
8	0x3c22b03e	0.009929715
9	0xbc4522a7	-0.012032188
10	0x3be8b658	0.007101815
11	0x3c964218	0.018342063
12	0x3c121320	0.008915693
13	0xbc6b6cf8	-0.014369242
14	0x3ac58be4	0.0015071598
15	0xbc90b285	-0.01766325
16	0x3bb78f9c	0.0056018364
17	0xbcb817d2	-0.022472296
18	0x388d1d00	6.7288056e-05
19	0x3cc85438	0.024454221
20	0xbcd09c88	-0.025465265
21	0x3b37b7d0	0.0028033145
22	0xbc522948	-0.012827225
23	0xbcf2dc5d	-0.029646093
24	0x3c020682	0.007936122
25	0x3d27c195	0.0409561
26	0xbc006cd9	-0.007838451
27	0x3d5dd389	0.054156814
28	0xbc947bd0	-0.018125445
29	0x3ce2ac5a	0.027670074
30	0xbc0be301	-0.008538009
31	0xbc4b8ac2	-0.012423219
32	0x3c1dc674	0.009629834
33	0x3bb13b32	0.005408668
34	0x3c5ddc8c	0.013541352
35	0xbad9c52f	-0.0016614551
36	0xbafc0cb4	-0.001922986
37	0xbca2ad78	-0.019858107
38	0x3b18b842	0.0023303186
39	0xbc8593d0	-0.016305834
40	0xb9e449c2	-0.00043542503
41	0xbb99522a	-0.004678984
42	0xbafa893a	-0.0019114383
43	0x3b30075c	0.0026859855
44	0x3ce304f2	0.027712319
45	0xbc5d98b7	-0.01352518
46	0xbb997010	-0.0046825483
47	0xb9357150	-0.00017303717
48	0x39fe3ab8	0.00048490404
49	0x3c5c4942	0.0134452
50	0xba96a558	-0.0011493368
51	0xbd02c59d	-0.03192674
52	0x3d7fefc6	0.062484525
53	0x3c1ece58	0.009692751
54	0xbb5d090a	-0.0033727312
55	0xba8287aa	-0.0009958644
56	0x3bddf492	0.00677354
57	0xbc807154	-0.015679039
58	0x3cee4a23	0.029088086
59	0x3b90136f	0.004396848
60	0x3c0d77ea	0.008634547
61	0x3bcb1259	0.0061972556
62	0xbc51a024	-0.012794528
63	0x3c676956	0.014124235
64	0xbb9ac01e	-0.004722609
65	0x3c36d7f1	0.011159883
66	0x3be42b9c	0.0069632065
67	0xbb2dda3e	-0.0026527788
68	0xbc86be90	-0.01644829
69	0x3aedba4a	0.0018137184
70	0xbbf4af75	-0.007467205
71	0x3a5ccd3a	0.0008422915
72	0xbd383555	-0.044972736
73	0x3cac7e3b	0.021056285
74	0x3b1786b4	0.002312106
75	0xb861c2dc	-5.3825657e-05
76	0xbb9638de	-0.004584416
77	0x3c885121	0.016640248
78	0xbc10581d	-0.00881007
79	0x3c8ed49d	0.017435366
80	0xbd16ed20	-0.036847234
81	0xbbedcbd0	-0.0072569624
82	0xbbcfe8a6	-0.0063448725
83	0x3d632e8f	0.055464324
84	0x3bd28875	0.0064249584
85	0x3c9faa2d	0.019490326
86	0x3a818e4a	0.0009884324
87	0xbc5265eb	-0.012841682
88	0x3c0f5f33	0.008750725
89	0xbb72f695	-0.0037073244
90	0xbcece996	-0.028919976
91	0x3b415960	0.0029502735
92	0x3ca8d154	0.020607628
93	0xbb880c34	-0.0041518454
94	0xbb1c7ca9	-0.0023878014
95	0x3cbe9b37	0.023267372
96	0x3c2e7614	0.010648269
97	0xb893f228	-7.054611e-05
98	0x3bb9b65a	0.00566749
99	0x3cbbde58	0.02293317
100	0xbb66cb74	-0.0035216482
101	0xbc0152e2	-0.007893296
102	0xbbc2c1e6	-0.0059435247
103	0xbd1d188c	-0.038353488
104	0xbc67f52d	-0.014157576
105	0xbb99c236	-0.004692341
106	0x3c3be458	0.011468016
107	0xbcf1788f	-0.029476432
108	0xbc463ee5	-0.012099956
109	0x3c7c478f	0.01539792
110	0xbc812487	-0.015764488
111	0x3da2a96b	0.0794247
112	0x3c61228e	0.013741149
113	0x3cd417c6	0.025890242
114	0xbc8f01fc	-0.017457
115	0xbc74bda9	-0.014937797
116	0xbaf81e43	-0.0018929917
117	0x3d37bd0e	0.04485803
118	0xbc57004a	-0.0131226275
119	0x3cbd9e25	0.023146698
120	0x3c0d3231	0.008617924
121	0xbb39f97a	-0.002837746
122	0xbc28af65	-0.010295724
123	0xbb8d66ba	-0.0043152245
124	0xba5d34b0	-0.0008438332
125	0xbca00639	-0.019534217
126	0xbc44342e	-0.011975331
127	0xbcad4f9a	-0.021156121
128	0xbbaa17db	-0.005190832
129	0xbb054e9e	-0.002034105
130	0x3ba5c6fe	0.005059122
131	0x3b65b9d0	0.003505338
132	0xbc9941ea	-0.018708188
133	0xbbdf4aa4	-0.006814318
134	0xb9bc6020	-0.00035929773
135	0xba99014c	-0.001167336
136	0xbb848974	-0.004044706
137	0x3c9f82aa	0.019471485
138	0xbb6a7743	-0.0035776652
139	0xba881fa8	-0.0010385411
140	0x3c87aff8	0.0165634
141	0x3ab0224c	0.0013437956
142	0x3ce0c8fb	0.027439585
143	0xbba3ef2f	-0.005002878
144	0x3c9fcef8	0.01950787
145	0xbb7012c7	-0.0036632286
146	0xbc27f2f0	-0.010250792
147	0xbcc334c4	-0.023828872
148	0x3b3c3b2e	0.0028721797
149	0xbb577dd2	-0.0032881391
150	0xbcb85a1f	-0.02250391
151	0xbd07a5e3	-0.033117186
152	0xbc489077	-0.012241474
153	0x3bda611b	0.006664408
154	0xbd980cae	-0.074242935
155	0x3b1dc129	0.0024071431
156	0x3b08967e	0.0020841653
157	0x3c85a819	0.016315507
158	0x3beb18d7	0.007174592
159	0x3c833de4	0.016020723
160	0x3c8fd3ea	0.017557103
161	0xbc2b8c52	-0.010470467
162	0x3c247669	0.010037997
163	0xbb84133a	-0.0040306123
164	0x3ca1c35c	0.019746475
165	0xbc8582f7	-0.0162978
166	0x3c31377b	0.01081645
167	0xbbe682ce	-0.007034636
168	0xbc7b41e2	-0.015335532
169	0x3d012b10	0.03153521
170	0xbbe21ca1	-0.0069003855
171	0xbd7db3fe	-0.061939232
172	0x3b9bacd4	0.0047508273
173	0xbb58cc8c	-0.0033080904
174	0xb8bbda00	-8.9574605e-05
175	0x3b9597e7	0.0045652273
176	0x3cb4ee5c	0.022086315
177	0x3bce0f3c	0.006288437
178	0xbb831311	-0.0040000756
179	0x3c04a6b1	0.008096383
180	0xbd10c6d2	-0.03534586
181	0xbc3f962b	-0.011693518
182	0x3c1a9c96	0.009436747
183	0x3b6d3b96	0.0036198846
184	0xbbd23c5a	-0.006415886
185	0x3b715fb0	0.0036830716
186	0xbb53175d	-0.003220997
187	0x3b330923	0.0027318678
188	0x3c1e3a64	0.009657476
189	0xbbcdd09f	-0.006280973
190	0xbce7d8de	-0.028301653
191	0xbbab02e3	-0.00521885
192	0xbc2f2d2a	-0.01069192
193	0x3d270f0b	0.04078583
194	0xbb7c03e0	-0.0038454458
195	0x3c7318d3	0.0148374615
196	0x3c11a354	0.008889038
197	0xbb2c2591	-0.0026267509
198	0x3c18ec3a	0.009333665
199	0xbb508c2f	-0.0031821837
200	0x3c922819	0.017841386
201	0xbc00e52d	-0.00786714
202	0x3afb6ac8	0.0019181604
203	0xbbae2f44	-0.005315693
204	0x3b633b6e	0.0034672874
205	0x3bcd5ec4	0.0062674005
206	0xbbe641ae	-0.0070268726
207	0xbc208823	-0.0097980825
208	0x3bd0d548	0.0063730814
209	0x3c481afa	0.012213463
210	0x3c6c3db8	0.014419012
211	0xbba6b3be	-0.005087345
212	0xbb599b21	-0.0033204036
213	0xbbdd25c1	-0.0067488854
214	0x3b6e3f10	0.0036353506
215	0xbb27f5b8	-0.0025628638
216	0x3cdd9f06	0.027053367
217	0xbb6b0b0a	-0.0035864734
218	0xbc9fed32	-0.019522283
219	0xbb3a9a38	-0.002847327
220	0x3ba4b4d0	0.0050264373
221	0x3bd3093e	0.0064403107
222	0x3c2909e8	0.010317303
223	0x3c61b475	0.013775934
224	0x3ca7a18a	0.02046277
225	0x3c5851ea	0.013203124
226	0x3b9e8410	0.0048375204
227	0x3bb0c988	0.005395118
228	0xbc4b2ddd	-0.012401071
229	0x3b57dc98	0.003293788
230	0xb8bd3a20	-9.023049e-05
231	0x3b92d934	0.004481459
232	0xbcb219ed	-0.021740878
233	0xbc7ed3d1	-0.015553431
234	0xbc00a606	-0.007852083
235	0xbbd7aef9	-0.0065821377
236	0x3c419473	0.011815178
237	0xbc42262f	-0.011849924
238	0xba1dfe10	-0.0006026933
239	0xbc0b5546	-0.0085042175
240	0x3c1f2591	0.009713546
241	0x3c842d88	0.016134992
242	0xbc69cfca	-0.014270732
243	0xbcc05c3c	-0.02348148
244	0x3d55bca9	0.052181873
245	0x3c0aaeb1	0.008464501
246	0xba907a40	-0.0011022761
247	0x3bf138ec	0.007361522
248	0xbc9e9085	-0.019356022
249	0xbc32a61c	-0.010903861
250	0xbc5bd2c2	-0.013416948
251	0xbc6a51c0	-0.014301717
252	0xbbf19e7f	-0.0073736305
253	0x3b6a11c8	0.0035716165
254	0x3d331bb2	0.043727584
255	0xba8d9200	-0.0010800958

bn1.weight f4 [512]
0	0x3f852f72	1.0405104
1	0x3f667584	0.90023065
2	0x3eb9d437	0.3629472
3	0x3f95d4dd	1.1705586
4	0x3f79e0ec	0.9760883
5	0x3f4ba644	0.79550576
6	0x3f900f93	1.1254753
7	0x3f849d99	1.0360595
8	0x3f2dbf39	0.6786991
9	0x3f9478f4	1.1599412
10	0x3f8031f5	1.0015246
11	0x3f8dcd97	1.1078366
12	0x3f82daa0	1.0222969
13	0x3f516aa9	0.81803375
14	0x3f467e72	0.7753669
15	0x3f87531f	1.0572242
16	0x3f4d955d	0.80306035
17	0x3fa70f70	1.3051586
18	0x3f8096b6	1.0045993
19	0x3fb2347b	1.3922266
20	0x3f6aa447	0.9165692
21	0x3f4dc62a	0.803805
22	0x3f93eb47	1.1556176
23	0x3fa7798d	1.3083969
24	0x3f950acb	1.1643919
25	0x3f8c4ca1	1.0960885
26	0x3f5f2c71	0.8717719
27	0x3f9a8a79	1.2073509
28	0x3f84b5f8	1.0368032
29	0x3f907981	1.128708
30	0x3f61efd5	0.8825658
31	0x3f91aba3	1.1380504
32	0x3fa040d1	1.251978
33	0x3f6c16ef	0.92222494
34	0x3f72ccab	0.9484355
35	0x3f87f1e7	1.0620698
36	0x3f8f0e0b	1.117616
37	0x3f850f96	1.0395381
38	0x3f553bf4	0.83294606
39	0x3f329a6b	0.69766873
40	0x3f4b703c	0.7946813
41	0x3f8eb262	1.1148188
42	0x3f6cb85a	0.924688
43	0x3f9323a2	1.1495249
44	0x3f8ab7ad	1.0837303
45	0x3f7a9360	0.97881126
46	0x3f76196b	0.96132535
47	0x3f4d4924	0.8018973
48	0x3fa05f88	1.2529154
49	0x3fb64dd0	1.4242496
50	0x3f883da8	1.0643816
51	0x3f76f504	0.96467614
52	0x3f8786a7	1.0587968
53	0x3f8eb9f4	1.1150498
54	0x3f0e0484	0.5547564
55	0x3f64d630	0.89389324
56	0x3f9bb300	1.2164001
57	0x3f9377a2	1.1520884
58	0x3f73bd34	0.95210576
59	0x3f5213af	0.82061285
60	0x3f7bfeb1	0.98435503
61	0x3f466a2e	0.7750577
62	0x3f5ddfa5	0.8666938
63	0x3f91e843	1.1399006
64	0x3f4d6607	0.80233806
65	0x3f840455	1.0313822
66	0x3f88331f	1.0640601
67	0x3f635126	0.887957
68	0x3f908c58	1.129283
69	0x3f621976	0.883201
70	0x3f5f8b2c	0.87321734
71	0x3f24e970	0.644187
72	0x3f92a8f7	1.1457814
73	0x3f90b138	1.1304083
74	0x3f47dbdb	0.7806985
75	0x3f0b7b46	0.54484975
76	0x3f533cf8	0.82514906
77	0x3f7a1298	0.9768462
78	0x3f2886b1	0.6583052
79	0x3f7b37ad	0.9813183
80	0x3f9de5ab	1.2335714
81	0x3f936c22	1.1517375
82	0x3f475b1b	0.7787339
83	0x3f93eb74	1.155623
84	0x3f3d760d	0.74008256
85	0x3f842006	1.0322273
86	0x3f6f0d60	0.93379784
87	0x3f83fd6c	1.0311713
88	0x3f6f78f4	0.93543935
89	0x3eed87f7	0.46392795
90	0x3f7708aa	0.96497595
91	0x3f34ba60	0.70596886
92	0x3f8aafc6	1.0834892
93	0x3f1aeb13	0.60514945
94	0x3f42a6ca	0.7603575
95	0x3fa2c8d7	1.2717541
96	0x3f9e1893	1.235125
97	0x3f77ab12	0.9674541
98	0x3f27c432	0.65533745
99	0x3f7aaa06	0.97915685
100	0x3f283f91	0.65721995
101	0x3f6e1fd1	0.930173
102	0x3f6b2776	0.9185709
103	0x3f94721a	1.1597321
104	0x3f34f2a8	0.70682764
105	0x3f9ba0ef	1.2158488
106	0x3f756c42	0.95868313
107	0x3f661d08	0.8988805
108	0x3f483405	0.78204376
109	0x3f7f1471	0.99640566
110	0x3f9d7b6d	1.2303292
111	0x3f89fb7d	1.0779873
112	0x3f5317e0	0.82458305
113	0x3f806c16	1.0032985
114	0x3f668086	0.9003986
115	0x3f837307	1.0269479
116	0x3f995958	1.198039
117	0x3fa5899c	1.293262
118	0x3f717963	0.94325846
119	0x3f5a56a6	0.85288465
120	0x3f710bf3	0.9415886
121	0x3f356c70	0.7086859
122	0x3f940bf3	1.1566147
123	0x3f12b1db	0.57302636
124	0x3f84d0dc	1.0376239
125	0x3fad41e2	1.3535731
126	0x3f3b8c8b	0.73261327
127	0x3f8ae373	1.0850662
128	0x3f634985	0.88784057
129	0x3f9936e7	1.196988
130	0x3f528415	0.8223279
131	0x3f5a3bb0	0.85247326
132	0x3f787e0b	0.97067326
133	0x3f767e1f	0.96286196
134	0x3f80f781	1.0075532
135	0x3f0b72c7	0.5447201
136	0x3f86ba21	1.0525552
137	0x3fa09a05	1.2547003
138	0x3f4110b8	0.75416136
139	0x3f907d6f	1.1288279
140	0x3f6d77e5	0.9276107
141	0x3f65b450	0.8972826
142	0x3f079d13	0.5297405
143	0x3f82291b	1.0168794
144	0x3f67adb4	0.90499425
145	0x3f4ab47e	0.7918166
146	0x3f735bd2	0.9506198
147	0x3f8a1f02	1.0790713
148	0x3f7b2688	0.9810567
149	0x3f43adec	0.7643726
150	0x3f2d7561	0.6775723
151	0x3f806e92	1.0033743
152	0x3fa5a102	1.2939761
153	0x3f9c7a51	1.2224828
154	0x3f9a5c74	1.2059464
155	0x3f4500ba	0.76954234
156	0x3f9ea00f	1.2392596
157	0x3f83def6	1.0302417
158	0x3ef4dfef	0.47827098
159	0x3fa5f4e7	1.2965363
160	0x3f8f1588	1.1178446
161	0x3fa18f33	1.2621826
162	0x3f6c58e2	0.92323124
163	0x3f3dfe68	0.7421632
164	0x3f8b689e	1.0891302
165	0x3f338411	0.7012339
166	0x3f43a749	0.7642713
167	0x3f47a9ea	0.77993643
168	0x3f53d627	0.82748646
169	0x3f820918	1.0159025
170	0x3f0e737d	0.5564497
171	0x3fbfd02a	1.4985402
172	0x3f850951	1.0393468
173	0x3f9280dc	1.1445575
174	0x3f56a389	0.83843285
175	0x3f66a19d	0.9009035
176	0x3f552cf8	0.8327174
177	0x3f1024fd	0.5630644
178	0x3f23511c	0.6379564
179	0x3f350aec	0.7071979
180	0x3fa68333	1.3008789
181	0x3f60dca2	0.8783666
182	0x3f373de1	0.71578795
183	0x3f4ba397	0.79546493
184	0x3f83a486	1.0284584
185	0x3f836ac6	1.026696
186	0x3f84856f	1.0353221
187	0x3f7b6573	0.98201674
188	0x3f5304ba	0.8242909
189	0x3f75f08a	0.9607016
190	0x3f974812	1.1818869
191	0x3f79a37c	0.9751508
192	0x3f4abf57	0.7919821
193	0x3f7edc72	0.9955512
194	0x3f47b4dc	0.78010345
195	0x3f56df02	0.8393403
196	0x3f8ee72c	1.1164298
197	0x3f62f563	0.8865568
198	0x3f3471f8	0.704864
199	0x3f990cc4	1.1957021
200	0x3f84f8a4	1.0388379
201	0x3f2b12a1	0.668253
202	0x3f8165e0	1.0109215
203	0x3f4fee22	0.81222737
204	0x3f5a4399	0.85259396
205	0x3f13f991	0.57802683
206	0x3f62a5bf	0.8853416
207	0x3f5a875b	0.85362786
208	0x3f703081	0.9382401
209	0x3f839a32	1.0281432
210	0x3f70c629	0.9405237
211	0x3f481f91	0.78173167
212	0x3f8f6705	1.1203314
213	0x3f83c829	1.0295459
214	0x3f89b0bd	1.0757061
215	0x3f7980b9	0.9746204
216	0x3f872803	1.0559086
217	0x3f7eae87	0.9948506
218	0x3f3c0597	0.7344603
219	0x3f28afec	0.65893435
220	0x3f7aceef	0.97972006
221	0x3f1b31bb	0.6062276
222	0x3faf377c	1.3688807
223	0x3f8bb579	1.0914756
224	0x3f8d17b1	1.1022855
225	0x3f34a9a7	0.7057137
226	0x3f6f5195	0.9348386
227	0x3f4f51ff	0.8098449
228	0x3f537bad	0.8261059
229	0x3f2107b2	0.6290237
230	0x3f8427a4	1.0324597
231	0x3f417ea0	0.7558384
232	0x3f4a61ac	0.79055285
233	0x3f40d724	0.7532828
234	0x3facbb30	1.3494625
235	0x3f1dc299	0.6162506
236	0x3f63b9cf	0.88955396
237	0x3f4c1d9f	0.797327
238	0x3f48d50c	0.78450084
239	0x3f89b762	1.0759089
240	0x3f8b35a1	1.0875741
241	0x3f8fd6f9	1.123748
242	0x3f6e8b7e	0.931816
243	0x3f97e5d1	1.1867009
244	0x3f8fe197	1.124072
245	0x3f303fee	0.6884755
246	0x3f4f900f	0.8107919
247	0x3f6f3ceb	0.9345233
248	0x3f776db5	0.96651775
249	0x3f5f8da4	0.873255
250	0x3f4b0919	0.79310757
251	0x3f5309e9	0.82436997
252	0x3f5c44a7	0.86042255
253	0x3f364954	0.7120564
254	0x3f5ec4fb	0.8701932
255	0x3f375a3f	0.7162208

bn1.bias f4 [512]
0	0xbe9f0e0b	-0.310654
1	0xbf12b86f	-0.57312673
2	0xbdfdea00	-0.123981476
3	0xbf2ed86f	-0.68299
4	0xbe51cceb	-0.20488326
5	0xbe284cb9	-0.16435517
6	0xbe873dbe	-0.26414293
7	0xbe525a64	-0.20542294
8	0xbe80ce3c	-0.25157344
9	0xbd13afcb	-0.03605632
10	0x3c95d152	0.018288288
11	0xbea454f9	-0.3209608
12	0xbe472214	-0.19446594
13	0xbe453bd5	-0.19261105
14	0xbec73b81	-0.38912585
15	0xbe855f71	-0.2604938
16	0xbe58242c	-0.21107548
17	0xbe3f0bc3	-0.1865683
18	0xbf2f06c9	-0.6836973
19	0xbefbdd68	-0.49192357
20	0xbf0c6425	-0.5484031
21	0xbed66e49	-0.41881016
22	0xbe14fd3f	-0.1454973
23	0xbe825d71	-0.25461915
24	0xbf0e9967	-0.55702823
25	0xbe86e47e	-0.263462
26	0xbe90c6d5	-0.28276697
27	0xbef2f924	-0.47455704
28	0xbe7189f7	-0.23587786
29	0xbe43a195	-0.19104607
30	0xbe34536b	-0.17609946
31	0xbefc9adb	-0.49336895
32	0xbf2e69de	-0.6813029
33	0xbe80ec97	-0.25180504
34	0xbf059924	-0.521868
35	0xbda48de7	-0.08034878
36	0xbf3c3dc2	-0.73531735
37	0xbe8663a9	-0.2624791
38	0xbe8f0163	-0.27930745
39	0xbdad8ea0	-0.08474469
40	0xbe4d38b8	-0.20041168
41	0xbedac322	-0.42727
42	0xbe3d05f0	-0.18459296
43	0xbe682f1e	-0.22674224
44	0xbc89ceeb	-0.016822299
45	0xbf221d17	-0.6332564
46	0xbed0036d	-0.40627614
47	0xbe9f68a4	-0.31134522
48	0xbf0be483	-0.54645556
49	0xbea5d6fb	-0.3239058
50	0xbe8aa2e6	-0.27077407
51	0xbe6374aa	-0.22212473
52	0xbe75258a	-0.23940101
53	0xbe8de49b	-0.27713475
54	0xbe276c69	-0.16349949
55	0xbda2b355	-0.07944361
56	0xbe3bb441	-0.1833048
57	0xbf0810bf	-0.5315055
58	0xbe6ea2ad	-0.23304243
59	0xbed3eb8b	-0.41390643
60	0xbf159bd7	-0.5844092
61	0x3dfe7504	0.12424663
62	0xbb405603	-0.0029348142
63	0xbef95f9f	-0.48705766
64	0xbea77ac2	-0.32710844
65	0xbe618108	-0.22021878
66	0xbf033791	-0.5125666
67	0xbd3cc3da	-0.046085216
68	0xbe490d04	-0.19633871
69	0xbe51b096	-0.20477518
70	0xbde330b8	-0.11093277
71	0xbe8a08fe	-0.26959985
72	0xbe4b0d01	-0.1982918
73	0xbe831ed7	-0.25609466
74	0x3bf26d9c	0.0073983204
75	0xbe016444	-0.12635905
76	0xbeb2a485	-0.34891143
77	0xbeb1750c	-0.34659612
78	0xbea901f1	-0.33009294
79	0xbdf91110	-0.121614575
80	0xbef95c7b	-0.4870337
81	0xbe7b3cda	-0.24534932
82	0xbe51be4d	-0.2048275
83	0xbea8d171	-0.3297229
84	0xbebeef59	-0.37291983
85	0xbe0499fe	-0.12949368
86	0xbeed3915	-0.46332613
87	0xbe1abf33	-0.15111999
88	0xbe8ff124	-0.28113663
89	0xbe269c48	-0.16270554
90	0xbe3ea232	-0.1861656
91	0xbe953470	-0.2914157
92	0x3c2259cd	0.0099091055
93	0xbe9cd223	-0.30629072
94	0xbe92b986	-0.28657168
95	0xbbb58456	-0.0055394573
96	0xbe5a1109	-0.21295561
97	0xbec76d9c	-0.38950813
98	0xbdaf3f56	-0.08557002
99	0xbec53daa	-0.38523608
100	0xbe98f4a9	-0.2987416
101	0xbe9db684	-0.3080331
102	0xbe8d09ac	-0.27546442
103	0xbe0885df	-0.13332318
104	0xbe5481c7	-0.20752631
105	0xbe9cf0d2	-0.3065248
106	0xbe9b9624	-0.30387986
107	0xbeb873e0	-0.36025906
108	0xbeaeefec	-0.3416742
109	0xbe70feeb	-0.23534743
110	0xbe36c56e	-0.17848751
111	0xbef581b5	-0.4795052
112	0xbe9591cd	-0.292128
113	0xbee544a5	-0.44778934
114	0xbe057b7f	-0.13035391
115	0xbe25a276	-0.16175255
116	0xbee75e04	-0.45188916
117	0xbe4236f9	-0.18966283
118	0xbec4ee11	-0.3846288
119	0xbe964428	-0.29348874
120	0xbe92e71c	-0.28691947
121	0xbf1d9fb2	-0.615718
122	0xbed2f0e2	-0.41199404
123	0xbe9fcc62	-0.3121062
124	0xbe32052b	-0.17384784
125	0xbe177176	-0.14789376
126	0x3c1ca71f	0.009561329
127	0xbed6acc0	-0.41928673
128	0xbf20af0a	-0.6276709
129	0xbf2326af	-0.637309
130	0xbdfcc3e8	-0.12342054
131	0xbe3f9569	-0.18709339
132	0xbeb8b81a	-0.36077958
133	0xbf06afb6	-0.52611864
134	0xbe4e6f6c	-0.20159692
135	0xbdd393f8	-0.10330957
136	0xbee28f21	-0.44249824
137	0x3d8be4c9	0.06830747
138	0x3ddbd549	0.1073404
139	0xbf13127d	-0.57450086
140	0xbf08bea2	-0.5341588
141	0xbf1d7de5	-0.61520225
142	0xbd60dd1c	-0.054898366
143	0xbe90571d	-0.28191462
144	0xbce8649e	-0.02836829
145	0xbe7c4480	-0.24635506
146	0xbeb4be63	-0.35301504
147	0xbe8b6c64	-0.27231133
148	0xbe0d9638	-0.13826835
149	0xbdfa962c	-0.12235674
150	0xbe90ace4	-0.28256905
151	0xbe989273	-0.29799232
152	0xbf00a4b2	-0.50251305
153	0xbee0f7f7	-0.43939182
154	0xbebaafa5	-0.3646213
155	0xbee849b5	-0.45368734
156	0xbe0c3830	-0.13693309
157	0xbe8af76b	-0.2714189
158	0xbd0dfca7	-0.034664776
159	0xbf08ad33	-0.5338928
160	0xbea57fce	-0.3232407
161	0xbec2d0b1	-0.38049844
162	0xbe9719cd	-0.29511872
163	0xbe3e463c	-0.1858148
164	0xbed1f871	-0.41009858
165	0xbe8f9877	-0.2804601
166	0xbecb6bdd	-0.3973073
167	0xbea25d6b	-0.31711897
168	0xbe03b195	-0.12860711
169	0xbe9d0345	-0.30666557
170	0xbe933c00	-0.28756714
171	0xbeb13a5e	-0.34614843
172	0xbeba7310	-0.3641591
173	0xbe8bc43c	-0.27298152
174	0xbe7cdaa1	-0.24692775
175	0xbe5b57ac	-0.21420163
176	0xbeea7251	-0.45790341
177	0xbe5c8e16	-0.21538576
178	0xbeb415b2	-0.35172802
179	0xbe804203	-0.25050363
180	0xbe00a3ac	-0.12562436
181	0xbea02bd6	-0.31283444
182	0xbdfda9cb	-0.12385901
183	0xbe878cd8	-0.26474643
184	0xbebafc57	-0.36520645
185	0xbf215f0e	-0.63035667
186	0xbe80b1d6	-0.25135678
187	0xbf099d37	-0.53755516
188	0xbf03bd75	-0.51460963
189	0xbdb904f2	-0.09034146
190	0xbe66991b	-0.22519343
191	0xbec18cc0	-0.37802696
192	0xbe5bb173	-0.2145441
193	0xbec726ee	-0.38896888
194	0xbe8bbe16	-0.27293462
195	0xbe332878	-0.17495906
196	0xbec06fa2	-0.3758517
197	0xbcb25f17	-0.021773858
198	0xbe49b6f4	-0.19698697
199	0xbe5e33e1	-0.21699478
200	0xbeb5f2d0	-0.35536814
201	0xbec57a9d	-0.3857011
202	0xbd55192d	-0.052025963
203	0xbeed2119	-0.46314314
204	0xbeddedb5	-0.4334542
205	0xbe82c879	-0.25543573
206	0xbe82892d	-0.25495282
207	0xbd11141d	-0.035419572
208	0xbef9f04f	-0.48816153
209	0xbd6f36ba	-0.0584018
210	0xbed2cbf0	-0.41171217
211	0xbf1731d4	-0.59060407
212	0xbe80bf60	-0.25146008
213	0xbe79033c	-0.2431764
214	0xbdd34a07	-0.10316854
215	0xbe823aca	-0.25435477
216	0xbe96c7ea	-0.29449397
217	0xbe4e593c	-0.20151228
218	0x3cd4e075	0.025985936
219	0xbe35e6b5	-0.17763789
220	0xbe0c9102	-0.13727191
221	0x3d8ef941	0.06981135
222	0x3d0168a5	0.031593937
223	0xbe0f5e0c	-0.1400072
224	0xbe841f03	-0.2580491
225	0xbea55422	-0.3229075
226	0xbebbfd2b	-0.3671659
227	0xbe42310b	-0.18964021
228	0xbf075356	-0.52861536
229	0xbd70816c	-0.058717176
230	0xbe57e49a	-0.21083298
231	0xbebb8d49	-0.3663123
232	0x3dba5a4b	0.09099253
233	0xbea50467	-0.3222992
234	0xbefe519b	-0.49671635
235	0xbe5f05c8	-0.21779549
236	0xbe9676e8	-0.29387593
237	0xbec31a6f	-0.38106105
238	0xbeb22515	-0.34793916
239	0xbd8f0fd7	-0.06985443
240	0xbe26cfa6	-0.16290149
241	0xbeae9362	-0.3409682
242	0xbea0ef8b	-0.31432757
243	0xbecf014f	-0.40430686
244	0xbe432a66	-0.19059142
245	0xbe011d4d	-0.12608834
246	0xbe8da428	-0.27664304
247	0xbe893435	-0.26797643
248	0xbea124b7	-0.31473324
249	0xbec375df	-0.38175866
250	0xbe5729dd	-0.21012063
251	0xbe50a374	-0.20374852
252	0xbe5c4b97	-0.2151321
253	0xbe1dcb96	-0.15409693
254	0xbe3f0f1c	-0.18658108
255	0xbd435146	-0.04768493

bn1.running_mean f4 [512]
0	0x3c1085fc	0.008821007
1	0xbbbe9402	-0.0058159837
2	0xbb81c2df	-0.003959998
3	0xbb94fc32	-0.0045466656
4	0xbad6518c	-0.0016351207
5	0x3b8a2911	0.0042163213
6	0x390f5fa8	0.00013673177
7	0xba9df7fc	-0.0012052055
8	0x3a8fd6a7	0.0010974006
9	0xbb88abb8	-0.004170861
10	0xb96e092e	-0.00022700868
11	0x3be999fe	0.007128953
12	0xbc3acc08	-0.011401184
13	0xbbc34e14	-0.0059602354
14	0x3b2bbf46	0.0026206537
15	0xbc5b9fe6	-0.013404822
16	0x3ba0426d	0.004890731
17	0xbacc5dfc	-0.0015591974
18	0x3ba6336d	0.0050720484
19	0x3cb04fed	0.021522487
20	0xbc18d87b	-0.009328957
21	0x3be4b5b3	0.006979668
22	0xbc7326df	-0.014840811
23	0xbcca43ee	-0.024690595
24	0x3c3673ed	0.011136037
25	0x3c2e79ef	0.010649188
26	0xbc11019d	-0.008850482
27	0x3cbd7b52	0.023130093
28	0x3baf6198	0.0053522103
29	0x3c9ccdc2	0.019141082
30	0xbc449fe9	-0.012001016
31	0xbc14519a	-0.009052658
32	0x3b359eb2	0.0027712998
33	0xbc7fc83d	-0.015611705
34	0xbb8f5eda	-0.004375321
35	0xbc3564d5	-0.0110714035
36	0xbc11ca7e	-0.008898376
37	0xbca8cbf0	-0.020605057
38	0x3c55ef05	0.013057475
39	0x380c94c0	3.3517135e-05
40	0xbbe12bc6	-0.0068716733
41	0xba134fd1	-0.00056194986
42	0xbb485463	-0.0030567877
43	0xbbb569b4	-0.0055362824
44	0xbb7d4f77	-0.00386521
45	0x3bdaf2c7	0.0066817733
46	0x3c2d96cf	0.010595038
47	0xbabba3d5	-0.0014315794
48	0x3b58e8a1	0.0033097642
49	0x3ca13b4d	0.019681597
50	0xba959bd3	-0.0011414237
51	0xbbd0515e	-0.006357356
52	0x3d0a2337	0.03372499
53	0x3bf18521	0.0073706065
54	0xbb43c31a	-0.0029870928
55	0xbad27a4f	-0.0016058179
56	0x3c80636e	0.015672412
57	0xbb81d653	-0.003962317
58	0x3bfa7045	0.007642778
59	0xbb6bd912	-0.0035987538
60	0xbb648f3d	-0.0034875416
61	0x3c4b628a	0.01241363
62	0xbc93cc48	-0.018041745
63	0x3bd465e3	0.0064818724
64	0xbc2f12cd	-0.010685635
65	0x3b1405ba	0.002258642
66	0xbc649e05	-0.01395369
67	0x3c0f406a	0.008743385
68	0x3c82d006	0.015968334
69	0x3bd5c023	0.0065231486
70	0xbb8e831a	-0.0043491246
71	0xbb85701c	-0.0040722024
72	0xbcb2c80d	-0.021823907
73	0x3bf3fc00	0.007445812
74	0xbc18beb5	-0.009322812
75	0x3c0ab7ac	0.008466642
76	0xbb4b650b	-0.0031035568
77	0x3bdc9d02	0.006732584
78	0xbbf2bfe0	-0.007408127
79	0x3ba704a8	0.0050969906
80	0xbd0659c1	-0.03280044
81	0x3add4e2c	0.0016884259
82	0xbc4161f5	-0.01180314
83	0x3c769552	0.015050249
84	0xb8a83708	-8.0211146e-05
85	0x3c8710ba	0.016487468
86	0x3a58b660	0.0008266922
87	0xbb82d0b1	-0.003992163
88	0x3ba011f4	0.0048849527
89	0xba88a345	-0.0010424635
90	0xbc651500	-0.013982058
91	0xbaee0790	-0.0018160213
92	0xbc637182	-0.013882043
93	0xbbb3146b	-0.0054650805
94	0x3b0ee9c7	0.0021806823
95	0x3cb60409	0.022218721
96	0xbbeb91af	-0.0071889977
97	0x3b96b313	0.004598984
98	0xbb9370a5	-0.0044995123
99	0x3be6f689	0.0070484322
100	0xbbdd41da	-0.006752235
101	0x3a9f86a8	0.0012170868
102	0xbb82c406	-0.003990653
103	0xbd270cee	-0.040783815
104	0xbc09c538	-0.008408837
105	0xba9fb070	-0.001218332
106	0x3ac12cf8	0.0014738133
107	0x3c06ad3e	0.008220015
108	0xbb95d6b1	-0.0045727124
109	0x3cfdfaf7	0.031003458
110	0x3a34bd1e	0.0006894636
111	0x3d0c59f1	0.034265462
112	0xbc32b1ea	-0.010906676
113	0x3c7f8d81	0.015597702
114	0xbb9e2dae	-0.004827223
115	0x3b634214	0.0034676837
116	0xbb728798	-0.003700709
117	0x3caefc29	0.021360474
118	0xbc353bdb	-0.011061634
119	0x3ba5dbee	0.005061618
120	0x3c652d94	0.013987917
121	0xbc07f3b0	-0.008297846
122	0x3c5f9141	0.013645471
123	0xba91ea35	-0.0011132421
124	0xbc1b6d8a	-0.009486565
125	0xbc0685f1	-0.008210645
126	0xbb9bccae	-0.0047546243
127	0xbabc485c	-0.0014364826
128	0xbbdf211e	-0.006809368
129	0xbbc21583	-0.0059229746
130	0x3c30aeec	0.010783892
131	0xba1674c9	-0.0005739448
132	0x3b8fd859	0.0043898043
133	0x3a3aa14d	0.00071193726
134	0xbbdc99cc	-0.006732201
135	0xbb8a6a62	-0.0042241076
136	0x3c244efd	0.010028598
137	0x3c079cbf	0.008277117
138	0xbb0f657b	-0.0021880555
139	0xbc9b6ef0	-0.018973798
140	0x3b1bfcd0	0.002380181
141	0x3aaddc87	0.0013264575
142	0x3bedd1a7	0.0072576585
143	0xbc2f9d00	-0.010718584
144	0xbb40b2d2	-0.002940346
145	0xbc150b7d	-0.009096977
146	0xbaa1bce9	-0.0012339625
147	0x3bb706e3	0.0055855378
148	0xbbeb472d	-0.0071801157
149	0x3ae60159	0.0017548009
150	0xb9d8f45c	-0.00041380792
151	0xbc762ac6	-0.015024846
152	0xbc5bf07f	-0.013424038
153	0x3ada178e	0.00166391
154	0xbd7888bc	-0.060677275
155	0xb95a4572	-0.0002081597
156	0x3c237ad5	0.009978016
157	0x3c9991a4	0.018746205
158	0xbc1a0329	-0.0094001675
159	0x3d05b8d1	0.032646958
160	0xbc03083b	-0.007997568
161	0x3bd8fd3e	0.0066219857
162	0x3bff046c	0.0077825096
163	0x3c57ce7e	0.01317179
164	0x3b882382	0.0041546235
165	0xbc1d63b4	-0.009606291
166	0x3aacd29e	0.0013185327
167	0xbb0fda52	-0.0021950197
168	0xbc746fe5	-0.014919256
169	0x3c47fa9e	0.012205748
170	0xbc0455d9	-0.008077108
171	0xbc942642	-0.018084649
172	0x3c908497	0.017641349
173	0xbc2ff60d	-0.010739815
174	0xbc090240	-0.008362353
175	0x3c532b1a	0.012888694
176	0x3c1656dc	0.009175982
177	0xb931590e	-0.00016913211
178	0xbbea761d	-0.0071551935
179	0xb9790448	-0.00023748085
180	0x3c30ca4f	0.010790422
181	0xbb98d776	-0.004664357
182	0x39240084	0.00015640451
183	0xbc665b19	-0.014059805
184	0xbc9a2bad	-0.018819654
185	0xbc027d3e	-0.00796443
186	0xbb83586f	-0.004008345
187	0x3b633d6e	0.0034674066
188	0x3d094c18	0.033519834
189	0x3a77e77d	0.00094567967
190	0xbc946de1	-0.0181188
191	0xbb98995d	-0.004656954
192	0x3b386423	0.0028135858
193	0x3c86c0bd	0.016449327
194	0xbbc25d9a	-0.0059315683
195	0x3b9a8fc0	0.0047168434
196	0x3bcb62a3	0.006206827
197	0x3b71c936	0.0036893613
198	0xbba932af	-0.0051635127
199	0x3b24c237	0.0025140175
200	0x3c269c3e	0.010169087
201	0x3a5f1d2b	0.0008511121
202	0x3b71aa35	0.0036875133
203	0xbb9fb046	-0.0048733084
204	0x3b65e774	0.0035080584
205	0xb954983a	-0.00020274604
206	0xbb961ca8	-0.004581053
207	0xbb5b32e1	-0.0033447074
208	0x3b81305d	0.003942533
209	0xbba0d10c	-0.004907733
210	0x3bb3657c	0.0054747444
211	0x3b92a828	0.004475612
212	0x3b99effd	0.0046977983
213	0x3b8bacbe	0.004262536
214	0xbc18ccfe	-0.009326218
215	0xbb1a43b6	-0.0023538894
216	0xbc09bd94	-0.008407015
217	0xbc2ee1b3	-0.010673928
218	0xbb11dc5c	-0.0022256589
219	0xbbfeb222	-0.0077727
220	0x3c0bf100	0.008541346
221	0xbb55d46b	-0.0032627832
222	0x3cdcf485	0.026972065
223	0x3b8c4f47	0.0042819115
224	0x3c9204b6	0.017824512
225	0x3aee1999	0.0018165588
226	0xbad83ad3	-0.0016497023
227	0xbb1e9579	-0.002419798
228	0x3b7a2081	0.0038166346
229	0x3a4cc332	0.0007811069
230	0x3b2eb8c5	0.0026660424
231	0xbb95ab1e	-0.004567518
232	0x3b9c3e2a	0.0047681527
233	0xbbab97fa	-0.005236623
234	0x3c73e968	0.014887191
235	0xbbf28866	-0.007401514
236	0xb9437130	-0.00018638815
237	0xbaed16e5	-0.0018088488
238	0xbbb3f5ac	-0.005491933
239	0x3bfccbe2	0.0077147344
240	0x3b964f7c	0.004587112
241	0xbb2b34d3	-0.0026124015
242	0xbc732be5	-0.014842008
243	0xbcc5bca2	-0.024137799
244	0x3c7eb5ba	0.015546257
245	0x3af9bc13	0.0019053243
246	0xbb10c932	-0.0022092578
247	0x3c165f36	0.0091779735
248	0x3bad35fc	0.0052859765
249	0xbd07d81c	-0.033165082
250	0x3b828f6d	0.003984383
251	0xbc267263	-0.010159108
252	0xbba17851	-0.004927673
253	0xba9fccb4	-0.0012191744
254	0x3c83ac53	0.016073382
255	0x3adf350a	0.0017029357

bn1.running_var f4 [512]
0	0x3f6a6170	0.9155493
1	0x3f3614dd	0.71125585
2	0x409348aa	4.60262
3	0x3f8f3ef4	1.1191087
4	0x3fac9d55	1.3485514
5	0x3f9e0b5c	1.2347217
6	0x3fc1afd6	1.5131786
7	0x3fe53290	1.7906055
8	0x3f589ecf	0.8461732
9	0x3fb26f2d	1.3940178
10	0x3fb71c10	1.4305439
11	0x3fb9de2e	1.4520929
12	0x3fa3b753	1.2790321
13	0x409eaf60	4.958908
14	0x3fc4c826	1.537358
15	0x3f5757da	0.84118426
16	0x400b1ae6	2.1735168
17	0x3f195d5a	0.5990807
18	0x3f288886	0.6583332
19	0x3fccb2a2	1.5992014
20	0x3fd6cdc3	1.6781543
21	0x3faf17ca	1.3679135
22	0x3f63b209	0.88943535
23	0x3f03a378	0.5142131
24	0x3f164ddc	0.58712554
25	0x3f4b6809	0.7945562
26	0x3f6b901e	0.9201678
27	0x4016fe79	2.3592818
28	0x3fc734dd	1.5563008
29	0x3f40ffee	0.7539052
30	0x3f454346	0.77055776
31	0x3f824ed9	1.0180312
32	0x3f861ff8	1.0478506
33	0x3f6cb113	0.92457694
34	0x4049f79b	3.1557376
35	0x3f9c70e0	1.2221947
36	0x3f9bab53	1.2161659
37	0x3fa1ad45	1.2631003
38	0x3f6c64a9	0.92341095
39	0x3f7f4a94	0.9972317
40	0x3fb23227	1.3921555
41	0x400240c4	2.035203
42	0x3f9f7886	1.2458656
43	0x3f41ca7d	0.756996
44	0x3f630b13	0.8868877
45	0x3f28ea67	0.6598267
46	0x3fec62bd	1.8467633
47	0x3fa4466e	1.2833993
48	0x3f94fa27	1.163884
49	0x3f7a2c47	0.9772381
50	0x3f07b31d	0.5300768
51	0x3f79c1e5	0.97561485
52	0x3f567160	0.83766747
53	0x3f2567b3	0.6461136
54	0x403aca18	2.9185848
55	0x402250d1	2.5361826
56	0x3fbdefe5	1.4838835
57	0x3f8b19ab	1.0867208
58	0x401b2611	2.4241984
59	0x3ff60a44	1.9221883
60	0x3fc30bd9	1.5237991
61	0x3fb8c16c	1.4434028
62	0x3f4872af	0.78299993
63	0x3f368377	0.7129435
64	0x4000d821	2.0131915
65	0x3fbd0a85	1.4768835
66	0x3f92be4e	1.1464326
67	0x3fb5cf5b	1.4203905
68	0x3f9b8a10	1.2151508
69	0x3f880e94	1.0629449
70	0x403b7200	2.928833
71	0x3fb2ca76	1.3968036
72	0x3f3c03bc	0.734432
73	0x40180506	2.3753066
74	0x3f8ece35	1.1156679
75	0x3fdc9dc7	1.723565
76	0x40185f9b	2.3808353
77	0x3f885d26	1.0653427
78	0x4040b4c6	3.0110335
79	0x3fa775ac	1.3082786
80	0x3f6c076f	0.9219884
81	0x3f4cba1c	0.7997148
82	0x3f5c751d	0.861162
83	0x3fca8013	1.5820335
84	0x40625656	3.5365195
85	0x3fde9c08	1.7391367
86	0x3f842257	1.032298
87	0x3f561646	0.83627737
88	0x3fd26ea9	1.6440021
89	0x4054c2c7	3.3243883
90	0x3f989440	1.1920242
91	0x3ffc74a2	1.9723094
92	0x4019ef21	2.4052203
93	0x3fad9472	1.3560927
94	0x3fb2298a	1.3918927
95	0x3f19b2f9	0.60038716
96	0x3f5d9c8d	0.86567
97	0x3f1b24d1	0.6060305
98	0x3f5a7342	0.8533212
99	0x3fd24e46	1.6430137
100	0x40c2dd1c	6.089491
101	0x3ff80261	1.9375726
102	0x400b55c6	2.1771102
103	0x3f2e1c14	0.68011594
104	0x3ff2da33	1.8972839
105	0x3f55f7c6	0.835812
106	0x3f7fcb83	0.9991991
107	0x3f5ac893	0.854623
108	0x3fd47f18	1.6601286
109	0x3f0d8ccf	0.5529298
110	0x3f1d8043	0.61523837
111	0x3f3aa62a	0.72909796
112	0x3f957064	1.1674924
113	0x3f925e36	1.1435001
114	0x3f88ecd1	1.0697271
115	0x3fc031a7	1.5015153
116	0x3f3509af	0.707179
117	0x3fa804a4	1.3126416
118	0x3fd1f944	1.6404195
119	0x3f71f080	0.945076
120	0x3f254c89	0.6456991
121	0x3ffdf6e8	1.9840975
122	0x3f5c0f5d	0.8596094
123	0x4029ba06	2.651979
124	0x3f5e6aed	0.86881906
125	0x3f6b1df5	0.91842586
126	0x3f8512a2	1.0396311
127	0x3ed5e010	0.4177251
128	0x40d0ccb3	6.5249877
129	0x3fbd6527	1.4796494
130	0x3fcb586a	1.5886357
131	0x4079a7f5	3.9008763
132	0x3fc0f387	1.5074319
133	0x40164655	2.3480427
134	0x3f47ffc0	0.7812462
135	0x3fd4db85	1.6629492
136	0x407ef5b4	3.9837465
137	0x3f9fd6ce	1.2487428
138	0x3f71f2ab	0.94510907
139	0x3f692352	0.9106952
140	0x3f8b2d9a	1.0873291
141	0x401a130c	2.4074125
142	0x3f692170	0.91066647
143	0x3f826b43	1.0188984
144	0x408cc621	4.3991857
145	0x404d26d6	3.2054954
146	0x3f390ad4	0.7228215
147	0x3f64581e	0.89196956
148	0x3f2de950	0.6793413
149	0x3fccda22	1.6004069
150	0x4024678e	2.5688205
151	0x3f5791e0	0.8420696
152	0x3f784126	0.9697441
153	0x3f81f153	1.0151771
154	0x3f70b673	0.94028395
155	0x4066463a	3.5980363
156	0x3f9f9861	1.2468377
157	0x3f407307	0.7517552
158	0x4019f2eb	2.4054515
159	0x3f0a31a4	0.53981996
160	0x402c9788	2.6967487
161	0x3ef8d828	0.48602414
162	0x3f8b8120	1.0898781
163	0x3f9fef1e	1.2494848
164	0x3f4d69d1	0.8023959
165	0x40265890	2.5991554
166	0x3f8d521b	1.1040682
167	0x4050dc51	3.263447
168	0x3f537ece	0.82615364
169	0x3f32de25	0.69870216
170	0x3f8a3273	1.0796646
171	0x3ed32f14	0.41246855
172	0x3f617a60	0.88077354
173	0x3f64038b	0.89067906
174	0x407b5e67	3.9276369
175	0x3facab25	1.3489729
176	0x3f75175e	0.9573878
177	0x404288ec	3.039607
178	0x40970798	4.719677
179	0x3fd62e4b	1.6732877
180	0x3f3d916f	0.7405004
181	0x401d8ae7	2.461603
182	0x3ffc9008	1.9731455
183	0x400c8895	2.1958363
184	0x3f867e5f	1.0507315
185	0x3f25ba56	0.6473745
186	0x3f59a30d	0.8501442
187	0x3fb86b14	1.4407678
188	0x3fd50af7	1.6643971
189	0x3f8ab548	1.0836573
190	0x3f0fb8e0	0.5614147
191	0x3f1f74f7	0.6228785
192	0x3f6f6da3	0.9352667
193	0x3f35a330	0.7095213
194	0x3fd2e11c	1.6474948
195	0x40f60bbd	7.688933
196	0x3f75b690	0.95981693
197	0x40c04a53	6.009073
198	0x401a1428	2.4074802
199	0x3f51b4d9	0.81916577
200	0x3fc587e0	1.5432091
201	0x40babfba	5.835904
202	0x3f367b62	0.7128202
203	0x3fbd5c5a	1.4793808
204	0x3fb10f61	1.3832818
205	0x40781a2d	3.8765976
206	0x3f732e38	0.949924
207	0x4049e2ff	3.1544797
208	0x3f78e1bd	0.9721945
209	0x3f4c80ac	0.7988384
210	0x3f058223	0.521517
211	0x40157083	2.3349922
212	0x3ff76058	1.9326277
213	0x3feae040	1.8349686
214	0x3fb55b23	1.4168438
215	0x3fa468bb	1.2844461
216	0x3fa38f24	1.2778058
217	0x3f2a0393	0.66411704
218	0x3f3ba9c1	0.733059
219	0x40c17d67	6.046558
220	0x3f91b636	1.1383731
221	0x3f899b8d	1.0750595
222	0x3f17c88e	0.592904
223	0x3ed85f67	0.42260286
224	0x3fd11811	1.633547
225	0x400c4411	2.1916544
226	0x3fb9399c	1.4470706
227	0x40271539	2.6106703
228	0x3f8d2b9f	1.1028937
229	0x3f39be65	0.72556144
230	0x3f387c86	0.7206501
231	0x400a20a3	2.158242
232	0x3f30eb2e	0.69108856
233	0x4030a89d	2.7602913
234	0x3f1bae90	0.60813236
235	0x4035b4c5	2.8391583
236	0x3f9439cf	1.1580142
237	0x4001be13	2.0272262
238	0x3f890379	1.0704185
239	0x3f921474	1.1412492
240	0x3fbb62ea	1.4639561
241	0x3f4dd5d5	0.80404407
242	0x3fc3d2f7	1.5298756
243	0x3f90700b	1.1284193
244	0x3f74f178	0.9568095
245	0x3fb9da0a	1.4519665
246	0x3fc55665	1.541699
247	0x3f1fa379	0.62358814
248	0x3f3b1977	0.7308573
249	0x3f97f8b5	1.1872774
250	0x3fd81ab3	1.6883148
251	0x3fa84e36	1.3148868
252	0x3f9eafad	1.2397362
253	0x40a738e8	5.2256966
254	0x4023c568	2.5589237
255	0x3fc78e5b	1.5590318

fc2.weight f4 [256, 512]
0	0x3e3567f8	0.17715442
1	0xbf0e8ab8	-0.5568042
2	0x3d8a1481	0.06742192
3	0x3d3c16dc	0.045920238
4	0xbe5f63c6	-0.21815404
5	0x3e03516e	0.12824032
6	0xbe11bcb7	-0.14232145
7	0xbd839597	-0.064250164
8	0xbeb08763	-0.34478292
9	0x3e51d342	0.20490745
10	0xbd06306d	-0.032761026
11	0x3db3c319	0.08777446
12	0x3e9464f6	0.28983277
13	0x3e17378a	0.1476728
14	0x3e1b87df	0.1518855
15	0x3e80e3e6	0.25173873
16	0x3da7c054	0.081909806
17	0x3a463aaa	0.0007561842
18	0xbeb12689	-0.34599712
19	0xbdde9b37	-0.10869449
20	0xbc984ea2	-0.018592183
21	0x3e9eee4a	0.31041175
22	0x3f1e3d6b	0.61812466
23	0x3e2badac	0.1676547
24	0xbf232440	-0.6372719
25	0x3d256ef3	0.040389013
26	0xbe099f8c	-0.13439769
27	0xbeff8fd5	-0.49914423
28	0x3d765849	0.06014279
29	0xbe4d442b	-0.20045535
30	0xbe751657	-0.23934303
31	0xbdfdd099	-0.123933025
32	0xbe6caf4e	-0.23113748
33	0x3ddb80bc	0.107179135
34	0xbf063bd9	-0.5243507
35	0x3eac1e52	0.33616883
36	0x3d89d617	0.067302875
37	0x3d1939b4	0.037408546
38	0xbda96194	-0.08270565
39	0x3c86e625	0.016467163
40	0xbed160a2	-0.40894037
41	0xbe553875	-0.20822318
42	0xbdf984ec	-0.12183556
43	0x3f0cc8a3	0.5499365
44	0xbe4be462	-0.1991134
45	0x3d9cc455	0.07654635
46	0x3f06b730	0.5262327
47	0x3e82f9ab	0.25581107
48	0xbe57a401	-0.21058656
49	0xbe5998e3	-0.21249728
50	0xbf71f79b	-0.9451844
51	0x3e3a3ca6	0.18187198
52	0x3ed05b14	0.40694487
53	0xbe2929a6	-0.16519794
54	0xbe40416a	-0.18774953
55	0x3c45159b	0.012029077
56	0x3edb07bd	0.4277934
57	0xbe55f990	-0.20895982
58	0xbee2e0ac	-0.44312036
59	0x3c75561a	0.0149741415
60	0xbdb0efec	-0.086395115
61	0xbe169808	-0.14706433
62	0xbdeb6143	-0.114931606
63	0x3dcf27e6	0.10115032
64	0x3e4f52cd	0.2024643
65	0x3de36c7a	0.11104675
66	0x3cc96b45	0.024587283
67	0xbda45ff3	-0.08026113
68	0x3e15bcdd	0.14622827
69	0xbedb9661	-0.42888168
70	0xbe8ce3a6	-0.27517432
71	0x3e5f40d4	0.21802074
72	0xbea60cdc	-0.32431686
73	0x3eccdbeb	0.40011534
74	0xbe53d1df	-0.20685528
75	0xbe4ce262	-0.20008233
76	0xbeed8598	-0.46390986
77	0x3e7b21d0	0.24524617
78	0x3e0d2a9e	0.13785788
79	0xbdca352d	-0.09873424
80	0x3e31eb3e	0.17374894
81	0x3e950bf9	0.29110697
82	0x3ddcfb6b	0.10790142
83	0xbe22fcd4	-0.15916759
84	0x3e0e5fb8	0.13903701
85	0xbdc22c6e	-0.094811305
86	0x3e3dc2a0	0.18531275
87	0x3dd1f192	0.10251154
88	0x3de92c01	0.11385346
89	0x3d6fa25a	0.05850444
90	0xbd231a1e	-0.03981983
91	0x36f5b200	7.322291e-06
92	0xbd66d9c9	-0.05636004
93	0xbdd7b24f	-0.105320565
94	0xbd322d3a	-0.043500163
95	0x3c337072	0.010952102
96	0x3c8242ce	0.015900996
97	0x3dff420a	0.12463768
98	0x3da72cc4	0.08162835
99	0x3b14741c	0.0022652214
100	0xbe8c1618	-0.27360606
101	0xbe00cae0	-0.1257739
102	0xbd1a007a	-0.03759811
103	0xbeb049a6	-0.3443119
104	0xbd77a7eb	-0.060462873
105	0xbecdab0e	-0.40169567
106	0x3b91dbd4	0.0044512544
107	0xbe15d5e0	-0.14632368
108	0x3baafb21	0.005217925
109	0x3e0fd908	0.14047635
110	0x3d0bfd85	0.034177322
111	0x3f32af7e	0.6979903
112	0xbd650b46	-0.055918954
113	0xbe96ca64	-0.29451287
114	0xbd725b03	-0.059168827
115	0x3f2226b3	0.633403
116	0xbd56a688	-0.05240491
117	0x3e8b4181	0.27198413
118	0xbed1e5cb	-0.4099563
119	0xbc34e0ee	-0.011039956
120	0x3da00c0f	0.078148
121	0x3ec0dbce	0.37667698
122	0xbf42e139	-0.7612491
123	0x3e024051	0.12719847
124	0xbdd9e724	-0.1063979
125	0xbf08cd66	-0.53438413
126	0xbde94e1a	-0.1139185
127	0x3e945a11	0.28974965
128	0x3cdbb199	0.026818084
129	0x3e8412f9	0.25795725
130	0x3de0e889	0.109818526
131	0xbcd05080	-0.02542901
132	0x3da7b5c0	0.08188963
133	0xbc925d97	-0.017866893
134	0xbcee1279	-0.029061543
135	0xbdd1499f	-0.1021912
136	0xbe57a446	-0.21058759
137	0x3e5e97b8	0.21737564
138	0xbdc9e480	-0.09858036
139	0xbe80dab7	-0.25166866
140	0xbeaf25b4	-0.34208453
141	0xbe1a58ed	-0.15072985
142	0x3c5c3370	0.013439998
143	0x3db8f8cb	0.090318285
144	0xbcb354d6	-0.021891039
145	0xbdc2d67b	-0.09513565
146	0x3deeeb89	0.116660185
147	0x3d9768ed	0.0739306
148	0xbe271e9e	-0.16320273
149	0xbe0d7417	-0.13813816
150	0xbe2cc885	-0.16873367
151	0x3e3973e0	0.18110609
152	0xbe0b50b0	-0.13604999
153	0xbe8d5a4f	-0.27607962
154	0x3e8e3e77	0.27782032
155	0x3e1f4f87	0.15557681
156	0x3e3917a3	0.18075423
157	0xbf6d9337	-0.9280276
158	0xbe19b293	-0.15009527
159	0xbc048c3b	-0.008090074
160	0xbf1e351d	-0.61799794
161	0xbab26ca3	-0.0013612699
162	0x3e60bcdf	0.21947049
163	0xbcafb2a6	-0.02144749
164	0x3f11bc24	0.56927705
165	0x3e8af654	0.27141058
166	0x3d117609	0.035512958
167	0x3db97d8e	0.09057151
168	0xbe257166	-0.1615654
169	0xbe4c63ab	-0.19959895
170	0x3d8daca7	0.069176964
171	0x3e085f3b	0.13317578
172	0x3e6c625d	0.23084398
173	0x3cdbb7d2	0.02682105
174	0xbe2eaecb	-0.17058866
175	0x3e67351a	0.2257885
176	0xbcdb7560	-0.026789367
177	0xbd8f0d04	-0.069849044
178	0x3e1aa28d	0.1510107
179	0xbb2e99af	-0.0026641896
180	0xbeb16625	-0.34648243
181	0x3dc8d682	0.09806539
182	0x3e90849e	0.2822618
183	0x3d66274a	0.056189813
184	0x3e5c7cc8	0.21531975
185	0x3d8d02ee	0.068853244
186	0x3a2aed78	0.0006520371
187	0x3db683ee	0.08911882
188	0xbd832652	-0.064037934
189	0xbe234695	-0.15944894
190	0x3df50a45	0.119648494
191	0x3eefee4c	0.46861494
192	0x3da8c644	0.08240941
193	0xbca8c036	-0.020599466
194	0xbe6c5857	-0.23080574
195	0xbdffe9ef	-0.12495791
196	0xbf793e93	-0.97361106
197	0xbe9750aa	-0.2955373
198	0xbe8e4594	-0.2778746
199	0xbdcc4720	-0.099745035
200	0x3ed71212	0.42005974
201	0xbe2a665a	-0.16640607
202	0xbe686379	-0.22694196
203	0x3d166738	0.03671953
204	0x3cfefdd3	0.031126892
205	0x3d66212e	0.056183986
206	0xbcd92113	-0.026505029
207	0x3d101514	0.03517635
208	0x3e98de48	0.29857087
209	0x3da313ab	0.07962736
210	0xbdc008b8	-0.09376663
211	0x3e6f9184	0.23395354
212	0xbc1dbf21	-0.009628088
213	0xbe83b3fe	-0.2572326
214	0x3dfed870	0.12443626
215	0xbeb1c671	-0.3472171
216	0x3e8806cd	0.2656769
217	0x3ec4b0cf	0.38416144
218	0x3d7d9831	0.06191272
219	0xbe12fb78	-0.1435374
220	0xbe93fb48	-0.2890265
221	0xbe3fbaf6	-0.18723664
222	0xbf2da0bf	-0.67823404
223	0xbf0f117a	-0.5588604
224	0x3eca20c8	0.39478135
225	0xbe81a3b6	-0.25320214
226	0x3d83cb3f	0.064352505
227	0x3e48920c	0.19586962
228	0x3df5187e	0.11967562
229	0xbe315b7a	-0.17320052
230	0x3e954264	0.29152215
231	0xbedba622	-0.42900187
232	0x3da2e3eb	0.07953628
233	0x3e147f31	0.14501645
234	0xbe6f14ee	-0.23347828
235	0x3e30a3c6	0.17249975
236	0xbaa8b106	-0.001287014
237	0x3e20fb0f	0.15720771
238	0x3d5a2f88	0.053267986
239	0xbef6d560	-0.48209667
240	0xbdf58817	-0.11988848
241	0x3eccbfb8	0.3999002
242	0xbe693dfd	-0.22777553
243	0xbefe3336	-0.49648446
244	0xbd827ed0	-0.06371844
245	0x3e10e96f	0.14151548
246	0x3e4faa3b	0.20279782
247	0x3bb9410f	0.0056535075
248	0xbd2ee065	-0.042694468
249	0xbde73a36	-0.112904
250	0x3d76fc10	0.06029898
251	0xbe32c694	-0.17458564
252	0xbd2115ae	-0.039327316
253	0x3b0a3b5b	0.0021092508
254	0xbe0c069d	-0.13674398
255	0x3de51a7a	0.11186691
