Dream11-Team-Predictor-main/src/model_artifacts/Product_UI_test_Model.pth (torch, 779424 bytes, 31 tensors)

fc1.weight f4 [512, 25]
0	0xbd72a58c	-0.05923991
1	0x3e07b982	0.1325436
2	0xbe2b2dbb	-0.16716664
3	0x3e158bd7	0.14604126
4	0xbd07711f	-0.033066865
5	0xbded8501	-0.11597634
6	0x3e45a74c	0.193021
7	0xbeb2a899	-0.34894255
8	0xa94e5a00	-4.581925e-14
9	0x3c9fd4d7	0.01951067
10	0xbead492c	-0.33844888
11	0xbebcb9b1	-0.3686042
12	0xbe894b37	-0.26815197
13	0x3e44804c	0.19189566
14	0x3d2ae7af	0.041724857
15	0x3ec9ea93	0.39436778
16	0x3dbc1416	0.091835186
17	0xbe2af5ce	-0.1669533
18	0xbdd68249	-0.10474069
19	0xbddf1598	-0.108927906
20	0x3e6ecfcd	0.23321457
21	0x3eb707e2	0.35748202
22	0x3e1505a1	0.14552929
23	0x3e6fc218	0.23413885
24	0xbdeb0976	-0.11476414
25	0xbdf1c908	-0.11805922
26	0x3d2e668f	0.042578276
27	0x3d0c9365	0.034320254
28	0x3e14efe6	0.14544639
29	0xbe0bb34b	-0.13642614
30	0xbe1df1e9	-0.15424313
31	0xbe043a22	-0.12912801
32	0xbf27f5fc	-0.6560972
33	0xa9d055f2	-9.251965e-14
34	0xbea88728	-0.32915616
35	0xbe2d4c28	-0.16923583
36	0xbd400f43	-0.046889555
37	0x3e067ac5	0.1313277
38	0xbdbe11f3	-0.09280767
39	0xbd9ea240	-0.077457905
40	0xbe9f36ff	-0.31096646
41	0xbd864fbd	-0.065581776
42	0xbcba8204	-0.022767074
43	0x3d77e92d	0.060525108
44	0x3eb2e87d	0.34943
45	0x3d9352a6	0.07193498
46	0x3db4ad22	0.08822085
47	0x3e4014e4	0.18757969
48	0x3d1f4d10	0.038891852
49	0x3e6a1a21	0.2286153
50	0x3c9a74e7	0.018854572
51	0xbf09c8b3	-0.5382187
52	0xbf2d5dd1	-0.6772128
53	0xbcfd1c01	-0.030897142
54	0x3dde3759	0.108504005
55	0xbda8ca03	-0.08241656
56	0x3d413f24	0.047179356
57	0xbdb3d90b	-0.08781632
58	0xab7f6446	-9.0733356e-13
59	0xbc505ffa	-0.012718195
60	0xbe5a2ef4	-0.21306974
61	0x3e19a426	0.15004024
62	0x3ec5d0b7	0.386358
63	0x3e5c04ae	0.2148616
64	0x3cac40fd	0.021027083
65	0x3d8dcebe	0.069241986
66	0x3e457850	0.19284177
67	0x3db3e93a	0.08784719
68	0xbe042b74	-0.12907201
69	0xbe930693	-0.28715953
70	0x3cc477dd	0.023982937
71	0x3e3ae86c	0.18252724
72	0xbd450d7c	-0.048108563
73	0xbf530e5f	-0.82443804
74	0xbf40c21d	-0.75296193
75	0x3e065a7a	0.13120452
76	0xbec217c1	-0.37908748
77	0x3e506305	0.20350273
78	0xbda9099f	-0.08253788
79	0xbd996726	-0.07490377
80	0xbd6460dd	-0.05575644
81	0x3eaef39b	0.3417023
82	0x3e2a0936	0.16605076
83	0x29e9cd2c	1.038287e-13
84	0xbd71bdaf	-0.059018787
85	0x3e7934de	0.24336573
86	0xbf159b86	-0.58440435
87	0x3c99e911	0.018787893
88	0xbce18a74	-0.02753184
89	0xbd91c641	-0.07117892
90	0xbd297e05	-0.041379947
91	0x3e357d79	0.17723645
92	0x3e03f4a5	0.12886293
93	0xbea13095	-0.31482378
94	0x3e33fc82	0.17576793
95	0x3d9e6367	0.07733803
96	0x3d76b9d6	0.06023582
97	0x3cbbca7c	0.0229237
98	0xbe53a58f	-0.20668624
99	0xbde31df9	-0.11089701
100	0x3d50c926	0.05097308
101	0x3d9c89ea	0.076434925
102	0x3ea3ee93	0.32017955
103	0xbe03bbce	-0.1286461
104	0x3e8aeadf	0.27132317
105	0xbe880223	-0.2656413
106	0x3dffb0b5	0.12484876
107	0x3e682cb8	0.22673309
108	0xaad3c656	-3.7618753e-13
109	0xbcb81343	-0.022470122
110	0xbe2af082	-0.16693309
111	0x3e06a255	0.13147862
112	0x3db19fe5	0.086730756
113	0xbecc7fe6	-0.3994133
114	0xbde546cc	-0.11195144
115	0xbe7f56b5	-0.2493542
116	0x3db1440e	0.086555585
117	0xbe00d56c	-0.12581414
118	0xbe833b0f	-0.25630996
119	0xbe4543d1	-0.19264151
120	0xbefc8030	-0.4931655
121	0x3e62a704	0.22134024
122	0xbe4b5bb9	-0.19859208
123	0xbe8a7eea	-0.27049953
124	0xbe9f760b	-0.31144747
125	0x3e74d2ab	0.23908488
126	0x3e56053d	0.20900436
127	0x3ea7edaa	0.3279851
128	0xbd751050	-0.05983001
129	0xbd8bb7f3	-0.06822195
130	0x3e686eac	0.22698468
131	0x3deb923c	0.11502501
132	0xbe9b19f3	-0.30293235
133	0xa9c0c7bd	-8.561162e-14
134	0xbd67abe0	-0.056560397
135	0xbcb1df96	-0.02171306
136	0x3e13ccc8	0.14433587
137	0xbd8324b9	-0.06403489
138	0x3df5cd96	0.12002103
139	0x3d243c51	0.040096585
140	0xbea47f56	-0.321284
141	0xbf0c9305	-0.54911834
142	0x3e6dbbb8	0.2321614
143	0xbd1e9b0d	-0.038722087
144	0xbe956f5e	-0.2918653
145	0x3cf6708c	0.030082963
146	0x3dafe5d9	0.08588762
147	0x3e847650	0.25871515
148	0xbe0463a6	-0.12928638
149	0x3e0dd897	0.13852154
150	0x3bb96b81	0.0056585674
151	0x3ea0e834	0.31427157
152	0xbd79de51	-0.061003033
153	0xbe0925b5	-0.1339329
154	0x3e40e8eb	0.18838851
155	0x3eb1fbbf	0.3476238
156	0x3cdd284b	0.026996752
157	0x3ce95520	0.028482974
158	0xaa3fae00	-1.7024576e-13
159	0x3e195b5f	0.14976262
160	0xbe9b0bcb	-0.30282435
161	0xbe9a8a6f	-0.3018374
162	0x3f0227da	0.5084206
163	0xbcf77c0c	-0.030210517
164	0x3e003153	0.12518816
165	0xbdb16a1b	-0.08662816
166	0x3e844d2e	0.25840133
167	0xbe8d7eec	-0.27635896
168	0xbdec479d	-0.11537097
169	0x3dfda51e	0.12385009
170	0x3ea994a9	0.3312123
171	0xbcfa3a5f	-0.030545412
172	0xbd10fd28	-0.03539768
173	0x3ed6943a	0.41909963
174	0x3e9f7722	0.3114558
175	0x3d1a5d2f	0.037686523
176	0x3d2c8b15	0.042124826
177	0xbe92f80d	-0.28704873
178	0xbeac4c95	-0.33652177
179	0x3ddad741	0.10685588
180	0x3c8b5d11	0.017012151
181	0x3e4caabe	0.19987008
182	0xbe5ba82a	-0.21450868
183	0x2b69a5db	8.30084e-13
184	0xbde5607e	-0.11200045
185	0xbda116e7	-0.078656964
186	0x3e38ad80	0.18034935
187	0x3e7c0944	0.2461291
188	0xbf2cf8f5	-0.6756738
189	0x3e2068fe	0.15665051
190	0xbebaef00	-0.36510468
191	0xbe1b53e3	-0.15168719
192	0xbe0c15e3	-0.13680224
193	0xbda87a76	-0.082264826
194	0xbd7a56b3	-0.06111784
195	0x3ec6779e	0.38763136
196	0x3e94d316	0.29067296
197	0xbee81623	-0.4532939
198	0xbe746e82	-0.2387028
199	0xbdd9bc20	-0.10631585
200	0x3e23aa00	0.15982819
201	0x3e5567e2	0.2084041
202	0xbf4c6bbb	-0.79851884
203	0xbe83dbbd	-0.25753585
204	0x3de856b0	0.11344659
205	0xbd2914f3	-0.041279744
206	0x3d017a93	0.031611037
207	0x3cef57a5	0.029216597
208	0x2b4515ae	7.0018546e-13
209	0x3d0f190d	0.034936
210	0xbed5d807	-0.41766378
211	0x3e339146	0.17535886
212	0xbd988794	-0.074477345
213	0x3e3654f9	0.17805852
214	0xbcfdec0c	-0.030996345
215	0x3d48bb70	0.04900688
216	0xbf5497f7	-0.8304438
217	0xbe037b9c	-0.12840122
218	0xbde3b722	-0.11118914
219	0xbe496297	-0.19666515
220	0xbd2509bc	-0.040292487
221	0xbe5d79ae	-0.21628448
222	0x3dd562de	0.10419248
223	0x3ec37e10	0.38182116
224	0xbe8fb212	-0.28065544
225	0xbe64c60b	-0.22341172
226	0x3bd977a6	0.0066365777
227	0xbe1f3c7d	-0.15550418
228	0x3e6387a1	0.22219707
229	0x3eb476f5	0.35247007
230	0xbe8cd8bb	-0.27509102
231	0xbdfe136c	-0.12406048
232	0xbe71e185	-0.23621185
233	0x2aa3120f	2.8967147e-13
234	0x3e20e7c0	0.15713406
235	0x3dfdcdbe	0.12392758
236	0xbe59ad35	-0.2125748
237	0xbdd53a11	-0.10411466
238	0xbe505c16	-0.20347628
239	0x3e67d252	0.22638825
240	0x3e9fe5f9	0.31230143
241	0x3ab39ec7	0.0013703936
242	0x3e784613	0.24245481
243	0x3da24274	0.07922831
244	0xbe347024	-0.17620903
245	0x3e5b8826	0.21438655
246	0xbec3da32	-0.38252407
247	0x3d6c5245	0.057695646
248	0xbe6a036a	-0.22852865
249	0x3ca72c40	0.020406842
250	0xbdb82185	-0.08990768
251	0x3e1792ea	0.14802137
252	0x3d8b7f20	0.068113565
253	0xbe6f3cad	-0.2336299
254	0xbe98841a	-0.29788285
255	0x3dbc5055	0.091950096

fc1.bias f4 [512]
0	0x3c12a4db	0.008950437
1	0x3d0387ad	0.032111812
2	0xbb2cf44a	-0.0026390725
3	0x3b55c771	0.0032620097
4	0xbc458544	-0.012055699
5	0xbb191ab9	-0.0023361875
6	0xbaacf23e	-0.0013194752
7	0xbcc2e3c8	-0.023790255
8	0x3c4158ce	0.011800958
9	0xbb5c6407	-0.0033628957
10	0x3abed2b5	0.0014558645
11	0x3a5474ba	0.0008104552
12	0xbcb9aa0e	-0.022664096
13	0xbac54514	-0.0015050494
14	0xbc01ee52	-0.007930355
15	0x3c41e266	0.011833763
16	0x3aa8da53	0.0012882449
17	0xbbcadda8	-0.0061909743
18	0x3c9ae274	0.01890681
19	0x3a6dfadc	0.00090782135
20	0xb98b4f8a	-0.00026571407
21	0xbadde5c2	-0.0016929435
22	0x3bb02334	0.0053752903
23	0x3d14602b	0.036224525
24	0xba9b945a	-0.0011869774
25	0x3c0c3c63	0.008559319
26	0xbcaddd9b	-0.021223834
27	0xbac35d60	-0.0014905147
28	0xbc481c2e	-0.01221375
29	0x3b835629	0.004008074
30	0xbc46de7f	-0.012138008
31	0xbcadc967	-0.0212142
32	0xbb0f18ad	-0.0021834776
33	0x3b80b3da	0.00392769
34	0xbcbfbabe	-0.023404475
35	0x3c53ece4	0.012934897
36	0xbc81ce70	-0.015845507
37	0x3add112e	0.0016866082
38	0x3c479424	0.012181316
39	0xbba6090b	-0.005066996
40	0xbb6efe46	-0.0036467477
41	0x3ba19960	0.004931614
42	0x3bba8f2e	0.005693338
43	0xbc6d4aab	-0.014483134
44	0x3c8f80de	0.017517503
45	0xbba0b002	-0.0049037943
46	0x3d0fe025	0.03512587
47	0xbc00e019	-0.007865929
48	0xbb714b0f	-0.003681842
49	0xbc2cb156	-0.010540327
50	0xbc81db21	-0.01585156
51	0x3b582dfc	0.0032986393
52	0xbd1c1cd0	-0.038113415
53	0xbbcb51e4	-0.0062048305
54	0x3c625381	0.013813854
55	0xbc046ea9	-0.008083024
56	0xbbbe39fa	-0.005805251
57	0xbc2980cd	-0.01034565
58	0x3ca15097	0.019691749
59	0x3c0b0bae	0.008486671
60	0xbc636a67	-0.013880349
61	0xbc2b2407	-0.010445601
62	0x3d16f152	0.036851235
63	0x3c87a070	0.016555995
64	0xbab7d4fc	-0.0014025266
65	0xbbac5304	-0.0052589197
66	0xbc807999	-0.015682982
67	0x3b82ea74	0.003995234
68	0x3bebbf14	0.007194409
69	0xbc63a361	-0.013893933
70	0x3c8148c0	0.01578176
71	0xbc88da22	-0.016705576
72	0xbc7583c2	-0.014985027
73	0xbc93468b	-0.017977973
74	0xbb8544bb	-0.004067031
75	0x3bb0d17d	0.0053960667
76	0x3c6c9968	0.014440872
77	0x3a7323a0	0.0009275023
78	0x3c233f8a	0.009963879
79	0x3b58f63b	0.003310575
80	0x3c1fe654	0.009759504
81	0xbbe68a24	-0.0070355106
82	0x3afa2cb6	0.0019086811
83	0xbbc810ae	-0.006105504
84	0xbb4e5d38	-0.0031488668
85	0x3c416bc3	0.011805478
86	0x3b4e9cf4	0.0031526657
87	0x3b1532c4	0.0022765854
88	0xb8e937c0	-0.0001112069
89	0x3aa31aee	0.0012443939
90	0x3bc47872	0.0059958035
91	0x3a9cfeca	0.0011977789
92	0xbbf1ae81	-0.007375539
93	0x3d2acf3c	0.04170154
94	0x3c3ebc74	0.01164161
95	0xbced2f14	-0.028953113
96	0xbc051992	-0.008123772
97	0xbb3d665b	-0.002890012
98	0xbbb8b275	-0.005636508
99	0xbacc39f1	-0.0015581233
100	0x3ce5459a	0.02798729
101	0x3c378c69	0.01120291
102	0x3bf23a96	0.007392238
103	0xbc999216	-0.018746417
104	0xbc426900	-0.011865854
105	0x3c60103a	0.013675744
106	0x3ab01338	0.0013433462
107	0xba587274	-0.0008256801
108	0xba176fd6	-0.0005776858
109	0xbc4e6376	-0.0125969555
110	0x3b824650	0.003975667
111	0xbba84f16	-0.005136381
112	0x3aaeff86	0.0013351298
113	0xbc50bc8e	-0.012740267
114	0xbc37c203	-0.01121569
115	0xbc1fccf2	-0.009753453
116	0x39b7fa30	0.00035090884
117	0x3d1e0c80	0.03858614
118	0xbc25032c	-0.010071557
119	0xbba97a1d	-0.0051720277
120	0xbc9d52f2	-0.01920459
121	0xbc9bbdd5	-0.019011417
122	0xbbf7c606	-0.007561448
123	0xbc7a2ef3	-0.015269983
124	0xbc918baa	-0.017766792
125	0xbc6d85c7	-0.014497227
126	0xbba3ce7c	-0.00499898
127	0xbc8e2f30	-0.017356485
128	0x3c211a28	0.009832896
129	0xbcf141b1	-0.02945027
130	0x3a212e40	0.00061485544
131	0x3b4502a0	0.003006138
132	0xba763e4e	-0.00093934394
133	0x3aff7372	0.0019489361
134	0x3b3b6684	0.002859504
135	0x3bbced2c	0.005765578
136	0xbb0aa6bf	-0.0021156517
137	0x3a441e0c	0.0007481284
138	0x3bfb8f5a	0.007677001
139	0x3d2346a1	0.03986228
140	0x3c6c5cec	0.014426451
141	0x3d399946	0.04531219
142	0x3bc5d868	0.0060377605
143	0xbd774365	-0.060367007
144	0x3caea544	0.02131904
145	0xbc7d9088	-0.0154763535
146	0xbbf76bda	-0.0075506987
147	0x3cbea432	0.023271654
148	0xbc03ab07	-0.008036382
149	0x3c212d44	0.009837452
150	0x3bcc4dfa	0.0062348815
151	0xbcdbdbe8	-0.026838258
152	0x3b901716	0.0043972833
153	0x3ca68a96	0.020329755
154	0xbc4fa5f4	-0.012673844
155	0xbcc48a6d	-0.023991788
156	0x3c29b20f	0.010357394
157	0x3bb425bd	0.005497663
158	0xbc4bbadd	-0.012434688
159	0xbbbb7dcb	-0.005721783
160	0x3d08f749	0.033438955
161	0xbc244e9e	-0.010028509
162	0x3ab45155	0.0013757149
163	0x3b906026	0.004405993
164	0x3b6e9756	0.0036406121
165	0xbc91e18d	-0.017807746
166	0xba29cef0	-0.00064776745
167	0xbc2bedfb	-0.010493751
168	0xbbeab6f1	-0.0071629216
169	0x3bc70656	0.0060737533
170	0xba725fe8	-0.00092458585
171	0xba31997d	-0.00067748857
172	0xbb9be2b0	-0.004757248
173	0xbbdcfeba	-0.006744233
174	0xbc9b3482	-0.018945936
175	0xbbaae240	-0.0052149594
176	0xbb4cf707	-0.003127517
177	0x3b6cdce0	0.0036142394
178	0x3c517155	0.012783368
179	0xbbca2d8c	-0.0061699804
180	0x3ba3674d	0.0049866796
181	0x3c8048ea	0.015659768
182	0xbb5a466d	-0.0033306137
183	0x3c1fe668	0.009759523
184	0x3c8f0992	0.017460618
185	0x3c2efa70	0.010679826
186	0x38557ba0	5.0898292e-05
187	0xbbaa296b	-0.0051929257
188	0xbcbc0aff	-0.022954462
189	0x3b1c3a97	0.0023838633
190	0x3a72beba	0.0009259988
191	0xbbe536de	-0.006995066
192	0x3ca3eb51	0.020009669
193	0xbb8bcf5b	-0.004266662
194	0x3b6aebd0	0.0035846122
195	0x3cbd7d45	0.023131022
196	0xbcadae81	-0.021201374
197	0x3c58e0a6	0.013237154
198	0xbbf3dce4	-0.0074421037
199	0x3b5325bf	0.0032218543
200	0xbc00e093	-0.007866043
201	0xbb83d8a0	-0.0040236264
202	0xbbced31c	-0.0063117873
203	0x3bd04364	0.00635569
204	0xbba66cf8	-0.005078908
205	0xbb9bb240	-0.0047514737
206	0x3c4b97e1	0.0124263475
207	0xbcaa3227	-0.020775868
208	0x3d24aefd	0.040205944
209	0x3c632926	0.013864791
210	0xb9521d00	-0.00020037964
211	0x3b28cd95	0.0025757302
212	0xbbba0276	-0.005676563
213	0xbbb98a98	-0.0056622736
214	0x3ced16ea	0.02894159
215	0xbcf1e586	-0.02952839
216	0x391811f3	0.00014502536
217	0x3a1611fc	0.0005724726
218	0x3ca48869	0.020084577
219	0xbd0705c5	-0.032964487
220	0xbc2caa2f	-0.010538622
221	0xbbdddd6b	-0.00677078
222	0x3b4cb6a2	0.0031236787
223	0xbc3e3e87	-0.011611587
224	0x3ad3eea8	0.0016169148
225	0x39533b90	0.00020144717
226	0x3ac0c5da	0.0014707402
227	0x3b9b409b	0.004737926
228	0xbc40b582	-0.011762025
229	0x3ba49cc2	0.00502357
230	0xbd44ff06	-0.04809477
231	0xb9436fa0	-0.00018638233
232	0xbca0f3dc	-0.019647531
233	0x3bd8649b	0.00660379
234	0xbcd3b0f6	-0.025841217
235	0x3ab38e84	0.0013699089
236	0x3bcbedaa	0.0062234
237	0x3aa32a4b	0.0012448517
238	0xbb402715	-0.002932017
239	0x3afe4c14	0.0019401335
240	0x3cea97de	0.028636869
241	0x3bb8b238	0.0056364797
242	0x3c92c8e1	0.017918052
243	0xbb599e9f	-0.0033206118
244	0xbc5908d0	-0.01324673
245	0x3c05a235	0.008156349
246	0xbb4e09b9	-0.00314389
247	0x3cc0a4c0	0.023516059
248	0x3c574bde	0.013140647
249	0xbcc41816	-0.023937266
250	0xbc2c594e	-0.010519339
251	0xbbb33570	-0.0054690167
252	0xb91d1e24	-0.00014983915
253	0x3c392abc	0.011301693
254	0x3cb87a2d	0.022519195
255	0xbaca045e	-0.0015412678

bn1.weight f4 [512]
0	0x3f8e6767	1.1125306
1	0x3f7dc5a4	0.991297
2	0x3f1053fc	0.5637815
3	0x3f88b008	1.067872
4	0x3fae8a44	1.3635945
5	0x3fc136b7	1.5094823
6	0x3f5d6b5f	0.8649196
7	0x3f90051a	1.1251557
8	0x3f079d55	0.52974445
9	0x3f8bd766	1.0925109
10	0x3f6023c7	0.8755459
11	0x3f2446bc	0.6417043
12	0x3f9aaad1	1.2083379
13	0x3f6b9a37	0.9203219
14	0x3f56a143	0.83839816
15	0x3f6e8b5c	0.93181396
16	0x3f9db9a6	1.232228
17	0x3f3b8c4c	0.7326095
18	0x3f71c85c	0.9444635
19	0x3f5821e6	0.84426725
20	0x3f32040c	0.69537425
21	0x3f0d53c5	0.5520595
22	0x3f49f5fc	0.7889097
23	0x3f9ff56b	1.2496771
24	0x3f805352	1.0025427
25	0x3f932ace	1.1497438
26	0x3f9029c9	1.1262752
27	0x3f7ecc40	0.9953041
28	0x3f4fd7d9	0.8118873
29	0x3f928d14	1.1449304
30	0x3f77dfb6	0.9682573
31	0x3f9bd009	1.2172862
32	0x3f863429	1.0484668
33	0x3fa02f7d	1.2514492
34	0x3fa4a10e	1.286165
35	0x3f9ac3b4	1.2090974
36	0x3f574c2b	0.841006
37	0x3f6f25f9	0.93417317
38	0x3f445b2a	0.76701605
39	0x3f5e4e08	0.86837816
40	0x3f3e8357	0.7441916
41	0x3f957a12	1.1677878
42	0x3f5b8309	0.8574682
43	0x3f8a3f1f	1.0800513
44	0x3f9739ea	1.1814549
45	0x3f1abc39	0.60443455
46	0x3f704d17	0.9386763
47	0x3f5e722a	0.8689295
48	0x3f758ac2	0.9591485
49	0x3f6b0d38	0.91817045
50	0x3f616cad	0.8805645
51	0x3f27f53a	0.6560856
52	0x3f9b87bc	1.2150798
53	0x3f61c69a	0.88193667
54	0x3f83b008	1.0288095
55	0x3f6ec3dc	0.9326761
56	0x3f544e01	0.82931525
57	0x3f90f626	1.1325119
58	0x3f8af46b	1.085584
59	0x3f624151	0.88380915
60	0x3f578424	0.84186006
61	0x3f0f3b64	0.5595
62	0x3f89b19d	1.0757328
63	0x3f726d6c	0.94698215
64	0x3f271601	0.6526795
65	0x3f827609	1.0192271
66	0x3f6f7586	0.935387
67	0x3f200ced	0.62519723
68	0x3f3d8677	0.740333
69	0x3fa4a41d	1.2862583
70	0x3f8aecd2	1.0853522
71	0x3f45698b	0.7711417
72	0x3f488b3a	0.7833744
73	0x3facc1e2	1.3496668
74	0x3f1c5d92	0.61080277
75	0x3f930609	1.1486217
76	0x3f81c64b	1.0138639
77	0x3f42feb5	0.761699
78	0x3f86929c	1.0513492
79	0x3f87163c	1.055366
80	0x3f34716e	0.7048558
81	0x3e881523	0.26578626
82	0x3f3f0036	0.74609697
83	0x3f30874e	0.6895646
84	0x3f3a0da1	0.72677046
85	0x3fa15002	1.2602541
86	0x3f824cf7	1.0179738
87	0x3f83a71a	1.028537
88	0x3f81dd0d	1.0145584
89	0x3f468e96	0.7756132
90	0x3f873090	1.0561695
91	0x3f4e2be2	0.8053571
92	0x3f786fdc	0.97045684
93	0x3f91a864	1.1379514
94	0x3f9ccdb4	1.2250276
95	0x3f63b719	0.8895126
96	0x3f9f0f94	1.2426629
97	0x3edd5ee8	0.4323647
98	0x3f2229ff	0.6334533
99	0x3f0d8faf	0.5529737
100	0x3f828281	1.0196077
101	0x3f8652de	1.0494039
102	0x3f84c3bf	1.0372237
103	0x3f8015f7	1.0006703
104	0x3f467582	0.7752305
105	0x3f8858ac	1.065206
106	0x3f078695	0.5293973
107	0x3f4ddc9d	0.80414754
108	0x3f37efdc	0.7185037
109	0x3f90e807	1.1320809
110	0x3f63d74c	0.8900039
111	0x3f2267f7	0.6343989
112	0x3f1d2bb1	0.6139479
113	0x3f4b7942	0.794819
114	0x3f82cb33	1.0218261
115	0x3f877a7c	1.0584254
116	0x3f7aa12f	0.97902197
117	0x3fad37a7	1.3532609
118	0x3f564119	0.8369308
119	0x3f45f366	0.7732452
120	0x3f8be4e3	1.0929226
121	0x3f531e07	0.82467693
122	0x3f83d5d8	1.0299635
123	0x3f638950	0.888814
124	0x3f7d7c47	0.9901776
125	0x3f5633fd	0.8367308
126	0x3f3cf214	0.7380688
127	0x3f82de75	1.0224138
128	0x3f918d31	1.1371213
129	0x3f905f42	1.127907
130	0x3f85d0c2	1.0454333
131	0x3f5775ba	0.8416401
132	0x3f02e50a	0.51130736
133	0x3f8a8d90	1.0824451
134	0x3f00c4ad	0.50300103
135	0x3f36af76	0.7136148
136	0x3f2e3608	0.68051195
137	0x3f9d4cf6	1.2289112
138	0x3f704a69	0.9386354
139	0x3fab1580	1.3365936
140	0x3f962d42	1.1732562
141	0x3fa8638b	1.3155378
142	0x3f7bb0ef	0.98316854
143	0x3faa7e52	1.33198
144	0x3f2af0b8	0.6677356
145	0x3f83bf05	1.029267
146	0x3f5e1be1	0.8676129
147	0x3f96c2fb	1.1778253
148	0x3f3e485c	0.7432916
149	0x3fa4b24b	1.2866911
150	0x3f69a390	0.912652
151	0x3f8996d5	1.0749155
152	0x3f807a30	1.0037289
153	0x3f8d2ebe	1.102989
154	0x3f799286	0.974892
155	0x3f7bd7de	0.9837626
156	0x3f8013fb	1.0006098
157	0x3f5b5e37	0.85690635
158	0x3f853459	1.04066
159	0x3f84f778	1.0388021
160	0x3f90d0a2	1.131367
161	0x3f70af30	0.94017315
162	0x3f62a425	0.88531715
163	0x3fa48d44	1.2855611
164	0x3f0b1c26	0.54339826
165	0x3f94283e	1.1574781
166	0x3f48d392	0.7844783
167	0x3f573506	0.8406528
168	0x3f8e913f	1.1138076
169	0x3f1f28ee	0.6217183
170	0x3f518e3a	0.81857646
171	0x3f2a2b11	0.66471964
172	0x3f729625	0.9476035
173	0x3f5d6fb0	0.86498547
174	0x3f5f3ee3	0.8720533
175	0x3f6a1ba3	0.9144842
176	0x3f55ccaf	0.8351545
177	0x3f78151c	0.9690721
178	0x3f63b6b0	0.88950634
179	0x3f83d6a1	1.0299875
180	0x3f8e4e62	1.111767
181	0x3fb99bb1	1.4500638
182	0x3f4f92f0	0.81083584
183	0x3f6d1727	0.9261345
184	0x3f92c094	1.146502
185	0x3f1ff298	0.62479544
186	0x3f2f7393	0.6853573
187	0x3f8e76d5	1.1130015
188	0x3f8717f1	1.0554181
189	0x3f694e54	0.91135144
190	0x3ee4915a	0.44642144
191	0x3f3ac3ae	0.72954834
192	0x3f7e3c65	0.99310905
193	0x3f8082bd	1.0039898
194	0x3f25eb4b	0.64812154
195	0x3fb033de	1.3765829
196	0x3f9718f7	1.1804494
197	0x3f84e458	1.0382185
198	0x3f854537	1.0411748
199	0x3f1b1cca	0.60590804
200	0x3f630209	0.8867498
201	0x3f242824	0.6412375
202	0x3f5121a9	0.81691986
203	0x3f8ddf43	1.1083759
204	0x3f744aa4	0.9542639
205	0x3f8f6c87	1.1204995
206	0x3f45f10b	0.7732093
207	0x3f948f2e	1.1606195
208	0x3f8e89bd	1.1135784
209	0x3f7d35c2	0.9891015
210	0x3f6ff071	0.9372626
211	0x3f19313d	0.59840757
212	0x3f2204ac	0.6328838
213	0x3f802205	1.0010382
214	0x3f6ebf31	0.93260485
215	0x3f7a6d28	0.9782281
216	0x3f6dad4f	0.9284257
217	0x3f65c2b2	0.89750206
218	0x3f84bb22	1.0369608
219	0x3f80da10	1.0066547
220	0x3f8e9144	1.1138082
221	0x3f45eade	0.77311504
222	0x3f27ca35	0.6554292
223	0x3f912345	1.1338888
224	0x3f316ce1	0.6930676
225	0x3f7a472e	0.9776486
226	0x3fa5416b	1.2910589
227	0x3f37f282	0.7185441
228	0x3f9b2969	1.2122012
229	0x3f74cf78	0.9562907
230	0x3f9ec86e	1.2404916
231	0x3f1ef95d	0.6209925
232	0x3f7ace20	0.9797077
233	0x3f64224a	0.8911482
234	0x3f6fcca1	0.93671614
235	0x3fa9f51c	1.3277926
236	0x3f6f9f07	0.9360203
237	0x3f863105	1.048371
238	0x3f220031	0.6328154
239	0x3f0b8434	0.544986
240	0x3f9656ea	1.1745274
241	0x3f8078eb	1.0036901
242	0x3f527d99	0.82222897
243	0x3f849a9c	1.0359683
244	0x3f351032	0.7072784
245	0x3f825531	1.0182248
246	0x3f8371ec	1.0269141
247	0x3f696318	0.9116683
248	0x3f9114ac	1.1334434
249	0x3f636cc2	0.88837826
250	0x3fa389bb	1.2776407
251	0x3f8f039e	1.1172979
252	0x3f5780da	0.84180987
253	0x3f538faa	0.8264109
254	0x3fb0a08c	1.3798995
255	0x3f212525	0.62947303

bn1.bias f4 [512]
0	0xbe94be40	-0.290514
1	0xbebb1839	-0.36541918
2	0xbea5692d	-0.32306805
3	0xbf005488	-0.50128984
4	0xbe062b54	-0.13102466
5	0xbea2fddf	-0.31834313
6	0xbec374f8	-0.38175178
7	0xbecedb3a	-0.40401632
8	0xbe037fc8	-0.12841713
9	0xbe834bfe	-0.25643915
10	0xbe9cecf0	-0.3064952
11	0xbe361d85	-0.17784698
12	0xbe627909	-0.22116484
13	0xbe9846fe	-0.29741663
14	0xbeb9cbd9	-0.36288336
15	0xbe718335	-0.23585208
16	0x3c8ac9ec	0.016941987
17	0xbe8339f6	-0.25630158
18	0xbeff6648	-0.49882722
19	0xbe9ae86a	-0.30255443
20	0xbeb16d60	-0.3465376
21	0xbea11913	-0.31464443
22	0xbea0e0c0	-0.3142147
23	0x3d46bd88	0.048520595
24	0xbf0bab99	-0.5455871
25	0xbe861630	-0.26188803
26	0x3c87896e	0.016545024
27	0xbdcad372	-0.09903611
28	0xbe942a88	-0.289387
29	0xbea7543f	-0.32681462
30	0xbea163d7	-0.31521484
31	0xbedfb90f	-0.43695876
32	0xbe7cc524	-0.24684578
33	0xbe5dfa31	-0.21677472
34	0xbe9ac249	-0.30226353
35	0xbe9e80c6	-0.3095762
36	0xbec01f06	-0.3752367
37	0xbf0cb687	-0.54966015
38	0x3e004407	0.1252595
39	0xbe85263b	-0.2600573
40	0xbe7b09ef	-0.24515508
41	0xbd4a994d	-0.049462605
42	0xbe0da1b2	-0.13831213
43	0xbeb885f2	-0.36039692
44	0xbc31bae3	-0.01084778
45	0xbda910b7	-0.08255141
46	0xbc0ee39f	-0.008721261
47	0xbee43261	-0.44569686
48	0xbe745654	-0.23861057
49	0xbeb693f8	-0.35659766
50	0xbde0f23c	-0.109837025
51	0xbeb3a5da	-0.35087472
52	0xbcd163f1	-0.025560351
53	0xbe91eb39	-0.28499773
54	0xbe218523	-0.15773444
55	0xbedd8bd4	-0.43270743
56	0xbe6e38c6	-0.23263845
57	0xbeb08e28	-0.34483457
58	0xbedadbc1	-0.42745784
59	0x3da2cc77	0.07949155
60	0xbed356ff	-0.4127731
61	0xbeb1fe07	-0.3476412
62	0xbe713882	-0.23556712
63	0xbe2117c5	-0.15731724
64	0xbe26969d	-0.16268392
65	0xbe7b05db	-0.24513952
66	0xbe323566	-0.17403182
67	0xbe76f039	-0.24115075
68	0xbef7cb1c	-0.48397148
69	0xbe80c8d6	-0.25153226
70	0xbe603094	-0.21893531
71	0xbeda2efa	-0.42613965
72	0xbe85174e	-0.25994343
73	0xbe26fc83	-0.16307263
74	0xbeca195a	-0.39472467
75	0xbea8a17f	-0.32935712
76	0xbe97ec18	-0.29672313
77	0xbd94b245	-0.07260565
78	0xbe8a6a58	-0.2703426
79	0xbeab9253	-0.33510074
80	0xbe4113a0	-0.18855143
81	0xbd4f4e45	-0.050611753
82	0x3d37ef3a	0.04490588
83	0xbe317af0	-0.17332053
84	0xbeca7162	-0.3953963
85	0xbe99a7b2	-0.30010754
86	0xbce20790	-0.027591497
87	0xbefbcbd0	-0.49178934
88	0xbebfa2c4	-0.37428868
89	0xbee33807	-0.44378683
90	0xbe6c20b0	-0.23059344
91	0xbea7b477	-0.3275487
92	0xbed8e87a	-0.42364866
93	0xbec67a8c	-0.3876537
94	0xbef8d5a9	-0.4860051
95	0xbeab79fb	-0.334915
96	0xbe7792f5	-0.24177153
97	0xbe4894ee	-0.19588062
98	0xbe894798	-0.26812434
99	0xbeb12fc1	-0.34606746
100	0x3d2799f6	0.040918313
101	0xbed1873e	-0.40923494
102	0xbebd36ac	-0.36955774
103	0xbed8eb12	-0.42366844
104	0x3c8feacc	0.017568015
105	0xbe8766da	-0.26445657
106	0xbe9b0c73	-0.30282936
107	0xbe337ada	-0.17527333
108	0xbeb5c820	-0.35504246
109	0xbee5441a	-0.4477852
110	0xbeb8431b	-0.35988697
111	0xbe13b8c1	-0.14425947
112	0xbea0df02	-0.3142014
113	0xbdd332b0	-0.10312402
114	0xbeef4532	-0.4673248
115	0xbe6d76bd	-0.23189826
116	0xbe823362	-0.25429827
117	0xbe1ba953	-0.15201311
118	0xbe540979	-0.20706739
119	0xbeebf498	-0.46085048
120	0xbe32887d	-0.17434879
121	0xbe6de0e1	-0.23230316
122	0xbe1ec64f	-0.15505336
123	0xbf16489f	-0.5870456
124	0xbe87e5b7	-0.26542446
125	0xbeaa3f5e	-0.3325147
126	0xbd62cf97	-0.055373754
127	0xbeb31a57	-0.34981033
128	0xbed67d58	-0.41892505
129	0xbedc9989	-0.43085888
130	0xbefd3384	-0.49453366
131	0xbeb10149	-0.34571293
132	0xbe5018d7	-0.20321976
133	0xbe1ccafb	-0.15311806
134	0xbe5dece6	-0.21672401
135	0xbe4fe359	-0.2030157
136	0xbed48dfa	-0.4151457
137	0xbe00cade	-0.12577388
138	0xbe9c3bdc	-0.3051442
139	0xbef9bb02	-0.48775488
140	0xbec55f66	-0.38549346
141	0xbe958a55	-0.292071
142	0xbec578f0	-0.3856883
143	0xbed6a7b1	-0.41924813
144	0xbe0d471c	-0.13796657
145	0xbf083fda	-0.5322243
146	0xbdb5716a	-0.08859523
147	0xbe85a18d	-0.26099816
148	0xbea3cf82	-0.31994253
149	0xbe940e2c	-0.28917062
150	0xbd7c869c	-0.06165181
151	0xbf1c7017	-0.61108536
152	0xbdb9f2b7	-0.09079497
153	0xbdf958ca	-0.12175138
154	0xbf0b0689	-0.54306847
155	0xbedb75c0	-0.42863274
156	0xbd405a21	-0.046960954
157	0xbeb068aa	-0.34454852
158	0xbe84cb55	-0.2593638
159	0xbcd48266	-0.025941085
160	0xbe4cc496	-0.19996867
161	0xbe97bbdd	-0.29635516
162	0xbf1d3196	-0.6140379
163	0xbf028b22	-0.5099355
164	0xbe6e7f30	-0.23290706
165	0xbe5df545	-0.21675594
166	0xbe1b186b	-0.15146033
167	0xbe812337	-0.2522218
168	0xbefdcfad	-0.49572507
169	0xbeae5d3f	-0.34055516
170	0xbedd4a56	-0.43220776
171	0xbf02d989	-0.5111318
172	0xbdd7f374	-0.10544482
173	0xbe9e9b6a	-0.30977947
174	0xbe8870db	-0.26648602
175	0xbde4dd59	-0.11175031
176	0xbe9fb54e	-0.31193012
177	0xbe7de011	-0.24792506
178	0xbe109499	-0.14119186
179	0xbe676d12	-0.22600201
180	0xbebc683d	-0.36798277
181	0xbf375413	-0.7161266
182	0xbe760a0e	-0.24027273
183	0xbec01170	-0.37513304
184	0xbe904da8	-0.28184247
185	0xbea64bb0	-0.3247962
186	0xbe91df01	-0.2849045
187	0xbe3f8d15	-0.18706162
188	0xbe8cec84	-0.27524197
189	0xbea54dbc	-0.3228587
190	0xbe39c653	-0.18142061
191	0xbdeb5476	-0.11490719
192	0xbe5c87e0	-0.21536207
193	0xbe28a164	-0.16467816
194	0xbe4af68b	-0.19820611
195	0x3add1668	0.001686764
196	0xbea07c2c	-0.31344736
197	0xbeaec896	-0.3413741
198	0xbeeb3422	-0.45938212
199	0xbe33d191	-0.17560412
200	0xbe57ed1b	-0.21086542
201	0xbeb31b96	-0.34981984
202	0xbe367e71	-0.17821671
203	0xbecb136c	-0.39663255
204	0xbef22a8e	-0.47298092
205	0xbe8a8ea4	-0.2706195
206	0xbc2ed06e	-0.010669811
207	0xbe856cc9	-0.2605956
208	0xbe2392d4	-0.15973979
209	0xbea690db	-0.3253239
210	0xbe9fd331	-0.31215814
211	0xbeb541a4	-0.35401642
212	0xbe916d64	-0.2840377
213	0xbec290e1	-0.3800116
214	0xbed08287	-0.40724584
215	0xbddc8b82	-0.107687965
216	0xbe96087f	-0.29303357
217	0xbea46d0a	-0.3211444
218	0xbefcb2af	-0.49355075
219	0xbe66337c	-0.22480577
220	0xbeb63624	-0.3558818
221	0xbeaa9dc4	-0.3332349
222	0xbe677ad7	-0.22605453
223	0xbf01dbea	-0.5072619
224	0xbea7b85e	-0.32757849
225	0xbeace0cb	-0.33765253
226	0xbe7b87ed	-0.2456357
227	0xbed7d006	-0.42150897
228	0xbf2582fd	-0.64653
229	0xbe21fda3	-0.15819411
230	0xbdd6de9d	-0.10491679
231	0xbe840690	-0.25786257
232	0xbf0ffd3e	-0.5624579
233	0xbe26b01b	-0.16278116
234	0x3e042710	0.12905526
235	0x3b2c28cd	0.0026269436
236	0xbe7c1028	-0.24615538
237	0xbf12de28	-0.57370234
238	0xbea47531	-0.3212066
239	0xbe3b29f1	-0.18277718
240	0xbf09a7a3	-0.5377142
241	0xbe7a8604	-0.24465185
242	0xbe6b43e3	-0.22975115
243	0xbe8efee3	-0.27928838
244	0xbe723670	-0.23653579
245	0x3d2f3472	0.042774625
246	0xbc91080e	-0.017704036
247	0xbeafe534	-0.34354556
248	0xbee96328	-0.45583463
249	0xbe4cc7f0	-0.19998145
250	0xbeb0cc07	-0.3453066
251	0xbec38281	-0.38185504
252	0xbdd6db08	-0.10490996
253	0xbe1fa472	-0.15590075
254	0xbf108353	-0.56450385
255	0xbe88a114	-0.26685393

bn1.running_mean f4 [512]
0	0x3d2a289f	0.041542646
1	0xbbc5ede6	-0.0060403226
2	0xbbaba886	-0.0052385954
3	0x3c52262e	0.012826486
4	0xbab662d9	-0.0013914957
5	0xbca49df1	-0.020094844
6	0xbb014de8	-0.0019730274
7	0xbc837acc	-0.016049765
8	0x3b3f1171	0.0029154683
9	0xba9c543a	-0.0011926957
10	0x3a6687fe	0.0008794068
11	0x3bd03f81	0.0063552265
12	0xbc85a9f8	-0.016316399
13	0x3bcba399	0.0062145707
14	0xbc086920	-0.008325845
15	0x3b0591e8	0.0020381156
16	0x39127022	0.00013965418
17	0x3a251df1	0.0006298712
18	0xbac20426	-0.0014802262
19	0xbbc3e237	-0.0059778946
20	0xbb863926	-0.004096168
21	0xba8aff12	-0.0010604581
22	0x3b8c52a5	0.004282313
23	0x3ce0da13	0.027447736
24	0x3b96912d	0.004594943
25	0x3b94a2f9	0.0045360294
26	0xbcb6afef	-0.022300689
27	0x3b078db8	0.0020683836
28	0x3c40d1fb	0.011768813
29	0x3c117ec6	0.008880323
30	0xb8750d00	-5.842466e-05
31	0xbcc6fddf	-0.024290977
32	0x3b4c7cdb	0.003120235
33	0x3bba9d2e	0.005695007
34	0xbbef9416	-0.0073113544
35	0x3c395671	0.011312113
36	0x3ae16cbb	0.0017198542
37	0xbb186e77	-0.0023259202
38	0x3b42d624	0.0029729689
39	0xbbf09785	-0.0073422813
40	0xbbc8f1a2	-0.0061323205
41	0x3b257ce2	0.0025251438
42	0x3c0010f4	0.007816542
43	0xbc323b2e	-0.010878367
44	0x3c7151b0	0.0147289485
45	0xb9a8f4dd	-0.00032225894
46	0x3cb1b38c	0.02169206
47	0xbbb08b4f	-0.0053877006
48	0x3bbfc3b8	0.005852189
49	0xbc6ebcaf	-0.014571353
50	0xbbc9f4f8	-0.0061632358
51	0x3b2b8a07	0.00261748
52	0xbcdefdac	-0.02722057
53	0x3b75dc7a	0.0037515447
54	0xbb8e71dc	-0.004347069
55	0xbc18a99c	-0.009317782
56	0xbb764943	-0.0037580288
57	0xba192f7b	-0.0005843562
58	0xbb5c7444	-0.0033638636
59	0x3c0b7d07	0.008513696
60	0xbbf2bf0d	-0.007408029
61	0xbc042243	-0.008064809
62	0x3c775a8a	0.01509727
63	0x3b2e8e57	0.0026635134
64	0xbb28f088	-0.0025778133
65	0x3b1e1bb6	0.0024125404
66	0xbb24f797	-0.002517199
67	0x3a1e27c8	0.00060331495
68	0xbba62548	-0.0050703622
69	0x3c782a85	0.015146856
70	0x3b0d1d6e	0.0021532434
71	0xbc97352e	-0.018457975
72	0xbbdf12f2	-0.0068076784
73	0xbc05279c	-0.008127119
74	0xb8524aba	-5.0137496e-05
75	0x38a128c0	7.6846685e-05
76	0x3ca7111d	0.020393902
77	0x3b79be02	0.0038107638
78	0x3c01a2d6	0.007912358
79	0x3c34dd08	0.011039026
80	0xbb2c639a	-0.0026304484
81	0xbaae1fac	-0.0013284585
82	0xbbb86bd9	-0.005628091
83	0xbc4ba779	-0.012430065
84	0xbbdfdb22	-0.0068315426
85	0x3b4cb840	0.0031237751
86	0x39be6866	0.00036317407
87	0x3bbd1d04	0.005771281
88	0xbc85d0e9	-0.016334968
89	0x372a1130	1.0136791e-05
90	0x3aa2dffe	0.0012426374
91	0xbb0c3380	-0.0021393
92	0xbc979b10	-0.018506557
93	0x3d340576	0.04395052
94	0x3bcfa290	0.0063365176
95	0xbc6958f6	-0.014242401
96	0xbc5292d3	-0.012852388
97	0xbbfef8af	-0.0077811102
98	0xbc08b724	-0.008344445
99	0xbba9cb12	-0.0051816786
100	0x3beb3418	0.007177841
101	0x3c850f1a	0.016242553
102	0x3c30e432	0.0107965935
103	0xbc8f8684	-0.017520197
104	0xbc220872	-0.009889709
105	0xbb83670a	-0.004010086
106	0xbb7c289a	-0.003847635
107	0x3c2fcb5d	0.010729638
108	0xbc2cf4b8	-0.010556392
109	0xbc2878ec	-0.010282736
110	0x3abe2744	0.0014507552
111	0x3934879e	0.00017216659
112	0xbbaa977a	-0.0052060457
113	0xbb949dcd	-0.004535413
114	0xbbff2959	-0.0077869114
115	0x3a7aeccf	0.00095720304
116	0xbb970d0c	-0.0046097096
117	0x3d6825a6	0.05667653
118	0xbc974c7d	-0.01846909
119	0xbaa5583c	-0.0012614797
120	0xbcd556a4	-0.02604229
121	0x3b219a72	0.0024658707
122	0x38ffbff0	0.00012195099
123	0xbbc78dab	-0.006089886
124	0xbc516eb2	-0.0127827395
125	0xbc1eee19	-0.009700322
126	0xbb9e5030	-0.0048313364
127	0xbc67560b	-0.014119635
128	0xbbb25f28	-0.0054434724
129	0xbcb88636	-0.022524934
130	0x3c21d3bf	0.009877144
131	0xbb520492	-0.003204618
132	0x3aa072d1	0.0012241249
133	0x3c5bab93	0.013407606
134	0xba2143ce	-0.0006151766
135	0x3b28b41e	0.0025742124
136	0x3be8ac39	0.0071006087
137	0x3b844ed1	0.004037716
138	0x3c6d979e	0.01450148
139	0x3c589c12	0.013220804
140	0xbbc3de45	-0.0059774243
141	0x3c70cd44	0.014697377
142	0x3b7f2847	0.003893392
143	0xbd17e66f	-0.037084993
144	0xbc14440a	-0.009049425
145	0xbbdc9746	-0.0067319004
146	0xbc0106ce	-0.0078751575
147	0x3ca2e070	0.01988241
148	0x3b1086aa	0.0022052922
149	0xbc8b8dbc	-0.017035358
150	0x3c026213	0.007957953
151	0xbcb6a598	-0.022295758
152	0xbbb33c97	-0.0054698694
153	0x3d0ce515	0.034398157
154	0xbc65b0de	-0.014019219
155	0x3c0fc79e	0.00877562
156	0xb865f4e0	-5.4825912e-05
157	0x3b77edd0	0.0037830956
158	0xbab74005	-0.0013980871
159	0x3c6e1489	0.014531263
160	0x3abe1f00	0.0014505088
161	0xbc22433d	-0.009903726
162	0xbb8ec934	-0.0043574814
163	0xbc2bea87	-0.010492927
164	0xbbdee02e	-0.0068016266
165	0xbbed0cb1	-0.007234179
166	0xbb83cb26	-0.00402202
167	0xbbdf5b5a	-0.00681631
168	0x3b4af6cd	0.0030969859
169	0xbb977da7	-0.004623133
170	0xbc214c00	-0.00984478
171	0x393ae378	0.00017823081
172	0xbb9dc8b1	-0.004815184
173	0x3b7e44aa	0.0038798251
174	0xbc5be6ce	-0.013421727
175	0xbb460bda	-0.0030219466
176	0xbc1ecd9a	-0.009692574
177	0x3cfc0a7f	0.030766724
178	0xbc56bffa	-0.013107294
179	0x3b8d2df3	0.004308456
180	0xbb072ce9	-0.0020626134
181	0x3cb1adeb	0.021689376
182	0xbbf9e9e1	-0.0076267575
183	0x3bd6e58c	0.006558126
184	0xbb12b1ac	-0.0022383733
185	0x3becf731	0.007231616
186	0xbb80a02d	-0.0039253444
187	0xbc2359b5	-0.009970118
188	0xbcb481bd	-0.02203452
189	0xbb614914	-0.0034375833
190	0xbb46de7e	-0.0030345018
191	0xbc009491	-0.007847921
192	0x3d1e4f80	0.038650036
193	0x3ae9900d	0.001781942
194	0xba2c8d36	-0.00065823214
195	0x3c8b8ffd	0.017036432
196	0xbc8b96a6	-0.017039608
197	0x3bf2b50e	0.0074068373
198	0xbc4e9ae3	-0.01261017
199	0x38f121be	0.000114980605
200	0x3c0c438a	0.008561024
201	0xbb4d3301	-0.0031310918
202	0x3c88858b	0.01666524
203	0x3c08373a	0.008313948
204	0xbbd3b59e	-0.0064608594
205	0x3bc5ad7b	0.0060326434
206	0x3c982e97	0.018576903
207	0xbc7972d9	-0.015225136
208	0x3cbbf21f	0.0229426
209	0x3c65bf2f	0.0140226325
210	0x3c0b5813	0.008504885
211	0xbb32a422	-0.0027258475
212	0xba8b3526	-0.0010620698
213	0xbc4d3e92	-0.012527125
214	0x3b81efe8	0.0039653666
215	0xbba3d308	-0.004999522
216	0x3b259cfb	0.002527057
217	0xbc2fbd8e	-0.010726346
218	0x3be1b5d4	0.0068881307
219	0xbc997f9e	-0.01873761
220	0xba15f758	-0.0005720756
221	0xbbe41311	-0.0069602807
222	0x398f709c	0.00027358986
223	0x3a42d8b8	0.00074328063
224	0xba8c8985	-0.0010722136
225	0x3aeb97fb	0.0017974371
226	0xbcb2641e	-0.021776255
227	0x3b7ad79d	0.0038275488
228	0x3bcd1eb1	0.006259762
229	0x3c0dac35	0.008647014
230	0xbc713a7d	-0.014723417
231	0x3a67390e	0.00088204525
232	0xbc62bd56	-0.0138390865
233	0xbb8d7bb4	-0.004317725
234	0xbc9035d2	-0.017603789
235	0x3c3d15c5	0.011540835
236	0x3abb390e	0.0014283971
237	0xbb7782bf	-0.003776714
238	0xbb6d0a87	-0.0036169605
239	0xbb12ed3e	-0.002241924
240	0x3bd7912c	0.006578585
241	0xbc0565e3	-0.0081419675
242	0x3b1a3d86	0.0023535206
243	0x3b335089	0.0027361235
244	0xbbde21cd	-0.0067789317
245	0x3c439785	0.011937981
246	0xb99cd46a	-0.000299129
247	0xba0495e8	-0.0005057738
248	0x3bad59fe	0.005290269
249	0xbb1a4d0a	-0.0023544454
250	0xbc815d55	-0.015791574
251	0xbb947822	-0.0045309225
252	0xbbd4ab2f	-0.0064901332
253	0x3c956df7	0.018240912
254	0x3d0d0792	0.034431048
255	0xbbcee976	-0.006314452

bn1.running_var f4 [512]
0	0x3efe73e2	0.49697787
1	0x3f78cba5	0.97185737
2	0x40c029f0	6.0051193
3	0x3f3bf871	0.73425967
4	0x3f5ca694	0.8619168
5	0x3f081d2b	0.53169507
6	0x3f498773	0.78722304
7	0x3fc604b4	1.5470185
8	0x4035d1bf	2.840927
9	0x3f665df1	0.89987093
10	0x3f981328	1.1880846
11	0x400f4703	2.2387092
12	0x3f95e8b5	1.1711642
13	0x3fa585f2	1.2931502
14	0x3f9a1f5b	1.2040819
15	0x3f0e9b70	0.5570593
16	0x3f634708	0.8878026
17	0x3fac4cde	1.3460958
18	0x3f7154d4	0.9427006
19	0x402d3cb1	2.7068293
20	0x40761568	3.8450565
21	0x40220aaa	2.531901
22	0x3f982955	1.1887614
23	0x3f5f750f	0.8728799
24	0x3fa2ef40	1.2729263
25	0x3f5eaa75	0.86978847
26	0x3f6a5298	0.9153228
27	0x3f08bc5d	0.5341242
28	0x402e20d6	2.7207541
29	0x3ef9e886	0.48810214
30	0x3ff09834	1.8796449
31	0x3f83d22a	1.0298512
32	0x3eb18371	0.34670594
33	0x3f61241e	0.87945735
34	0x3f0c1c5c	0.5473077
35	0x3f3685ee	0.7129811
36	0x3f049a98	0.5179839
37	0x3f02552c	0.5091121
38	0x3fc199e7	1.5125092
39	0x3fa5b47e	1.2945707
40	0x405af8e2	3.4214406
41	0x3ef0b1b4	0.47010577
42	0x3f20aded	0.6276539
43	0x401861e7	2.3809755
44	0x3f563159	0.8366905
45	0x3f8ab017	1.0834988
46	0x3f3f1062	0.74634373
47	0x3faca311	1.3487264
48	0x3f40a480	0.7525101
49	0x3fa6302b	1.298345
50	0x3f0e17ca	0.5550505
51	0x4015a656	2.3382773
52	0x3f54f443	0.83185214
53	0x3ff4c66c	1.9123054
54	0x3f61321c	0.87967086
55	0x3fa6ff64	1.3046689
56	0x3fc4ec80	1.5384674
57	0x3f5c1e94	0.8598416
58	0x3fc2133c	1.516212
59	0x3f7554df	0.9583263
60	0x3f8d7d05	1.1053778
61	0x3fd19dd4	1.637629
62	0x3f6809fe	0.90640247
63	0x3f8922b4	1.0713716
64	0x4082e3ff	4.0903316
65	0x3f611568	0.8792329
66	0x3f4d0713	0.8008892
67	0x3fa6c792	1.3029654
68	0x40144666	2.3167968
69	0x3f3fb37a	0.74883235
70	0x3f5f675f	0.87267107
71	0x3fc4c66a	1.5373051
72	0x3fc81f54	1.563456
73	0x3f156a73	0.58365554
74	0x3fe181ce	1.7617738
75	0x3fc52a85	1.5403601
76	0x3f45e51d	0.77302724
77	0x3f900c4f	1.1253756
78	0x3f214417	0.6299452
79	0x3f8ae4a6	1.0851028
80	0x40273fa6	2.6132598
81	0x3fc20f1d	1.5160862
82	0x3edbf350	0.4295907
83	0x3fb063db	1.3780473
84	0x3f9a6962	1.206341
85	0x3f886f20	1.0658913
86	0x3fa732f6	1.3062427
87	0x3f807353	1.0035194
88	0x3f279da9	0.65474945
89	0x40734889	3.8013022
90	0x3f2f86c2	0.68565
91	0x3f2c6644	0.67343545
92	0x3f507fb9	0.8144489
93	0x3ed5e898	0.41779017
94	0x3f9ebfe6	1.2402313
95	0x3fd0c111	1.6308919
96	0x3f26456a	0.6494967
97	0x40b80605	5.750735
98	0x405c6746	3.4438033
99	0x40a9d6cd	5.307471
100	0x3ee9a467	0.45633242
101	0x3f1e63ca	0.61871016
102	0x3f712fff	0.9421386
103	0x3fa3ca2a	1.279607
104	0x3f021e61	0.50827605
105	0x3f660413	0.89849967
106	0x41037bb1	8.217698
107	0x3f9b6ddc	1.2142901
108	0x4021917b	2.5245044
109	0x3f5488e1	0.8302136
110	0x3f6ec1e6	0.93264616
111	0x4098269b	4.7547126
112	0x40ac5fde	5.3867025
113	0x3f552d86	0.8327259
114	0x3fbaa149	1.458047
115	0x3f5b99c8	0.85781527
116	0x3f394b8f	0.7238092
117	0x3f0d290e	0.5514077
118	0x3ff12ac3	1.8841175
119	0x40779289	3.8683188
120	0x3f06cf27	0.5265984
121	0x3f9c5edd	1.221645
122	0x3f642c36	0.8912996
123	0x3f7a3e36	0.97751176
124	0x402d5eac	2.7089033
125	0x3f41f15c	0.7575891
126	0x3fd58e12	1.6683981
127	0x3f1733c0	0.5906334
128	0x3f9f7efd	1.2460629
129	0x3eb980d1	0.36231092
130	0x3f4d4ec6	0.80198324
131	0x40155891	2.3335307
132	0x400a2cdb	2.1589878
133	0x3fa6f9ba	1.304496
134	0x40c6c491	6.211495
135	0x3f88b1ff	1.067932
136	0x40171c7a	2.361113
137	0x3f797d73	0.97457045
138	0x3f6b2225	0.91848975
139	0x3ed32788	0.41241097
140	0x3f984aff	1.1897887
141	0x3f251012	0.64477646
142	0x40203d17	2.5037286
143	0x3efcf511	0.4940572
144	0x3f99a6c6	1.200402
145	0x3f603dd2	0.8759433
146	0x403a48a7	2.9106843
147	0x3f10520d	0.563752
148	0x40b964ab	5.7935386
149	0x3f858c48	1.0433435
150	0x3f3aa793	0.7291195
151	0x3fee5b1e	1.8621557
152	0x3f510003	0.8164064
153	0x3f0d5b98	0.55217886
154	0x3f37bb81	0.71770483
155	0x3ee0a169	0.43873146
156	0x3f1036bf	0.56333536
157	0x40158b47	2.3366258
158	0x3f8c5efc	1.0966487
159	0x3f316c4f	0.6930589
160	0x3f30259b	0.6880738
161	0x3f81539e	1.0103643
162	0x3f87db4f	1.0613803
163	0x3f4c0883	0.7970049
164	0x401ef6d6	2.4838157
165	0x3f2d9dd7	0.6781897
166	0x3f9aad48	1.2084131
167	0x4034a28a	2.8224206
168	0x3f9e0f06	1.2348335
169	0x406db7dc	3.714347
170	0x3f81c955	1.0139567
171	0x3f99cbbd	1.2015301
172	0x3f90a4b3	1.1300262
173	0x3fb5d592	1.4205801
174	0x3fda49f6	1.7053821
175	0x3f642d3a	0.8913151
176	0x3f88f9c2	1.070122
177	0x3f80fca4	1.00771
178	0x3f0b9786	0.5452808
179	0x3fa5556b	1.2916692
180	0x3fe17127	1.7612656
181	0x3f859317	1.0435513
182	0x3f7697dd	0.96325475
183	0x3f3cd379	0.7376018
184	0x3f0f77f9	0.5604244
185	0x3fa138f2	1.2595503
186	0x403b4fae	2.9267383
187	0x3f3cd679	0.7376476
188	0x3f0c084e	0.5470017
189	0x3fb63b00	1.4236755
190	0x400c454b	2.1917293
191	0x3fb63eb1	1.4237882
192	0x3fc3727a	1.526931
193	0x3fd9e1fa	1.7022088
194	0x3ff821a4	1.9385266
195	0x3f20188b	0.6253745
196	0x3f875a48	1.0574427
197	0x3f757a27	0.95889515
198	0x3f73091c	0.94935775
199	0x401cbea7	2.4491365
200	0x3f6d8540	0.9278145
201	0x40512be5	3.268304
202	0x3f637192	0.8884517
203	0x3f9f5e80	1.2450714
204	0x3f7d7356	0.99004114
205	0x3f8b7d21	1.0897561
206	0x3fb5ec0f	1.4212664
207	0x3f0d4a50	0.55191517
208	0x3f4eb143	0.8073923
209	0x3f027eac	0.50974536
210	0x3f9c0e46	1.2191856
211	0x40948cf0	4.6422043
212	0x3fbf91e9	1.4966403
213	0x3f35615f	0.708517
214	0x3f16a02c	0.5883815
215	0x3f53b937	0.8270449
216	0x3f2486f7	0.6426844
217	0x3f90d950	1.1316319
218	0x3fbe40c2	1.4863513
219	0x3fa670dc	1.3003192
220	0x3f8a6519	1.0812103
221	0x408b3965	4.350756
222	0x4042485c	3.0356665
223	0x3fa40406	1.2813728
224	0x3f805c90	1.0028248
225	0x3f47b349	0.7800794
226	0x3ef073d9	0.46963385
227	0x3f7d1ffa	0.9887692
228	0x3f403bd7	0.7509131
229	0x3f8e8397	1.1133908
230	0x3f1e888a	0.6192709
231	0x403fa7b6	2.9946113
232	0x404c469b	3.1918094
233	0x400ee180	2.2325134
234	0x3f52f147	0.8239941
235	0x3f2f8e48	0.6857648
236	0x3f5e1aad	0.86759454
237	0x3fa8616d	1.3154732
238	0x40ad0f29	5.4081006
239	0x4103efb0	8.246017
240	0x3f6ae0f4	0.917495
241	0x3f4da802	0.80334485
242	0x3f68361d	0.9070757
243	0x3fdb71ea	1.7144139
244	0x4063c9f8	3.5592022
245	0x3f042b4f	0.51628584
246	0x3efe2e5a	0.49644738
247	0x3f48f247	0.78494686
248	0x3f0ff5be	0.5623435
249	0x3f999d8d	1.2001206
250	0x3ef01931	0.4689422
251	0x3fa030e4	1.251492
252	0x3f7bfaba	0.98429453
253	0x3fc331ff	1.5249633
254	0x3e99e538	0.30057693
255	0x40708867	3.7583253

fc2.weight f4 [256, 512]
0	0x3cb049b2	0.021519516
1	0xbe629485	-0.22126968
2	0x390f23c8	0.00013650872
3	0x3ec80b6c	0.39071214
4	0x3da9432a	0.08264764
5	0x3e272f53	0.16326647
6	0xbeb1dc9e	-0.3473863
7	0x3e09647c	0.13417238
8	0x3c9568aa	0.018238384
9	0x3936c394	0.00017429731
10	0xbdc197ef	-0.09452807
11	0x3de3025c	0.110844344
12	0xbd4e1cda	-0.050320484
13	0xbc593539	-0.013257318
14	0xbeb27e3f	-0.34861943
15	0xbd1d499d	-0.03840028
16	0x3e8a1ad0	0.2697358
17	0xbe2b7265	-0.16742857
18	0xbe1a647a	-0.15077391
19	0x3e2173ea	0.15766874
20	0xbe29dc2d	-0.16587897
21	0x3cf6c958	0.030125305
22	0x3e10a7ab	0.1412646
23	0xbf06f1d5	-0.52712756
24	0x3e115512	0.14192608
25	0xbcbd8efe	-0.023139473
26	0xbd8989be	-0.06715725
27	0xbe1cfdb9	-0.15331163
28	0xbdc3ea02	-0.09566118
29	0x3e7834c2	0.24238876
30	0x3e6d54ad	0.23176832
31	0xbdb5c93f	-0.08876275
32	0xbe1edd19	-0.1551403
33	0xbe613376	-0.21992287
34	0xbcc409cc	-0.023930453
35	0xbc9d569d	-0.01920634
36	0xbec8cae9	-0.39217308
37	0xbd7f0356	-0.06225904
38	0xbe040640	-0.12893009
39	0xbe418e6f	-0.1890199
40	0xbd2fe2a8	-0.042940766
41	0xbd941c85	-0.07232002
42	0x3e1f4926	0.15555248
43	0xbe08bec6	-0.13354024
44	0xbe41056a	-0.18849722
45	0xbe8db652	-0.27678162
46	0xbdd6787a	-0.10472198
47	0xbe0032b3	-0.1251934
48	0xbe7332ba	-0.2374982
49	0xbe1dfc02	-0.15428165
50	0x3e396d99	0.18108214
51	0xbcda2d10	-0.026632816
52	0xbddce8ca	-0.107865885
53	0xbdd8981a	-0.10575886
54	0x3db5728f	0.08859741
55	0x3e570f3f	0.2100191
56	0xbdaf525a	-0.08560629
57	0xbf1227f5	-0.5709222
58	0x3d88305f	0.06649851
59	0xbdb7ee81	-0.08981038
60	0xbd8cc2d8	-0.06873101
61	0xbe488fb6	-0.19586071
62	0xbe406359	-0.18787898
63	0xb97752ac	-0.00023586553
64	0x3b2a5f48	0.0025996733
65	0xbc47f136	-0.012203505
66	0xbdc7e500	-0.09760475
67	0xbca53033	-0.020164585
68	0xbe976e76	-0.29576463
69	0xbcf72f4e	-0.030173924
70	0xbac341f2	-0.0014896973
71	0xbe84279d	-0.25811473
72	0xbe73ce46	-0.23809156
73	0x3d9bd672	0.076092616
74	0x3e5710aa	0.2100245
75	0x3dbe635b	0.09296294
76	0x3c8be12a	0.01707514
77	0xbdaceace	-0.08443223
78	0x3dc97cb9	0.09838242
79	0x3e036db6	0.1283482
80	0xbe32717f	-0.17426108
81	0xbe0d3a45	-0.1379176
82	0xbe0c54cf	-0.13704227
83	0xbd8d596f	-0.06901824
84	0xbeb5bd54	-0.35496008
85	0xbe87421b	-0.26417622
86	0xbe28dac2	-0.164897
87	0x3dd6000d	0.104492284
88	0xbe3cbfc9	-0.18432535
89	0xbe009314	-0.12556106
90	0x3d8b9eee	0.06817423
91	0x3b50570a	0.003179016
92	0x3dc53a6a	0.09630282
93	0x3e4bb263	0.19892268
94	0xbc318400	-0.010834694
95	0x3dc258ab	0.09489568
96	0xbd320d1a	-0.043469526
97	0x3bd82454	0.0065961275
98	0x3d95fd44	0.07323697
99	0xbd8857c7	-0.06657367
100	0xbb20be22	-0.002452739
101	0x3d1f7bf0	0.038936555
102	0xbe023ce3	-0.12718539
103	0x3ca2aba1	0.01985723
104	0xbe047ece	-0.12938997
105	0x3ea56cd1	0.32309583
106	0x3dbc8bda	0.09206362
107	0x3cb79476	0.022409659
108	0xbd82a779	-0.06379599
109	0x3e225230	0.15851665
110	0x3c9e10c5	0.019295106
111	0x3c35cf04	0.01109672
112	0xbd833e57	-0.06408375
113	0x3d8c1b8d	0.068411924
114	0x3b957bff	0.0045619006
115	0x3d94683e	0.07246445
116	0xbdc1990f	-0.09453022
117	0xbd347c46	-0.04406383
118	0x3df0d72a	0.11759789
119	0x3d099b15	0.033595163
120	0x3dbb5e5c	0.09148857
121	0xbe4302f6	-0.19044098
122	0xbd561832	-0.05226917
123	0xbd0c76ff	-0.03429317
124	0xbd855a0f	-0.06511318
125	0xbe6a18b8	-0.22860992
126	0x3dfe205c	0.12408516
127	0xbd63a610	-0.05557829
128	0xbdf3d112	-0.11905111
129	0xbd5f1ee9	-0.054472838
130	0xbd2e1080	-0.042496204
131	0xbe49f168	-0.19720995
132	0xbebb2303	-0.3655015
133	0x3e970544	0.29496205
134	0x3d9251ab	0.07144483
135	0xbe5fedd6	-0.21868071
136	0xbe1bec74	-0.15226918
137	0x3d35c04a	0.044372834
138	0x3cd7cbb4	0.02634225
139	0xbed6e055	-0.41968027
140	0x3d30dd3c	0.043179736
141	0xbece6bb0	-0.40316534
142	0xbd570f1b	-0.05250464
143	0x3d8b0598	0.06788176
144	0xbe5a55ff	-0.21321867
145	0xbe1e3076	-0.15448174
146	0x3dd128ad	0.102128364
147	0x3ea1a6a1	0.3157244
148	0x3db8ccbc	0.09023425
149	0x3c1e8cf1	0.009677158
150	0x3e5b4f62	0.21417001
151	0xbdd1ef45	-0.10250715
152	0x3e914680	0.283741
153	0x3db69593	0.08915248
154	0xbba605a0	-0.0050665885
155	0xbd3fded5	-0.04684337
156	0xbea6f48b	-0.32608446
157	0xbd8584df	-0.06519484
158	0x3dbdd244	0.092686206
159	0x3e90c642	0.2827626
160	0x3be0f2e5	0.006864893
161	0x3d0b1e92	0.0339647
162	0xbd9fa5ef	-0.07795321
163	0xbe4484e8	-0.19191325
164	0x3d046101	0.032319073
165	0x3d0ceae1	0.034403685
166	0xbd300ac5	-0.04297902
167	0x3ca09fe9	0.019607501
168	0x3e0fff97	0.14062344
169	0x3db3c606	0.08778004
170	0xbe0068ce	-0.1253998
171	0x3d1fee22	0.03904546
172	0x3e43a53c	0.19106
173	0xbd26301b	-0.04057322
174	0x3e754ca9	0.23955025
175	0xbc605ea4	-0.013694439
176	0xbe318e36	-0.17339405
177	0xbd9d2230	-0.076725364
178	0x3d87eded	0.066371776
179	0x3c9394f7	0.018015368
180	0xbe905646	-0.2819082
181	0xbd81d158	-0.06338757
182	0x3d1e7ef4	0.03869529
183	0x3ddc8dbb	0.107692204
184	0xbceeb5b8	-0.029139385
185	0x3d4dd572	0.050252385
186	0x3db6e17c	0.089297265
187	0x3dc29c5a	0.09502478
188	0xbd21c970	-0.039498746
189	0xbe2921d4	-0.1651681
190	0x3db154ed	0.086587764
191	0x3dc8e8fb	0.098100625
192	0xbd775861	-0.06038702
193	0xbee2ecc2	-0.44321257
194	0xbddfcc5a	-0.10927649
195	0x3e15eef6	0.14641938
196	0x3dc2bd47	0.09508758
197	0x3e2e6159	0.17029323
198	0xbdbf7407	-0.09348302
199	0xbdaf87a0	-0.0857079
200	0xbb2939cd	-0.0025821805
201	0x3dd5b376	0.1043462
202	0xbd374353	-0.04474194
203	0x3d9db89f	0.07701229
204	0xbf1971fc	-0.5993955
205	0xbd8f2eaa	-0.06991322
206	0x3e04a776	0.12954506
207	0xbceb1e2e	-0.028700914
208	0x3e13790d	0.14401646
209	0xbe12997f	-0.14316367
210	0xbdbf73b3	-0.0934824
211	0x3d0084f0	0.03137678
212	0xbdceb9f2	-0.1009406
213	0x3dc09693	0.0940372
214	0xbf27fc20	-0.6561909
215	0x3e8ce79b	0.2752045
216	0xbdbc5900	-0.09196663
217	0x3e14116e	0.14459774
218	0xbd7c348b	-0.061573546
219	0xbe4fc889	-0.20291342
220	0xbe6111c1	-0.21979429
221	0x3e29366b	0.16524665
222	0xbe831e8c	-0.25609243
223	0x3e1369fe	0.14395902
224	0xbe31ec94	-0.17375404
225	0x3d47f9b8	0.048822135
226	0x3e4fbac0	0.20286083
227	0x3d4d8b91	0.05018193
228	0xbe7ce388	-0.24696171
229	0x3d6a99ca	0.05727557
230	0x3d082a7b	0.033243638
231	0xbe08400a	-0.13305679
232	0xbeb4482d	-0.35211316
233	0x3e0a8f54	0.13531238
234	0x3df22385	0.11823181
235	0xbdb6690d	-0.089067556
236	0xbf09d18d	-0.53835374
237	0x3d2dfd41	0.04247785
238	0x3df1c50f	0.11805164
239	0xbd10bd7f	-0.035336968
240	0xbc09af1a	-0.008403564
241	0xbe8d4f28	-0.27599454
242	0xbdebe3b4	-0.1151804
243	0x3e0a398a	0.13498512
244	0xbd327f5d	-0.043578494
245	0x3e0bfcb2	0.13670614
246	0xbc165aec	-0.009176951
247	0xbe1a76f3	-0.15084438
248	0x3e348453	0.17628603
249	0x3df92626	0.12165479
250	0xbecaed4d	-0.3963417
251	0xbb99b466	-0.0046906946
252	0xbe823c14	-0.2543646
253	0xbbd9e126	-0.0066491542
254	0xbe49b966	-0.1969963
255	0x3dd23495	0.102639355
