Dream11-Team-Predictor-main/src/model_artifacts/Product_UI_t20_Model.pth (torch, 779383 bytes, 31 tensors)

fc1.weight f4 [512, 25]
00000000: 54a9 fbbd 6c21 8abe 125b 4ebe 5d6d d43e
00000010: 4917 c33e c0ff b5be 01dd dbbe 17d1 2abe
00000020: 4e65 24ab ae61 51be 2d6e 19bd 07c8 893e
00000030: 8d11 f1bc b490 3a3e 5e80 8ebe d648 c33e
00000040: 027d 753e 320c bc3e dbda 473e 7abb 433e
00000050: 2087 babd 8d94 983e d142 b73c 2fd8 50be
00000060: e27a 49bc 8f7f 6abe 3d7b 263e 2d34 02be
00000070: 969f 133e a7c4 a2bd 0790 5abd cf6c bdbd
00000080: 1a58 f93d 40f7 eea7 18e6 123e 452b 08be
00000090: 9ce3 ad3e 6890 3dbd 9405 84be 2fe3 90be
000000a0: 5be6 14bf cb5e ddbe c00d cfbd 7004 f3bc
000000b0: ca0d 76be 23a9 513e 9112 f1be 78ee 5abe
000000c0: f592 37be 181c d0be a980 5abe 3a1a 6e3d
000000d0: a911 963e b31e cbbe e2bb 013e 65b5 1b3e
000000e0: 3d5f 24be 41f1 54be d854 3d29 923b efbe
000000f0: 6280 49be 16b1 94be 79bc 8fbc 23bb e53d
00000100: 5f29 933d 3fa7 aa3d a550 aa3e 0514 75bd
00000110: d864 69be 2df1 93be 0896 a3bd b81d b63e
00000120: 5e59 cebc 424f a9bd 4fc4 88be 8591 d6be
00000130: e500 2fbd 7e98 763e b355 963e a3df 21be
00000140: ef5b ad3d 2471 93be f032 d83d 9a97 092b
00000150: 510b 55be 05df 913d 8064 673e 9df8 87bd
00000160: 4009 84be 8bd2 5cbe 858e 98bd 4d97 99be
00000170: 2f57 b63e ee36 dc3d e33f 9fbe 55bb 113e
00000180: 2505 163e 7e5b 36be 989a 00be 9a1e 8c3e
00000190: 1ec1 8c3e 6d56 423e 0298 c63b abd6 ad3e
000001a0: 39d9 6b3e 97f0 cfbd 03b0 bcbc 53c7 a2be
000001b0: 7175 0e2b c0e9 a63e 08d8 a23e 0118 a5be
000001c0: 52a9 c9be 9422 1d3d 80d5 d23d fdae 28be
000001d0: 6c04 86be b1e2 9fbd 5b64 223e a79c cfbe
000001e0: 8827 f3be e788 7a3d c2bc 0e3d 525b 8fbc
000001f0: 1e9e 5d3e ed01 ad3d 1911 80be 58b9 373d
00000200: 5624 22bd c230 54bd 0737 f43d 3015 2cbf
00000210: 337b 8abd b4dc c22a 8e26 30be 4ec1 9c3d
00000220: ce1c e9bb 0237 e4b9 0cce 7dbe a881 033d
00000230: e966 6f3e fccb 163e 0071 0cbd 059c d8be
00000240: 9609 93bd bee1 b2bd 77b1 c4be 8c94 153e
00000250: 98b2 b6be dd58 12be 1fff a3be 52b1 13bd
00000260: d514 26be 1c05 f13d c551 0e3d a587 84bd
00000270: 45d3 f5bd 9231 2f3c 6bb3 00ab 92eb d5ba
00000280: 3ce9 91bd 001f ba3d 82db 133f 93c3 d73d
00000290: 9af1 853e 4c38 493e c7e8 26bd 4f48 ec3d
000002a0: 6ea5 21be d56e 3abd 5943 febe a018 a93e
000002b0: 6700 b23c fa72 433d d71f 003f 1e65 ddbe
000002c0: c64c 03bc b236 72be a565 5c3e 6109 163e
000002d0: 4f4a 403e e2bc 0fbf 49ee 04be 7e92 ea2a
000002e0: 56d7 30be f45f 1f3e 926b 15bf 7b7d 413e
000002f0: f5b7 47be 0d68 32be e1ad 99bd 4a20 2a3e
00000300: 3654 7dbe 1fe1 9a3e f8a3 16be 7e41 5dbe
00000310: 3779 893d 8d8c 853d f031 3f3e ae99 c63e
00000320: bfde 8fbe a460 8b3e ae71 113e a10b 033e
00000330: 3a8b 423c 424d be3d 616c dcbd 2803 91be
00000340: 683b 57aa bc9b 98be 30c4 043e 62f7 6cbe
00000350: a5f0 2fbd d2b7 5b3d c29e 40be d243 50be
00000360: dad4 05bf fed6 82bc 1d2f 85bd 65eb a43e
00000370: d868 f83d d0cb 183e 2797 993e f1d1 1e3e
00000380: 2672 4bbe 135d 9a3d 2d8a babe 5b82 d7bd
00000390: 7f7f debe 202f 51be 6123 bfbd 6cd2 fdbb
000003a0: c5a1 9a3e 18cc 212a e824 99be 0c22 303d
000003b0: ebaf 3b3d 1f69 043e 1a51 853e 369e 30be
000003c0: a742 5bbd 8e63 32bd 8a1f 78bc 3d67 51be
000003d0: 5b02 763e 355b 543e 7e2c 10bf 0e69 b63e
000003e0: 088b c03e 7098 52be eb42 f03e c892 24be
000003f0: 83cb d33c 2566 42be 83f7 373d e757 77bd
-0.12288156 -0.26978624 -0.20151928 0.41489688 0.38103703 -0.35546684 -0.4294205 -0.16681324
-5.8405093e-13 -0.20447418 -0.037458587 0.2691042 -0.029427314 0.18219262 -0.2783231 0.38141507
0.23973468 0.36728054 0.1951708 0.19114485 -0.09107804 0.29800835 0.022370728 -0.20394967
-0.012297364 -0.22900222 0.16257949 -0.12715216 0.14416346 -0.07947665 -0.05336001 -0.09249269
0.12175007 -6.632634e-15 0.14345586 -0.13297756 0.33962715 -0.046280295 -0.25785506 -0.28298327
-0.58163995 -0.43236384 -0.101100445 -0.029665202 -0.24028698 0.20474677 -0.47084478 -0.21380031
-0.17927153 -0.40646434 -0.21338142 0.05813048 0.2931035 -0.3967186 0.12669328 0.15205915
-0.16051956 -0.20795156 4.204002e-14 -0.46725136 -0.1967788 -0.29041356 -0.017545925 0.11217334
0.07185625 0.08332681 0.33264652 -0.059833545 -0.22792375 -0.2889494 -0.079876006 0.3556955
-0.025189098 -0.0826707 -0.26712272 -0.41907898 -0.042725462 0.24081609 0.29362258 -0.15807967
0.084648006 -0.28797257 0.105565906 4.8882567e-13 -0.20805098 0.07122616 0.22596931 -0.06639216
-0.25788307 -0.21564691 -0.074490584 -0.29998246 0.3561339 0.107526645 -0.3110343 0.14231618
0.146504 -0.17808339 -0.12558973 0.27367097 0.27491087 0.18978281 0.006060601 0.3395284
0.23032083 -0.10153311 -0.023033148 -0.31792697 5.0611517e-13 0.32600212 0.31805444 -0.32244876
-0.39386994 0.038363054 0.10294628 -0.16473003 -0.2617525 -0.0780691 0.15858595 -0.40549204
-0.47491097 0.061165716 0.034847982 -0.0174996 0.21642348 0.08447633 -0.25013044 0.044854492
-0.039585434 -0.05180431 0.11924558 -0.6721983 -0.0676178 3.4614466e-13 -0.17202207 0.076540574
-0.0071140295 -0.00043528533 -0.24785632 0.03210607 0.23379101 0.14726251 -0.034287453 -0.42306533
-0.07179563 -0.08734463 -0.38416645 0.14607447 -0.3568313 -0.14291711 -0.3203058 -0.036057778
-0.16218884 0.11768553 0.03474595 -0.06471185 -0.12003187 0.010692971 -4.572373e-13 -0.0016320816
-0.07124564 0.09087944 0.5775682 0.1053535 0.2616089 0.19650382 -0.040749338 0.11537229
-0.15785763 -0.045515854 -0.49660757 0.330266 0.021728707 0.047717072 0.50048584 -0.4324121
-0.00801391 -0.23653677 0.2152315 0.14652015 0.18778346 -0.5614759 -0.12981524 4.16684e-13
-0.17269644 0.15563947 -0.58367264 0.18895523 -0.19503768 -0.17422505 -0.07503868 0.1661388
-0.24739155 0.3024988 -0.14710987 -0.21607015 0.06712573 0.065209486 0.18671393 0.38789123
-0.2809963 0.27222168 0.14203522 0.12797405 0.0118740145 0.092920795 -0.10762859 -0.2832272
-1.9116447e-13 -0.29806316 0.12965465 -0.23141244 -0.042954106 0.0536421 -0.18810561 -0.20338371
-0.5227791 -0.015971657 -0.06503127 0.32210842 0.12129372 0.14921498 0.29998133 0.15509774
-0.19867763 0.07537284 -0.36433545 -0.1052291 -0.43456647 -0.20428133 -0.0933292 -0.0077460315
0.30201545 1.4370482e-13 -0.2991097 0.04300122 0.045822065 0.12930726 0.26038438 -0.17247853
-0.05353036 -0.043551974 -0.015144238 -0.20449539 0.24024336 0.20737918 -0.5631789 0.35627025
0.37606072 -0.20565963 0.46926054 -0.16071618 0.025853878 -0.18984278 0.04491378 -0.060386565

fc1.bias f4 [512]
00000000: b0a8 0439 2836 b33b c4d9 013c e05a 003c
00000010: c8d3 1e39 8c72 5e3c cdfd 153b 4f38 a4bb
00000020: fc0a ce3b a00b 123b 70f7 33ba e3ab 45bb
00000030: 211d 2fbb a4e0 cbbb 146d 14ba c853 a03b
00000040: e8dd 3b3a e0d6 4ab9 c4cc 2f3c 9a58 9dbb
00000050: 17a3 7fbb 15c0 a7bb 0c37 1d3b df8a 88bc
00000060: 861d 37bb ec37 62bb 237b 1dbc 9a9a 94bb
00000070: a60d 00bb 033d 3f39 2cc6 973a 63e8 523c
00000080: 8d21 963b 6c64 01ba e823 5c3b d808 9eb9
00000090: 6e2d bd3b 2cb1 a4bb 2365 9a3b 56b4 edbb
000000a0: 4c07 fa3b 60b6 a737 ea09 303c 349c 023b
000000b0: e738 2bbc d350 53bc 7318 253b 1f27 d73b
000000c0: 3724 3f3b 1005 a2ba 58da 1cba 98d8 823b
000000d0: eb2f e8bb de41 3e3c 34ea b7b9 7048 e0b9
000000e0: 070e 893c a61e 2bbb 640e cabb 1e61 f23b
000000f0: aa68 1f3b 2356 e93a 10b1 3fbb 1b17 963c
00000100: d2ad 9ebb 030a 2d3b a81c f7b9 8bb0 71bc
00000110: 3414 a83b 04ad dbbb 4b70 22bc 551d ee3b
00000120: e6df b0ba 5223 e2bb 8fc9 6aba 3988 c0bb
00000130: 787d 553c b263 26bb e652 6bbb 08f1 22bb
00000140: 003b afbb c3b1 88bb 50af 8fba 0a27 07bb
00000150: 0f93 4d3c 34eb 0ebb 138f 453b 5122 d93b
00000160: b6f4 513c 3641 633c 609b 8b3b 7383 713b
00000170: 2e7d e2bb e032 5d3b 8fa4 0cbc 3e66 c6bb
00000180: 92ab a53b c372 a43b 5bb0 05bb 9649 5839
00000190: 6980 4bbb d8a4 f63b 594e 8b3c 1e1f 953b
000001a0: 9e86 2fbb c34e 9a3a fad1 46bc f019 01b9
000001b0: cc0c b13a 32c3 1d3c 92c2 2b3b eaeb da3b
000001c0: ba90 efba 647f e1ba c66c d73b 506e 2939
000001d0: 9eb0 03bc e9b8 c23b 01c3 80bb e8c8 3cbb
000001e0: 989d 08bc 2e56 fc3b c091 6fba 808d ca38
000001f0: 309f 03ba c3d0 6fbb 82ed 7dbc d23b 453c
00000200: 110b 95ba 2b4b e43b a61a 0bbc ce58 d53b
00000210: 09af 583b ceaf c33b 394c 0d3c 7630 363c
00000220: c2cf baba e21e e83b 485c f7bb bd9d 533b
00000230: 05d6 253c 244b 383a 92e8 213c 6fb8 44bb
00000240: 7114 fc39 e3a4 f43b 57a9 a43c fe0c 20bb
00000250: f5fc 91bb 1b4a 073c 11a6 44ba f37a c33b
00000260: 193c 66bc a80c f4bb 78bb e0ba 9580 1cbc
00000270: 90cd 02b9 78eb 2f3c 0e64 9c3a 09e5 c2bb
00000280: c2b0 0dbb 4201 883b 713c a6bc c61c ffba
00000290: 8c1c 71bb 0837 a33b 47aa 0bbc 4cb9 92bb
000002a0: ac19 5d3b 0b24 dfbb 9940 62bc 87d6 09ba
000002b0: 0b49 87bc a69a 5e3b 6955 af3a fede edbb
000002c0: b21d 69bb 8d76 bebc 406d dfba f5ee 9fba
000002d0: aff8 f0bb d885 d53a dc4e 163c ddd6 b5bb
000002e0: df5f c33b 1e1b aa3a e75e ee3b 16c9 513b
000002f0: 12a5 e9ba 877a e9ba 88e8 5cb9 1cb1 ecbb
00000300: c711 2a3a 7647 1c3c 4657 063a a421 25bb
00000310: 11be ecba 08fb 8739 b0b6 73ba c0dc 9bbb
00000320: 16d0 9cbb 4399 7939 279c b4bb 1115 933c
00000330: d561 0e3b f824 abba 7374 0eba e8cf 573b
00000340: 44be c13b b111 f6bb 33fa 12bb 02e1 c3bb
00000350: 6800 8fbb b0b9 a9bb 580c 26b9 0919 adbb
00000360: 6a69 a63b 4915 cd3b 0aad a63b 8224 9d3b
00000370: ca70 613b fa70 30bb 3236 83bb 2b51 1f3c
00000380: eaec b43b c984 f63b 980a 4db9 0c73 6fbb
00000390: 9ca6 2ebc ed30 e6ba 5fbe 913b 1457 92bb
000003a0: 4e38 903b 2e64 753b 8470 af39 e157 9b3a
000003b0: fe2d 17bc 2a4b 2bbc 0a5e 4cbb b374 6fbb
000003c0: a46b b8bb 91df 7e3a 0461 64bb b03f ddba
000003d0: c964 04bc befa 293c 30fc efbb 50a8 cc3b
000003e0: 00fd f33b 1abd 9b3a 1243 36bb 3c88 e93b
000003f0: 2483 38bb e9bc 00bc 1442 75bb 0461 10bc
0.00012651342 0.0054691024 0.0079254545 0.007834166 0.00015146949 0.013577115 0.0022886873 -0.0050115953
0.0062879305 0.002228476 -0.0006865179 -0.0030162267 -0.0026720243 -0.0062218476 -0.0005662006 0.0048928
0.00071665505 -0.00019344268 0.010729972 -0.004801822 -0.0039007121 -0.0051193335 0.002398911 -0.016667781
-0.0027941181 -0.0034518195 -0.009611878 -0.0045350315 -0.0019539385 0.00018237908 0.0011579446 0.012872788
0.0045816363 -0.00049359235 0.0033590738 -0.00030142698 0.005773238 -0.0050260033 0.0047117635 -0.0072541637
0.0076302644 1.9992876e-05 0.010744551 0.001992953 -0.010450578 -0.012897688 0.0025191575 0.006565943
0.0029165873 -0.0012361128 -0.00059834635 0.003993105 -0.0070857904 0.011612384 -0.00035078975 -0.0004277858
0.016730322 -0.0026110797 -0.0061662663 0.007396831 0.002432386 0.001780216 -0.0029249825 0.018321564
-0.0048424983 0.0026403673 -0.00047132862 -0.014751564 0.0051293615 -0.0067039747 -0.009914468 0.0072666802
-0.0013494461 -0.006901183 -0.0008956426 -0.005875614 0.013030402 -0.0025389013 -0.0035907566 -0.0024862904
-0.0053476095 -0.0041715815 -0.0010962281 -0.0020622634 0.0125472685 -0.0021807672 0.0030145093 0.0066264053
0.012814691 0.013870528 0.0042604655 0.0036852031 -0.0069118952 0.0033752248 -0.008584156 -0.0060546687
0.005055853 0.0050185635 -0.0020399306 0.00020626778 -0.003105188 0.007526975 0.017005133 0.0045508286
-0.002678312 0.001177274 -0.012135023 -0.00012312061 0.0013507842 0.009629058 0.0026208502 0.006680955
-0.0018277385 -0.0017204103 0.006574246 0.0001615819 -0.008037714 0.005942453 -0.0039294963 -0.0028806273
-0.0083383545 0.007700703 -0.0009138845 9.658467e-05 -0.0005020974 -0.0036592938 -0.015498521 0.012038188
-0.0011371096 0.0069669685 -0.00849024 0.0065108305 0.0033063313 0.0059718853 0.00862413 0.011119952
-0.001425259 0.0070837596 -0.0075488426 0.0032290064 0.010121827 0.000703024 0.009882109 -0.0030017158
0.00048080416 0.007465945 0.020100279 -0.0024421806 -0.0044552037 0.008257414 -0.00075015525 0.0059655844
-0.014052414 -0.007447798 -0.0017145714 -0.009552141 -0.00012474344 0.0107372925 0.0011931674 -0.0059477133
-0.0021620248 0.0041505406 -0.020292493 -0.0019463531 -0.0036790697 0.0049809255 -0.008524484 -0.0044776555
0.0033737225 -0.0068097166 -0.013809347 -0.00052581023 -0.016514322 0.003396669 0.0013376895 -0.0072592488
-0.0035570678 -0.023249889 -0.0017046109 -0.0012201952 -0.007353864 0.0016290499 0.009174075 -0.0055492953
0.0059623565 0.0012978052 0.007274497 0.0032010726 -0.0017825684 -0.0017813005 -0.0002106746 -0.0072232615
0.00064876344 0.009538522 0.0005124699 -0.0025197053 -0.0018062015 0.0002593624 -0.0009296937 -0.00475654
-0.004785548 0.00023803585 -0.005511779 0.017954381 0.0021725793 -0.0013057282 -0.00054342224 0.0032930318
0.005912574 -0.007509433 -0.0022426962 -0.0059777508 -0.004364062 -0.0051796064 -0.00015835592 -0.0052825254
0.0050784843 0.006258641 0.005086546 0.004795612 0.0034399503 -0.0026922808 -0.0040042633 0.009723942
0.0055214064 0.0075231534 -0.0001955427 -0.003653708 -0.01065984 -0.0017562188 0.004447743 -0.004465947
0.0044012433 0.0037443745 0.00033462432 0.0011851751 -0.009227274 -0.010454932 -0.0031183981 -0.0036538064
-0.005628066 0.0009722645 -0.0034847865 -0.0016879942 -0.00808067 0.010374723 -0.0073237643 0.0062456504
0.0074459314 0.0011881918 -0.0027810973 0.007126836 -0.0028154338 -0.00785754 -0.0037423419 -0.008812193

bn1.weight f4 [512]
00000000: c507 823f 040a 853f 0064 8f3f f42e 5e3f
00000010: 28ba 5d3f a55a 7a3f 5b41 3c3f 0892 673f
00000020: a3f2 7f3f a21c 813f 6384 443f 17ed 8e3f
00000030: c153 323f 1250 8d3f e993 5d3f 6c8f 4c3f
00000040: e826 853f 02e8 493f f75f 8a3f a7e7 ae3f
00000050: 5cd1 893f 682c 463f 1fc4 763f b89a 783f
00000060: cc43 723f 7eca 5e3f 3578 7b3f f4e5 6a3f
00000070: dd4d 683f 117e 313f c92a 613f 3eb9 6b3f
00000080: 13b6 6d3f 5edd 893f 9143 483f c852 803f
00000090: cb54 373f b9cc 493f 9c60 673f 1bc8 763f
000000a0: fe57 803f 8536 463f d827 963f 39ef 393f
000000b0: fb87 7a3f 9b48 863f bf09 943f f017 6d3f
000000c0: 2fd3 8c3f b23b 583f 2074 673f a825 ac3f
000000d0: 6e88 493f b518 513f a04b 3e3f 4992 733f
000000e0: 85bf 693f 0b3e 453f 6315 633f 7e04 833f
000000f0: 199b e43e 9390 503f 2622 683f 46dd 933f
00000100: ad88 753f 2746 8b3f 8ca0 0a3f 278e 993f
00000110: 5362 6f3f e7e8 503f 3f1f 683f 9f81 8d3f
00000120: 16e2 8a3f a1fa 8f3f c31d 8f3f c098 663f
00000130: 89c6 9f3f 7f8b 593f f3c7 573f 4ca9 753f
00000140: da45 473f 626f 4e3f a2e5 8d3f a85b 573f
00000150: ea6c 833f 9aa0 3c3f 49fa 533f d6ae 493f
00000160: 0c2e 663f 729b 8d3f eb6f 843f 4451 303f
00000170: abf2 833f 8b71 453f f5bf 7b3f 2bd9 483f
00000180: 3e72 5f3f 0579 713f e6a4 8b3f 886a 213f
00000190: 647d 463f 877d 8f3f ada8 793f 70b0 863f
000001a0: f7eb 4b3f 8b9c 0a3f 98b9 653f 199e 813f
000001b0: 9683 563f 2d02 723f 53cd 7d3f 1575 943f
000001c0: 7a9a 113f 21e3 633f df31 593f e603 853f
000001d0: 19a4 843f 1a33 a73f bf93 823f 141d 6e3f
000001e0: 54f1 813f 32cd 813f 38a2 873f 0cca 293f
000001f0: e58b 993f 0be1 483f 8483 a23f 6b64 7a3f
00000200: 0594 773f 91e9 483f 25c8 a23f ee45 863f
00000210: d6ea 613f 2c6f 6a3f 5f12 6f3f 1350 933f
00000220: fda0 5a3f ac57 8e3f 72c8 463f c504 5e3f
00000230: 00f3 913f 3ba9 0f3f 819c 623f 2dcf ae3f
00000240: 2cea 633f 0a6f 983f 6754 713f e398 843f
00000250: 1b26 3f3f f469 6c3f 2951 8f3f bed4 923f
00000260: d306 933f 7675 653f 3c2d 573f fca2 953f
00000270: e976 6f3f 2075 723f e921 2a3f 51ca 5e3f
00000280: 477a 4c3f 07a0 8e3f 1e4e 943f 007d 3f3f
00000290: 7174 5d3f 9213 923f bf66 873f bfe9 923f
000002a0: 6125 973f 780c 943f 5d05 713f 77fd 933f
000002b0: c6c2 4e3f 5e72 603f 3431 803f c370 a93f
000002c0: 438c 9d3f 3d3e 743f a154 643f f1ad 9d3f
000002d0: 09aa 483f 296d 593f 1556 6b3f 2dfc 573f
000002e0: 7998 283f 9c17 923f 26ee a13f ed0b 823f
000002f0: a755 853f 3301 5a3f 0968 833f 7b1d 893f
00000300: a956 653f 3f9f 973f 1b95 6a3f a0af 6a3f
00000310: 92a0 a23f b22c 603f 1609 813f 14d2 5f3f
00000320: 0a8e ae3f 861a 683f 3dbf 943f 37de a53f
00000330: 5b36 773f d279 703f 05c2 f83e 33f0 853f
00000340: adc7 b43f d15b 6c3f 26d7 2a3f b28b 913f
00000350: f42d 6b3f 9b2f 833f cec6 883f 134b 463f
00000360: 486d 833f 472b 663f bd5b 913f 7131 7a3f
00000370: fcd8 783f 830d 973f f8fc 803f 6acc 5c3f
00000380: 3938 953f 8317 8f3f 4944 533f 09fd 6e3f
00000390: 4531 713f c892 8c3f 8eb6 573f b566 773f
000003a0: dfc3 873f d2e4 5c3f c284 5e3f d95b 733f
000003b0: c6ee 873f 1c2e 793f 82b9 563f d49f 733f
000003c0: c9af 483f 1912 773f f739 893f ef80 663f
000003d0: 6437 9b3f d482 793f 0675 6c3f c21a 833f
000003e0: fe9c 593f 8455 913f da9c 5b3f c97b 733f
000003f0: b820 903f 8ad1 4f3f 5e4e 323f a184 963f
1.0158621 1.0393682 1.1202393 0.86790395 0.86612177 0.9779456 0.73537225 0.904572
0.9997961 1.0086863 0.76764506 1.1166104 0.6965905 1.104006 0.8655382 0.79906344
1.0402498 0.7886964 1.0810536 1.3664445 1.0767016 0.7741151 0.9639301 0.9711108
0.946347 0.8702773 0.98230296 0.9175713 0.9074381 0.6933299 0.8795591 0.9207953
0.9285595 1.0770681 0.782281 1.0025263 0.7161376 0.78828007 0.9038179 0.96399087
1.0026853 0.7742694 1.1730909 0.7263065 0.9786374 1.0490907 1.1565474 0.9261465
1.1001948 0.8446609 0.9041157 1.3448992 0.787238 0.81678325 0.74334145 0.9514509
0.9130786 0.77047795 0.8870451 1.0235746 0.4464958 0.814706 0.90677106 1.1551902
0.95911676 1.0880784 0.54151225 1.1996506 0.93509406 0.8160538 0.9067268 1.1055182
1.0850246 1.1248361 1.1180958 0.9007683 1.2482463 0.8497848 0.84289473 0.9596145
0.7784096 0.80638707 1.1085703 0.8412423 1.0267613 0.7368256 0.8280378 0.78782403
0.8991401 1.1063063 1.0346655 0.68874 1.0308431 0.7712638 0.9833978 0.7845637
0.87283695 0.94325286 1.0909698 0.6305318 0.7753508 1.1210183 0.97523004 1.0522594
0.7965693 0.54145116 0.8973632 1.0126373 0.83794534 0.9453457 0.99141425 1.1598231
0.5687634 0.89018446 0.8484172 1.0391815 1.0362579 1.306247 1.0201339 0.9301312
1.0151772 1.0140746 1.059638 0.66323924 1.1995817 0.7846839 1.2696385 0.97809476
0.96710235 0.78481394 1.2717329 1.0490091 0.88248956 0.91575885 0.9338741 1.1508812
0.854019 1.1120505 0.77649605 0.8672603 1.1402283 0.561176 0.88520056 1.3656975
0.8902919 1.1908886 0.9426941 1.0359157 0.7466752 0.9234917 1.1196643 1.1471174
1.1486458 0.89632356 0.840534 1.1690364 0.9354082 0.9470997 0.6645799 0.8702746
0.7987408 1.1142586 1.158634 0.7480011 0.865058 1.1412222 1.0578231 1.1477584
1.1808282 1.1566305 0.9414881 1.1561726 0.8076595 0.8767451 1.0015016 1.3237537
1.230843 0.9540747 0.89191633 1.2318708 0.78384453 0.8493219 0.91928226 0.84369165
0.65857655 1.1413455 1.2650802 1.015989 1.0416764 0.8515808 1.0266124 1.0712122
0.8958536 1.1845473 0.91633767 0.9167423 1.2705252 0.875682 1.0080898 0.8742993
1.3637097 0.9066547 1.1620861 1.295844 0.96567315 0.93935883 0.48585525 1.0463928
1.4123436 0.923276 0.6673454 1.1370757 0.91866994 1.0248903 1.068567 0.77458304
1.0267725 0.89909786 1.1356121 0.9773169 0.9720609 1.1800998 1.00772 0.8624941
1.1657783 1.117905 0.8252607 0.9335485 0.94215804 1.0982294 0.8426293 0.96641093
1.060665 0.8628665 0.8692132 0.95062023 1.0619743 0.9733598 0.8387681 0.95165753
0.78393227 0.9651199 1.0720814 0.9004049 1.2126279 0.9746525 0.92366064 1.0242541
0.85005176 1.1354222 0.8578621 0.95110756 1.1259985 0.81179106 0.6965083 1.1759225

bn1.bias f4 [512]
00000000: 5a51 c8be e0b1 63be a596 95be e307 bebe
00000010: 9048 ff3c 0aa7 a9be 8af9 9cbd 95a8 0ebe
00000020: 90f7 263e d269 13bf 954d 17bf 6699 2bbe
00000030: 0407 efbe 945c a9be 506c cbbe a12a 6abe
00000040: be0f b9be 959a 5ebe 429c b9be 7e33 10be
00000050: 94f4 79be f369 37be f746 6c3c 81cf a7be
00000060: 7c5f cbbe c542 4bbe 53ce b93c 54f3 03be
00000070: 24e6 b7be 65a6 3cbe 62e1 84be de3a c9be
00000080: 556e afbe 0df3 a4be 9844 03be bb6b 26be
00000090: 2d73 3c3d 4c42 0fbb 58fd a8be c28c b7be
000000a0: e71e 82be 78ee 08bf cf09 72be 3127 4dbe
000000b0: bf8a 0abf 4560 98be b29b abbe 7ce5 debe
000000c0: 05a3 03bf fa71 0fbe 2127 cabe d7a7 72be
000000d0: daac 3dbe 5ab2 083e f04a e3bd 6274 bdbe
000000e0: 45e1 bcbe a522 59be d0c5 50be e18f 1abd
000000f0: 180b 6ebd 4293 c4be b4fe c0be 8e62 3dbe
00000100: 9e6a 1bbf a8a0 98be d951 01bf f363 5cbe
00000110: 1349 12be f8cf 5abe 542b 2b3d 51ae d2be
00000120: f482 08bf d591 a7be 9a6a cabd 9ec6 29bf
00000130: 45d0 f3be 5bcf 04bf affa cdbe a2af a9be
00000140: d017 cfbe bcfd 86be 1883 4cbe 7585 9bbe
00000150: c733 22bf c28a 5abe f24e 78be e351 8abe
00000160: b8e2 b1be f529 19bf 3806 bb3c 48b3 cb3d
00000170: f9c1 4cbe 8a3a f1be e902 f1bd 1819 07be
00000180: 3a38 cabd 67e2 3dbe 238c 44be ae0c 88be
00000190: e84e a2be 5362 0cbf b68d 8a3d 99fa b13d
000001a0: a6f4 e6be 8b6d 75bc fde2 99be 2138 afbe
000001b0: 8bf5 9ebe e884 3fbe 2600 a0be 402e 1ebd
000001c0: e25c 0dbe b0a1 2abf cf35 253c 2d49 ecbd
000001d0: 6bbf 71be 9dc8 49be 4518 abbe 1c2b 03bf
000001e0: 394c b5be 3578 1bbe 3bde c8be 2618 7abe
000001f0: a4a7 11bf c599 a3be 8ef9 4fbe 891b 79be
00000200: 4191 15bf dcea a1be 28b7 713a c48a 003d
00000210: d0da 95be fec8 5ebe ff3c aebe d435 9fbe
00000220: 2f4f d1be 6bfa a9be 2d1f 16be cb2c fbbe
00000230: 5d4e 74bd be8c a2be 3640 97be f20a eabe
00000240: f59b 42bd 7dc9 9ebe 0061 c3be 75af a9bd
00000250: b9b3 83be 5715 5bbe c953 acbc 3622 f1be
00000260: 9e06 94be 28fd 93bc 5bff 60be 3d01 a5be
00000270: 507f 40be c45f 2b3d ffa1 b7be e20d d6be
00000280: d40c c2be 19c0 c8bb d178 02be b32c 21be
00000290: abac 5cbe 1056 c4bd 1c08 e3bd 2ab1 14bf
000002a0: ae44 c1be 27a0 8abe ce8d e7bd ca82 d9be
000002b0: cced b8bd 5ffc 2cbe 9ec6 fabe 093c 16bf
000002c0: 6559 2cbe 62a8 56bd fe59 dcbe d58d 9abe
000002d0: 9a1a dabd 0654 8bbe 049d a6be 617e bfbe
000002e0: 5432 78be f58f 88be 5ce2 f3be 77ae 79be
000002f0: 69cd edbe ee38 a9be 963b 35be bbc0 acbe
00000300: a36f 89be 3338 8ebe 7afe 51be 63f1 6f3c
00000310: 049a 1dbf d661 b1be aadb 82be ea75 d0be
00000320: e599 23be 40a3 a6be 98c0 84be d72c 8ebe
00000330: e43b 03be 3710 fbbe 5ddb 13be 3e5c 49be
00000340: 1a5b 41bf 821c b9bd bf5e 8fbe 41df ffbe
00000350: a2f0 f1bc 7c23 9abd 934e a8bb 2bf6 2bbe
00000360: ab4c 6fbe 6cce 9dbe ee3b a2bc a84a d3be
00000370: 9715 d4be 942b 57bd 22fc cdbe df08 4ebe
00000380: 9ff1 edbe 8b97 57be 8ebc 24be 5c3d a0be
00000390: 934d 83be c5d2 8ebe 4452 cabe 0526 98be
000003a0: ab0e b0be ed55 a8be a065 97be 7d8f b4be
000003b0: 0166 1bbe 2abc 0cbe f217 94be 3e98 81be
000003c0: f11f d83b 8c99 debe b664 aebe b285 53bd
000003d0: 7b05 afbe 82b9 03bf 1be8 cdbe 1668 20bf
000003e0: ed48 93be 55ab d2be 60c2 d3be cd45 e6be
000003f0: a0b5 a4bd d094 e2be 5df9 84be 49c9 61be
-0.39124566 -0.22235823 -0.29216495 -0.37115392 0.03116253 -0.33135253 -0.07664783 -0.13931496
0.16305375 -0.57583344 -0.59102756 -0.16757736 -0.4668504 -0.33078444 -0.39731073 -0.22867824
-0.36144823 -0.21738656 -0.36252028 -0.14082143 -0.24409705 -0.1791151 0.014421216 -0.327755
-0.39721286 -0.1984969 0.02268139 -0.12885791 -0.3591777 -0.1842285 -0.25953203 -0.39302725
-0.34263864 -0.32216683 -0.12819135 -0.16252033 0.046008278 -0.0021859584 -0.33005786 -0.35849577
-0.25414202 -0.53488874 -0.23636554 -0.20034482 -0.5411796 -0.29760948 -0.33517224 -0.43534458
-0.51420623 -0.14008322 -0.39482978 -0.23696838 -0.18522969 0.13349286 -0.110982776 -0.37002856
-0.36890617 -0.21204622 -0.2038796 -0.03773487 -0.05811605 -0.383936 -0.37694323 -0.18494627
-0.6070956 -0.2981007 -0.50515515 -0.21522503 -0.14285688 -0.21368396 0.041789368 -0.41148618
-0.5332482 -0.3272845 -0.09883614 -0.6631869 -0.47619835 -0.518789 -0.4023032 -0.3314181
-0.40447855 -0.2636546 -0.19971883 -0.30375257 -0.63360256 -0.21341994 -0.24248865 -0.270156
-0.34743285 -0.59829646 0.022830114 0.099463046 -0.1999587 -0.47114974 -0.11768133 -0.13193166
-0.098740056 -0.18543397 -0.19194083 -0.26572174 -0.31700826 -0.5483753 0.067653105 0.08690376
-0.45108527 -0.01497973 -0.3005599 -0.3422251 -0.3104671 -0.18703043 -0.31250113 -0.038618326
-0.13804963 -0.66652966 0.01008363 -0.11537395 -0.23608176 -0.19705434 -0.33416954 -0.51237655
-0.35409716 -0.15182574 -0.39232048 -0.24423274 -0.56896424 -0.31953254 -0.20310041 -0.2432691
-0.58424765 -0.31624496 0.0009220713 0.031382337 -0.29268503 -0.2175636 -0.3403091 -0.31095755
-0.40880725 -0.33198866 -0.1466033 -0.49057612 -0.059645046 -0.31748003 -0.29541177 -0.45711476
-0.047512013 -0.31013098 -0.38159943 -0.08285419 -0.25723055 -0.21394859 -0.021036046 -0.47096413
-0.289113 -0.01806505 -0.2197241 -0.32227507 -0.18798566 0.041839376 -0.3586578 -0.41807467
-0.37900412 -0.0061264155 -0.127414 -0.15739708 -0.21550243 -0.095867276 -0.11085531 -0.5808283
-0.3774771 -0.27075312 -0.11306344 -0.42482597 -0.09029731 -0.16893147 -0.48979658 -0.58685356
-0.16830976 -0.052406676 -0.4303741 -0.30186334 -0.10649605 -0.27212542 -0.32541668 -0.37401107
-0.24237949 -0.2667233 -0.47633636 -0.2438296 -0.46445778 -0.33051246 -0.17698511 -0.33740792
-0.26842985 -0.27777252 -0.20507231 0.014644953 -0.61563134 -0.34644955 -0.25558215 -0.4071496
-0.15976675 -0.32546425 -0.25928187 -0.27768585 -0.12815815 -0.49035808 -0.14439149 -0.19664094
-0.75529635 -0.090386406 -0.28001973 -0.49975017 -0.029533688 -0.07526299 -0.00513632 -0.16793124
-0.2336909 -0.3082155 -0.019803967 -0.41267896 -0.41422722 -0.052531794 -0.40231425 -0.20120572
-0.46473405 -0.21053903 -0.16087553 -0.31296813 -0.25645122 -0.2789518 -0.3951589 -0.29716507
-0.3438619 -0.32878056 -0.2956972 -0.35265723 -0.1517563 -0.13743654 -0.2892452 -0.25311464
0.0065956046 -0.43476522 -0.3406121 -0.051641174 -0.3418387 -0.5145494 -0.40216145 -0.6265882
-0.28766575 -0.4114634 -0.41359234 -0.4497513 -0.08042455 -0.4425416 -0.259715 -0.2204944

bn1.running_mean f4 [512]
00000000: 6c34 b839 b22d 2839 e759 863b 2412 d53b
00000010: c1c4 2d3b b9f6 42bb 0812 53ba ce4e 8bb9
00000020: adc3 833c 2e0c 20b9 1dd6 843b 89c5 17bc
00000030: 66df 9d39 c32f b63a e8e4 9fbb a269 41bc
00000040: a0bf ab3b 1437 a4b8 44f8 b2ba b6d9 e6b9
00000050: 7422 bfba 5ab9 39ba 7e62 c6bb f519 2fbc
00000060: 41df 3dbb ec4f 293a 315c 1fbc b0f4 b439
00000070: 8009 1fb7 4684 163b f733 72bb 5032 21bc
00000080: 5be8 0abb 47e9 f539 7a7a eabb 07db 933a
00000090: 42b9 c63a f656 2e3c d9d5 8dbb da98 dd3a
000000a0: c1fb 2d3a ca3d 27bb ca4e f93a 7325 eeba
000000b0: 5dd9 eebb e8be bb3b a1ee d93b e8ba 603c
000000c0: 2cd2 f43b 89c7 5bbb 8410 cc3a a26a 5f3b
000000d0: 381b 1f3c eaee b93b 8fe0 5cbb ad10 ce3b
000000e0: 7cdf 3dbc 8a9b b538 d544 793b d40e 673c
000000f0: 224e b8bb 4839 7bbb a4be b3bb 105f 0e3c
00000100: e867 10bc 9e72 bebb c4cd d3b9 5755 ff3b
00000110: a682 153c 491e ef3a 8da0 dc3b 4793 733c
00000120: c66f 50bb d3c9 f3ba 7d00 3b3b 68df 863b
00000130: 74aa 993b 5bdf 8d39 2b48 12bc 3bd0 403c
00000140: 85f0 423b 82e8 e13b 8a3a 7f3a 1645 903a
00000150: 2449 62ba 86ef 9239 732e e3bb c55b 313b
00000160: 6976 013c 594c 463b d778 a23a 9cba 883b
00000170: 462d 0c3c 716c 173c 8a25 46bc 6649 573c
00000180: fe0b 913b eca0 bd3b 5a98 883c 19c1 933c
00000190: 8849 99bb a0d1 88bb 862a 663c 149c 01bc
000001a0: fea1 69ba 85d0 093c 1bec cc3b 720d 163b
000001b0: e8cb 99ba e238 4ebb 0ea5 1cbc 5335 80bc
000001c0: fd94 1dba bd18 02ba a4d2 eb3b 50fb 4c3c
000001d0: 8e69 9a3a 5df5 c33b 0bc8 a4bb c5cf caba
000001e0: 26b4 f23b 2e45 b9ba e015 c0bb 7def 8ebb
000001f0: 0699 21bc 383e 4d3a b9ea 693c 3111 423b
00000200: b155 a7b9 c2d6 27bb 5334 a5bb eb4c 503b
00000210: 34f0 8d3c aacb e539 16ec 62ba d4d3 f0ba
00000220: 5bc7 84b9 7a29 9ebb d3f6 ca3b ab48 80bb
00000230: 04cd f7ba 12c4 65bb 42df 653c bd27 563c
00000240: 21ad 8bbb 9162 a93b 880d e63b cd89 a43a
00000250: 2817 793c 1ec7 c93b 6ef8 c9bb 571d d8b9
00000260: ac85 e6bb 4434 38bb d230 093c cae0 0bbb
00000270: bf69 b53b 4012 56b8 63cb be3b 6ee7 7e39
00000280: 609e 01bb 93e1 c8ba 2b2b d5ba 90b9 ab3b
00000290: 7992 f13a 81c2 9cbb ac48 513b 873b ea3b
000002a0: 2457 ce3a 8a5e d43a 20f7 033c 5104 dd3b
000002b0: 80ee 903b 7b94 23bb d836 5d3b 0a48 0cbc
000002c0: 2d3c 66bb 5204 933b be0f 5b3a 4045 233c
000002d0: 2faa 263c d634 633a 1208 c139 5967 13bb
000002e0: 6c85 a23b ab8b 31bb 4f57 a73b 36bd 13bc
000002f0: 121a 9dbb f57f f73a 37ce 673b 7a3a 85bb
00000300: f3b5 acba f503 913b c856 7138 7b2a e1bb
00000310: 006d 8d3b 8480 68bb fa9c da39 6ca1 8c3b
00000320: 4e8c 313b 2f89 b63b 8c31 8fba de47 253c
00000330: 729c 093b df46 36ba 0d0e 143b 08a7 813a
00000340: 7b07 903b 86b8 a43b 61ec d7ba 058c adbb
00000350: 27f0 893a fde8 5b3b ff02 aebb 3b0b 80ba
00000360: 7660 173c 8ce9 1f3b cc85 53bb 5838 443b
00000370: 3190 0339 f1af 143c a234 0abc c2c5 eaba
00000380: cc57 783b 4534 883a 2809 1a3b d65f 07bb
00000390: 6779 853b 9f49 38bc 310b d33b 22c1 eb3b
000003a0: 92ef ad3c 01ea 98ba 68a8 32bc f64d a0b9
000003b0: 42cc d43a c62b 953b 582e a339 57ee e2bb
000003c0: 49d7 4bbb dc90 d1bb 188f b0ba 3495 093c
000003d0: c6bb 97bb 63f5 ac3c 8836 c1bb 2f72 dabb
000003e0: e8fd 78b9 14e8 393c a30d ef3b 6536 563b
000003f0: 98e8 613b 2a6b 3cbc 0824 b538 d501 09bb
0.00035134272 0.00016038751 0.0041000727 0.0065024067 0.002651498 -0.002974911 -0.0008051698 -0.0002657086
0.016084516 -0.00015263326 0.0040538446 -0.009263405 0.00030111818 0.0013899732 -0.0048795827 -0.01180497
0.0052413493 -7.8303885e-05 -0.0013654311 -0.00044031226 -0.0014582411 -0.00070848095 -0.0060542217 -0.010687341
-0.002897218 0.00064587477 -0.00972657 0.00034514582 -9.47935e-06 0.0022967025 -0.0036957243 -0.009838656
-0.0021195624 0.00046903847 -0.0071557136 0.0011280485 0.0015161412 0.01064085 -0.004328471 0.0016906515
0.00066369405 -0.0025519007 0.0019020673 -0.001816912 -0.0072890953 0.005729545 0.0066507612 0.013716437
0.0074713435 -0.003353568 0.0015568887 0.0034090658 0.009711079 0.0056742327 -0.0033703183 0.006288609
-0.011588927 8.659724e-05 0.0038035412 0.014102656 -0.0056245485 -0.0038333703 -0.0054853726 0.008689657
-0.008813836 -0.0058120033 -0.00040398363 0.0077921557 0.009125387 0.0018243279 0.0067330063 0.014866657
-0.0031804903 -0.0018599577 0.0028534227 0.0041159876 0.004689509 0.00027060029 -0.008928339 0.011768396
0.0029745412 0.006894172 0.0009736201 0.0011006917 -0.00086321146 0.0002802575 -0.0069330274 0.0027062756
0.007901766 0.003025791 0.0012395632 0.004172636 0.008555716 0.009242163 -0.012093911 0.013140058
0.0044264784 0.0057870056 0.01667421 0.018036412 -0.004677955 -0.00417538 0.014048224 -0.007910747
-0.00089123833 0.008411531 0.006253732 0.0022896198 -0.0011733742 -0.003146701 -0.0095608365 -0.015650427
-0.00060112757 -0.0004962793 0.007196741 0.012511089 0.0011780725 0.0059801773 -0.00502873 -0.0015473297
0.0074067293 -0.0014134997 -0.0058619827 -0.0043620453 -0.009863144 0.0007829401 0.014277154 0.0029612298
-0.00031916567 -0.0025610183 -0.005041638 0.0031784128 0.017326452 0.00043830025 -0.00086563954 -0.0018373677
-0.00025325533 -0.0048267217 0.0061939745 -0.0039149127 -0.0018905704 -0.0035059494 0.01403028 0.013070998
-0.004262582 0.0051692207 0.007020656 0.0012553275 0.015203275 0.00615777 -0.0061636483 -0.0004122059
-0.007034978 -0.0028107325 0.008373456 -0.0021343702 0.0055362876 -5.1038573e-05 0.0058225854 0.00024309542
-0.0019778237 -0.0015326015 -0.0016263475 0.0052406266 0.0018430493 -0.004783929 0.0031934185 0.0071482095
0.0015742523 0.0016202491 0.008054525 0.0067448993 0.0044229627 -0.0024960327 0.0033754613 -0.008562097
-0.0035131082 0.004486599 0.0008356533 0.009965241 0.010172411 0.0008667236 0.00036817841 -0.002249202
0.004959753 -0.0027091305 0.0051068435 -0.009017279 -0.0047943676 0.0018882739 0.0035370716 -0.004065809
-0.0013176784 0.0044255205 5.75397e-05 -0.006871519 0.0043159723 -0.0035476992 0.00041697157 0.004291704
0.0027091685 0.005570553 -0.00109248 0.010087935 0.002099779 -0.00069533096 0.0022591383 0.0009891698
0.004395423 0.0050268797 -0.0016473645 -0.0052962326 0.0010523841 0.003355562 -0.0053104158 -0.0009768972
0.009239307 0.002440068 -0.0032275794 0.002994081 0.00012546849 0.009075151 -0.0084354 -0.001791172
0.0037894128 0.0010391554 0.0023503993 -0.0020656488 0.00407331 -0.011248021 0.006440543 0.007194654
0.0212324 -0.0011666418 -0.010904409 -0.00030575664 0.001623519 0.0045523373 0.00031124311 -0.006925385
-0.0031103662 -0.0063954424 -0.001347038 0.008397389 -0.0046305386 0.021113103 -0.005896393 -0.006666444
-0.0002374571 0.011346836 0.007295327 0.003268623 0.0034470912 -0.011500159 8.637464e-05 -0.0020905633

bn1.running_var f4 [512]
00000000: a055 433f 41d9 d13f 471d 8d3f a818 dc3f
00000010: 4991 923f afea 883f bd4b f93f bc6f 8e3f
00000020: 1d9e 623f f92f 643f c1ba eb3f 2a61 343f
00000030: e1cc 943f ae66 383f 2fad 363f 88e8 1140
00000040: 81d3 ac3f 8190 5f40 8993 b63f 5d27 823f
00000050: e0d3 8f3f 33cc 5440 5741 253f 3c2a 723f
00000060: b33f 0940 83ac 853f a589 b03f f1b6 a13f
00000070: 8d6a 2d40 6c3a 1f40 aadd 1f40 57a6 d83f
00000080: 18cd 313f 86af 443f 8426 f53f 017f 9e3f
00000090: bca6 0240 b5b2 9e3f ed1d 1e3f 1414 fa3e
000000a0: 2355 583f 24c9 d83f b406 9a3f 2f4d fd3f
000000b0: 87fe e53f 176d c63f d59d b43f aa74 0e40
000000c0: 838c e03f 52da 3d3f 38ab 8140 35e8 ad3f
000000d0: 13cf 4740 7422 9c3f a76e f13f 43ef 0c40
000000e0: 3020 833f fef8 6a3f 1bc6 0140 deed d13f
000000f0: 3132 bb3f 3458 0540 38ce 1f3f d184 4f3f
00000100: e28e 713f 287b 8a3f f8a2 3940 5990 2a3f
00000110: 836f 0440 5305 913f ccba 2740 4599 433f
00000120: 9e8c c63f 25a9 d13f 0518 9f3f 3b25 b03f
00000130: b8d1 173f 230e eb3f 786e 0840 d877 2a40
00000140: 1bae d93f ec72 fe3f 2c79 b13f 5bc8 d23f
00000150: 41b1 2240 5718 0740 8b64 f33f 0f73 6c3f
00000160: b28b 823f fe96 d03f 9694 053f 2660 1240
00000170: 1ed3 d93e 93c7 2840 5a9d 4b3f 23f7 fe3f
00000180: 00ed 473f 5fb1 603f 1fa3 0840 d072 0c40
00000190: 65b5 b13f 5c89 103f 4263 893f dedb f03e
000001a0: 180b 9c3f bdef f33f 14a8 473f d56d 5f40
000001b0: 53f5 903f 95df f93f 4a4b 543f 9cb3 2a3f
000001c0: 6ee6 0440 0aea 2c40 3236 1440 dd77 b53f
000001d0: 4555 8a3f fa51 3a3f f6e8 613f 69b0 4c3f
000001e0: 778f 313f baaf 4c3f f80a f83f 3947 1340
000001f0: 5c78 f13f ab84 0240 0fc9 1c40 d12a bb3f
00000200: 5603 733f fb3c e63f 2b60 bc3e 031f 923f
00000210: 6949 c73f 225e 803f 4667 703f 55aa fe3f
00000220: 75be 173f 64c5 f53f 0f34 853f 2b36 623f
00000230: 5855 1240 1a32 8440 f00d b93f 4ac9 893f
00000240: 92cb 873f 82c8 2d3f f9e8 923f c9c7 883f
00000250: 3283 e63f 70df 143f 6861 4f3f a243 7a3f
00000260: e50f 3f3f eea5 a63f a791 9d3f bb00 2c3f
00000270: 4a43 df3f ac86 243f 0409 1840 3604 6a3f
00000280: 26ed 2a40 6d99 c43f 9431 5d3f 6f55 0f40
00000290: 396f 8b3f 21d9 5a3f 799f c53f 8f1e 2a3f
000002a0: 85c7 1b3f b030 6d3f 6553 1a3f 3ae5 cc3f
000002b0: ada2 fb3f 1e90 6b3f a68d 563f be8e 943f
000002c0: 8547 933f da65 f73f 2d06 c53f 2ffc a83f
000002d0: 4fdf 883f dc58 0a3f afc5 0a40 dbad 5a3f
000002e0: de59 b13f 4dd1 8f3f a5c2 c73e f4dc 9a3f
000002f0: 3702 0f40 1f60 2740 55d0 bf3f 8b27 8d3f
00000300: db43 863f f8f9 403f bbd8 af3f aed2 173f
00000310: 3e58 a33f 0a90 7a3f b167 183f 9a34 e53f
00000320: 7af0 303f bf91 cd3f e875 2440 4e89 2440
00000330: 7d7b 563f 0e07 373f a4e0 1d40 06a1 633f
00000340: c598 133f 5484 bb3f 06ee 1340 3edb 863f
00000350: 2c37 5e3f 40c7 543f 8697 423f c66d 1240
00000360: da0a 8c3f fba5 643f 216d 193f cff4 ad3f
00000370: 263c 2d3f cb87 6b3f 905c 7a3f 1ce5 553f
00000380: 63ae 263f 7aae 823f bd87 8340 1cf5 cb3f
00000390: 2e1e 793f ed4f 7b3f 6afd 2b40 4c72 953f
000003a0: eb79 a23f 725c 863f 65d8 0440 d785 843f
000003b0: 10e3 0a40 835f 6c3f fb71 5b3f c424 073f
000003c0: a323 873f 082c 443f a158 513f aaac bb3f
000003d0: 169f f33f 7f0e dc3f 23a4 a63f ab5b 3f3f
000003e0: 9763 8040 a802 363f 1bae d23f 08b7 0440
000003f0: 436e 083f 8b26 4840 5e83 ae3f bc96 1540
0.7630253 1.6394426 1.102456 1.7195024 1.1450588 1.069662 1.9476238 1.1127849
0.8852251 0.891357 1.8416368 0.7046076 1.1625024 0.72031677 0.7135801 2.2798176
1.3502046 3.4931948 1.4263774 1.0168263 1.1236534 3.3249633 0.64552826 0.94595695
2.144513 1.0443271 1.3792006 1.2633954 2.7096283 2.4879408 2.4979043 1.6925763
0.69453573 0.7683033 1.9152379 1.2382509 2.0414267 1.2398287 0.61764413 0.48843443
0.8450491 1.6936383 1.2033296 1.978918 1.79683 1.5502042 1.4110667 2.2258706
1.7542881 0.74161255 4.0521507 1.3586489 3.1220138 1.2198014 1.8861893 2.2021034
1.0244198 0.9178618 2.0277164 1.6400716 1.4624692 2.0835085 0.6242404 0.81062037
0.94358647 1.0818834 2.9005718 0.6662651 2.0693061 1.132975 2.6207762 0.76405746
1.5511663 1.6379744 1.2429205 1.3761362 0.5930438 1.8363689 2.1317425 2.6635647
1.7006258 1.9878821 1.3865104 1.6467394 2.5420687 2.1108606 1.9015058 0.92363065
1.0198882 1.6296079 0.5217985 2.2871184 0.42543882 2.637181 0.79536974 1.991917
0.7809601 0.87770647 2.1349561 2.1945076 1.3883482 0.56459594 1.0733416 0.47042745
1.2190886 1.9057537 0.7799084 3.4910786 1.1324867 1.9521357 0.8292738 0.6668031
2.0765643 2.7017846 2.3158078 1.4177204 1.0807272 0.72781336 0.88246095 0.7995668
0.69359535 0.7995564 1.9378347 2.301222 1.8864856 2.0393474 2.4497716 1.4622442
0.94926965 1.798736 0.3679212 1.1415714 1.5569278 1.0028727 0.9390758 1.9895731
0.5927499 1.9200864 1.0406512 0.88363904 2.286459 4.131116 1.4457378 1.0764554
1.0609 0.67884076 1.1477348 1.068597 1.8008788 0.5815344 0.81008005 0.9775945
0.7463363 1.3019388 1.2310075 0.67188615 1.744241 0.6426799 2.3755503 0.91412675
2.6707244 1.5359322 0.86403775 2.2395895 1.0893317 0.8548756 1.5439292 0.6645288
0.6085132 0.92652416 0.602835 1.6007454 1.965902 0.9201678 0.8380989 1.1606061
1.1506201 1.9327958 1.539251 1.320196 1.0693148 0.5404184 2.1683156 0.8542153
1.385555 1.1235749 0.3901569 1.209868 2.2345102 2.6152418 1.4985453 1.1027693
1.0489458 0.7538142 1.3738016 0.59305847 1.2761304 0.97876036 0.5953322 1.7906678
0.6911694 1.6060103 2.5696964 2.5708804 0.8378218 0.7149514 2.466836 0.8891758
0.5765498 1.4649758 2.3114028 1.0535657 0.86802936 0.8311653 0.76012456 2.28795
1.0940812 0.89315766 0.5993214 1.3590335 0.67669904 0.9200408 0.9779749 0.8355272
0.65109843 1.0209496 4.1103196 1.5934176 0.97311676 0.9816883 2.6873422 1.1675506
1.2693456 1.0496962 2.0757077 1.0353345 2.1701088 0.9233324 0.85720795 0.52790475
1.055775 0.76629686 0.8177586 1.4662068 1.9032924 1.7191924 1.301884 0.7474925
4.012157 0.71097803 1.6459383 2.0736713 0.53293246 3.1273525 1.363384 2.337325

fc2.weight f4 [256, 512]
00000000: 08cf 1ebe 0dde 65be dc73 4fbe 7b70 8c3c
00000010: 4569 a7be 73c3 dfbd 2a7d 443e 59e7 8d3e
00000020: 5011 4d3e 0d58 173f 2c8e 2ebe c2fc c4bd
00000030: e501 3e3e d995 11bd c91a f6be a38f 803d
00000040: 3180 443e 7ca5 d23d f7e4 513e 89b2 cfbe
00000050: 0376 f83e c551 eb3c 52bc 1ebf 098e 8b3e
00000060: 6ab1 35bd fc22 6bbc 00e6 43be c365 f6bd
00000070: 2220 5abe 646e 2b3e 0a04 ba3e 880d 283e
00000080: fb7a cebd 4d8f c13c 35ae 4c3d a959 8abe
00000090: 422b 22be 11a2 e43d 7665 91be 91b3 483f
000000a0: b724 33bc 6650 283b 6a21 b8bd 715d e4be
000000b0: 6a04 b03c 1fc2 42bd 32b8 0b3d 8030 f3bc
000000c0: 854b e93c 5dcc 15bd e86b e33d 487a 8839
000000d0: fcfc 0e3b db86 dc3d 69a5 ef3d d7f5 823b
000000e0: 0f2d 97be 2aaf 58be 82af 093d 7133 b03a
000000f0: da3c c43e 9e6f 183e 4b18 1abf 09f7 8bbe
00000100: 7e4a 8a3c 3f6f ebbd 917c b2bd b0a6 8a3e
00000110: d9c3 473d f2f9 093e 65fb 2b3d 0f10 393d
00000120: 66d4 073d 1e55 0cbe d2d0 923d 82a8 c83b
00000130: 35fa 773e c7c7 9ebd e0f2 0a3e 478d df3e
00000140: 9342 703e 08c0 4bbe 9ee5 85be 053e 1fbd
00000150: 8359 a8bd 5221 a93c 6797 22bd 6ab3 7abd
00000160: b251 d2bd 6e7f 91bc 89af ddbd b708 b83d
00000170: 1932 8abc d24d 9c3c 0ec5 08be c502 993d
00000180: 412b bcbe d593 8c3e 77be d33e b2cc 26be
00000190: 0045 f43d 0cb1 0e3d 8335 293e 3d2f 81be
000001a0: ca12 42be e824 9abe b76c 06bf 4ebd f63d
000001b0: e67e b43e c82d 1b3c b6db 85ba 9321 b0be
000001c0: 8446 ff3d 63db debb 1ccb 99bd c71f fdbd
000001d0: c1f1 b0be 79fd b7bd 29e6 43be 53a4 80bd
000001e0: 98d6 bbbe 8436 24be 7588 b33d c8c0 fcbd
000001f0: a92b 05bc f72c 1f3e 16ea a8bc eeb4 d63c
00000200: 1a34 49be 4389 183e c084 0d3e 4942 5e3e
00000210: 7a8d f33c 2ca3 b7bd 0cc9 413d 610b 7d3e
00000220: 76c6 8abe eac5 c2bb 9568 1abe b21f cfbe
00000230: 8b9a 973e 8b3b a23d aeec 8cbd 41e7 013e
00000240: 2761 54be 6385 26bf 8a8c f5bd a34c 83be
00000250: 46a5 9a3e 9955 533e ede0 28bd 78b5 d03e
00000260: a211 28be a87a d33d 384d adbe 7970 953d
00000270: dcf2 db3d 576b b83d 386f 35be 3c6a 94bd
00000280: e7dc 0fbd 4a48 0abd b50a 04be f50f 6a3d
00000290: 19c7 aebe 6097 523e 75bc 963d 43d7 bebd
000002a0: 3c39 9bbd ab56 c03e b9c1 e53d c20f c3bd
000002b0: a175 ecbc 6827 6b3e e871 ccbd cd30 47bb
000002c0: 7421 213e 493b 85bd 9089 403e 7118 ce3d
000002d0: 4458 b4bd 3916 213e 2d8e cd3d c3e7 443d
000002e0: 0487 dbbe 566c df3e 2f2b 283e c25d 2abe
000002f0: 71f7 29be 6286 413e 2209 6a3c e984 6d3e
00000300: 998e d43d 204b 473e da80 27be 6360 ca3e
00000310: 8049 1d3e 48aa 483e 0d34 f23d d4e7 bc3d
00000320: 4b7c c03d 2cb3 073d a523 713b 2866 4bbe
00000330: be63 aebe 6919 c7bd 744a 363e ea1b 7e3d
00000340: 9d61 053d 9ddb 053d 8b61 db3d f245 0d3e
00000350: 6b76 80bd a930 25bd 1fa6 2bbe 109d ab3d
00000360: 2a02 883e 07d8 093f d4c6 883e e05e ac3c
00000370: 0273 c13b b29c 6cbe bc96 64be 331c d73d
00000380: 7175 493e 524c 46be 6143 d3bc d840 4ebe
00000390: 113c d1bd 8f85 873e ab6f 5d3e 3f44 68bd
000003a0: 648d 5cbe 0f84 48bd 7aa6 63bd 307f 6cbe
000003b0: bc44 053d 72ff 9e3c 4067 3ebe fc5c 433e
000003c0: e07c 4ebe dd31 9ebe e1fd a23e cd44 78be
000003d0: 932e f33d 0faa b8bd 730a cf3d ef29 a13e
000003e0: 5862 7dbc 8fa6 1cbd 2636 c7bd 8ab0 b9bd
000003f0: 9318 3e3e 9d10 3d3e fed0 9a3d 2d5e 753d
-0.15508664 -0.22447987 -0.2025904 0.017143479 -0.32697502 -0.10925951 0.19188371 0.27715567
0.20026135 0.5911873 -0.17046422 -0.09618522 0.1855541 -0.035543296 -0.4806731 0.062773965
0.19189526 0.1028547 0.204975 -0.405659 0.48527536 0.028725514 -0.62006104 0.27256802
-0.04435865 -0.014351603 -0.19130707 -0.12031128 -0.2130132 0.1674133 0.36331207 0.16411412
-0.100820504 0.023627901 0.049970824 -0.2702153 -0.15836814 0.11163724 -0.2839772 0.78398997
-0.0109340465 0.0025682687 -0.08990748 -0.4460254 0.02148648 -0.04754841 0.03411121 -0.029686213
0.028478393 -0.03657185 0.11104566 0.00026031048 0.002181827 0.10767909 0.11701471 0.0039965915
-0.29526564 -0.2116057 0.033614643 0.0013443065 0.38327676 0.14886329 -0.6019332 -0.2733691
0.016881224 -0.11495828 -0.087151654 0.27080297 0.04877076 0.13474253 0.041987795 0.04518133
0.033161543 -0.13704345 0.071687356 0.0061236033 0.2421654 -0.07752948 0.13569212 0.43662474
0.23462896 -0.19897473 -0.26151747 -0.038877506 -0.08220198 0.020645771 -0.03969517 -0.06120626
-0.102694884 -0.017760959 -0.10824496 0.08986037 -0.016869592 0.019080076 -0.1335642 0.07471231
-0.3675175 0.27456537 0.4135625 -0.16289023 0.11927223 0.034836814 0.1652432 -0.25231352
-0.1895248 -0.30106282 -0.52509636 0.12047826 0.35253066 0.009471364 -0.0010212574 -0.34400615
0.12464622 -0.0068010553 -0.07509443 -0.12359577 -0.34559444 -0.08983893 -0.19130768 -0.06281342
-0.3668716 -0.16036421 0.087662615 -0.123414576 -0.008128085 0.15544496 -0.020619433 0.02620932
-0.19648781 0.14896111 0.13820171 0.21704973 0.029730547 -0.089666694 0.047310874 0.24711372
-0.2710454 -0.0059440034 -0.15078957 -0.4045387 0.29610094 0.07921513 -0.068810806 0.12685873
-0.20740186 -0.6504728 -0.11989696 -0.25644407 0.3020422 0.20638122 -0.04123013 0.4076345
-0.16412976 0.10326129 -0.33847976 0.07296843 0.10739681 0.090048485 -0.17718208 -0.07246825
-0.03512278 -0.033760346 -0.1289471 0.057144124 -0.34136274 0.20565557 0.07360164 -0.09318402
-0.07579276 0.37566122 0.1121859 -0.0952449 -0.028864684 0.22964251 -0.099826634 -0.0030394078
0.15735418 -0.06505448 0.18802476 0.100632556 -0.08805898 0.15731134 0.100368835 0.048072588
-0.42876446 0.4363734 0.16422723 -0.16637328 -0.16598298 0.18898919 0.014284404 0.23195232
0.10378761 0.19462252 -0.16357747 0.39526662 0.1536007 0.19596207 0.11826334 0.09223905
0.09398707 0.033129856 0.0036794927 -0.19863188 -0.34060472 -0.097216435 0.17801839 0.06203834
0.032563794 0.032680143 0.10711964 0.13796213 -0.062725864 -0.04032961 -0.16762589 0.08379567
0.2656415 0.53845257 0.26714194 0.021041334 0.0059036026 -0.2310665 -0.22323126 0.105034254
0.19673707 -0.19365051 -0.025788965 -0.20141923 -0.10216535 0.26469085 0.21624629 -0.05670571
-0.21538311 -0.048954066 -0.055578686 -0.23095393 0.032536253 0.019408915 -0.18594074 0.1907844
-0.20164824 -0.30897418 0.3183432 -0.24244995 0.11874118 -0.09016811 0.10109415 0.31477305
-0.0154653415 -0.03824478 -0.09727125 -0.09066875 0.18564062 0.18463369 0.07559393 0.059904266

fc2.bias f4 [256]
00000000: 384d 35b9 e845 1e3b b316 523b 3e97 e53b
00000010: f832 ec3a 6e02 a93b a86d 093c c3f8 2b3c
00000020: 68f8 a439 d0fc 02bc c058 793a 6627 dcbb
00000030: 789e e0bb f8af 22bb 0bce 3f3c 32d5 9cb9
00000040: f1fd 1c3c e194 b83a 5326 ea3b 6730 8eba
00000050: f972 403b a8d4 a2b9 fd40 a53b 1dd6 463b
00000060: 02b1 edba bc33 86bc 207c 8039 ab59 98ba
00000070: 84be 67bb 3c2d d53b 8b53 dcb9 acca 7abc
00000080: 881e c43a 22b0 753a c218 a0ba 76b2 47ba
00000090: 637d 8639 ec26 273c a8b4 3dba 583b ec3a
000000a0: 913e 1f3b de0e a7ba 664a d2bb 045f aeba
000000b0: 79ac bd3a de9f 2a3c bbf8 0a3c 1da9 a53a
000000c0: ab68 8e3a 709a 2839 e6c5 5c3b ae9d 76bb
000000d0: 0c67 263c 4710 2dbc 56f4 09bc e49e e6ba
000000e0: 389e 6fba 0a5b 01bb 68dc 4e38 a944 453b
000000f0: d653 633c f7a5 0c3b edda 26ba 6475 50bc
00000100: 205d 1fba 0b52 9a3b 40f9 9f3b 5324 a73b
00000110: bc78 323b 1975 093b e864 8e3b ec9b 2d3b
00000120: 3e7e 973b 5553 433c 5d01 7cbc 5467 103b
00000130: ce3e bdbb 314c 04bc 82ae fdbb cb76 f0ba
00000140: 64ad 0dbc 4c2f c139 ca37 033b c430 993b
00000150: 48cc 3c3a f9ac 3c3b 036e c03b 59bb 93bb
00000160: 36ee df3a b053 86bb 95aa 42bb c282 5c3b
00000170: b493 88ba e083 153b 39a0 7b3c 9ac5 4e3b
00000180: e7f3 bf3b 2951 113c 3754 023b 1338 91ba
00000190: b32a 52bb 6b07 dcbb 8434 cfbb 5a34 c3ba
000001a0: 3a78 b4ba 0bd2 9abb 3be3 00bb 70a3 043b
000001b0: 11ef cabb daf8 883b 1af1 813a c463 87ba
000001c0: 6aae 72bb f146 96ba e5e9 2a3c c42a d53c
000001d0: c0ca a439 d03f 8a39 d6a7 69bc 8119 aeba
000001e0: d776 073c 4620 64bb 0c88 04bb 3379 763c
000001f0: 6cbc 943c 780b 1e3b c730 893b f4dd c13b
00000200: 248f d23a af82 3c3b 8b12 52bb 6fcf 233c
00000210: a0ee 813b 8c27 4dbb 4419 923a 04b2 943c
00000220: c500 053a d044 4139 7cd0 eaba 2bac a2ba
00000230: ea4b 9a3a 3408 303a 68fc f438 66f3 81bb
00000240: 32d8 22bb b61e a73b a6e1 043b 7b5a 64ba
00000250: a4e5 0a3b 10fa 27bc 5b6d 06bc 0865 7abc
00000260: 5857 6e3b 5034 fd3a 8860 9cb9 51c2 9b3b
00000270: 1213 8f3b 9eb6 87bb fb91 ac3a 95d2 b83b
00000280: d917 b0ba 66bb 543b 7b91 30bc 620b 23ba
00000290: 263a ebb8 2acd 41bb 1d76 08bc f4fe b53b
000002a0: e806 4b3b 1453 89ba 991d 343a 2862 d63b
000002b0: f234 ca3b 1dec ae3a 1821 8fbb 7c56 813b
000002c0: ee56 01bc 18cd 8abb 2438 343b e9ab cdba
000002d0: 98df 3039 e1a8 9a3a c136 47bb 28ac 113a
000002e0: 9b6d 77bb 5f6e 8cbb 06cc 093c 8740 94ba
000002f0: 7367 5e3b 62cc 43bc e030 fc37 d7cb a5bb
00000300: 0185 803b 4e51 c3b9 1535 64bb 0ed4 06bc
00000310: e66a d5bb 3e9f 093b d60d f1ba 0e4b 663b
00000320: 334e 253b 1caf 113b 626e 51bb 46aa 303b
00000330: eecb cf3b e48f c5bb 21b7 fcbb a790 20b9
00000340: 4582 193c 00aa 15bc 9e53 093b 8677 9cba
00000350: b0f5 74ba b35f 8fbb a899 003c 0190 183b
00000360: b6df b2bb 167d f4bb 27a3 a33b 86da 02bb
00000370: db5b 5c3c ebc9 813b ccfe 733c ab5a 433c
00000380: 65bf 46bc cc1d 033b aad2 423c 342d 0839
00000390: 22ff 49bb cc21 163b 1f11 c73b 9133 2a3c
000003a0: 3efc 39bb 7269 86bb e33e 1fbb 52eb 1b3b
000003b0: ab87 0bbb 7e50 bd3b 7875 2bbc 7431 de39
000003c0: e7a6 ebbb 9607 1ebb 2090 443a a69a 9abb
000003d0: fa97 90ba de20 8fbc ee0c 973a 606e 2eb9
000003e0: f0da 1b3c c09e f03b a3c9 cfbb fe54 cebb
000003f0: c06d 9238 7417 06bc 0656 163a 3c50 0c3b
-0.00017290271 0.0024150554 0.0032056987 0.007006555 0.0018020561 0.0051577603 0.0083879605 0.010496321
0.00031465595 -0.0079948455 0.0009511821 -0.006718564 -0.0068548284 -0.0024824124 0.011706839 -0.00029913482
0.009582029 0.0014082455 0.007145682 -0.0010848165 0.0029365404 -0.0003105749 0.0050431476 0.0030340024
-0.0018134417 -0.01638209 0.00024506543 -0.0011623403 -0.003536136 0.0065056365 -0.00042023914 -0.01530711
0.0014962712 0.0009372254 -0.001221441 -0.00076178403 0.00025651892 0.010202151 -0.0007236698 0.0018023057
0.0024298767 -0.001274552 -0.0064175604 -0.0013303463 0.0014470957 0.010414092 0.0084821535 0.0012638901
0.0010864934 0.00016079261 0.0033687293 -0.0037630606 0.010156404 -0.010562963 -0.008420071 -0.001759496
-0.0009140703 -0.0019738101 4.9319497e-05 0.003010074 0.0138749685 0.0021461227 -0.000636502 -0.012723301
-0.00060792454 0.0047094873 0.004882008 0.0051007657 0.0027232608 0.0020974337 0.004345525 0.0026490642
0.0046232035 0.011921723 -0.015381184 0.0022034245 -0.005775309 -0.008074806 -0.00774175 -0.001834595
-0.008647297 0.00036847068 0.0020022267 0.004675003 0.0007202071 0.0028789623 0.0058724894 -0.0045084176
0.0017084542 -0.004099332 -0.0029703726 0.0033647274 -0.0010419996 0.00228142 0.015358024 0.0031550885
0.005857933 0.008869448 0.0019886622 -0.0011079333 -0.0032068908 -0.0067147515 -0.006323399 -0.0014892921
-0.001376874 -0.004724746 -0.001966669 0.0020239018 -0.0061930497 0.004180056 0.0009913773 -0.0010329415
-0.0037030228 -0.0011465234 0.010431741 0.026021369 0.00031431578 0.00026368955 -0.014261207 -0.0013282747
0.00826808 -0.0034809276 -0.0020222692 0.015043545 0.018156253 0.0024115723 0.004186723 0.0059163515
0.0016064388 0.0028764417 -0.003205451 0.0099981865 0.003965214 -0.003130409 0.0011146446 0.01815129
0.0005073662 0.00018431549 -0.0017914916 -0.0012410929 0.0011771892 0.00067150895 0.00011681841 -0.003965783
-0.00248481 0.0051000966 0.0020276099 -0.00087109924 0.0021194005 -0.010252491 -0.008204783 -0.015282877
0.003636798 0.0019317959 -0.0002982656 0.004753389 0.004366287 -0.0041416427 0.0013166064 0.0056403377
-0.0013434842 0.003246033 -0.010776873 -0.0006219653 -0.00011216504 -0.002957175 -0.008328942 0.0055540744
0.0030979458 -0.001047703 0.00068708655 0.006542463 0.0061708624 0.0013345514 -0.0043679588 0.0039470773
-0.007894261 -0.004235875 0.0027499283 -0.0015691492 0.00016867963 0.0011799597 -0.0030397626 0.00055569643
-0.003775454 -0.004285618 0.008410459 -0.0011310735 0.0033936172 -0.011950584 3.00635e-05 -0.0050597
0.0039221053 -0.00037253875 -0.0034821678 -0.008229269 -0.0065129874 0.0020999457 -0.0018390964 0.003513995
0.0025223612 0.0022229617 -0.0031956662 0.002695696 0.006341449 -0.006029116 -0.0077122604 -0.00015312676
0.009369438 -0.009134769 0.002095438 -0.0011937476 -0.00093444716 -0.004375422 0.0078491345 0.0023279192
-0.0054587973 -0.0074612005 0.0049938145 -0.0019966676 0.013449634 0.003960838 0.014892291 0.011923472
-0.012130593 0.0020006774 0.011891047 0.0001298681 -0.0030822237 0.0022908328 0.006075039 0.010388271
-0.0028379108 -0.0041019255 -0.0024298958 0.0023791385 -0.0021290581 0.0057774177 -0.010465018 0.00042379985
-0.007191527 -0.0024113408 0.0007498283 -0.0047181426 -0.0011031621 -0.017471727 0.0011524239 -0.00016635051
0.009512648 0.007343143 -0.0063411756 -0.006296753 6.982265e-05 -0.008184303 0.00057348644 0.0021410128
